<?xml version="1.0" ?>
<net name="dacovadetection_20221214_145226_331380" version="11">
	<layers>
		<layer id="0" name="image_input" type="Parameter" version="opset1">
			<data element_type="f32" shape="1,960,960,3"/>
			<rt_info>
				<attribute name="fused_names" value="image_input" version="0"/>
				<attribute name="old_api_map_order" value="0, 2, 3, 1" version="0"/>
			</rt_info>
			<output>
				<port id="0" names="image_input:0" precision="FP32">
					<dim>1</dim>
					<dim>960</dim>
					<dim>960</dim>
					<dim>3</dim>
				</port>
			</output>
		</layer>
		<layer id="1" name="image_input/Transpose([0 3 1 2])/value1448421331" type="Const" version="opset1">
			<data element_type="i64" offset="0" shape="4" size="32"/>
			<rt_info>
				<attribute name="fused_names" value="image_input/Transpose([0 3 1 2])/value1448421331" version="0"/>
			</rt_info>
			<output>
				<port id="0" precision="I64">
					<dim>4</dim>
				</port>
			</output>
		</layer>
		<layer id="2" name="image_input/Transpose([0 3 1 2])" type="Transpose" version="opset1">
			<rt_info>
				<attribute name="fused_names" value="image_input/Transpose([0 3 1 2])" version="0"/>
			</rt_info>
			<input>
				<port id="0" precision="FP32">
					<dim>1</dim>
					<dim>960</dim>
					<dim>960</dim>
					<dim>3</dim>
				</port>
				<port id="1" precision="I64">
					<dim>4</dim>
				</port>
			</input>
			<output>
				<port id="2" precision="FP32">
					<dim>1</dim>
					<dim>3</dim>
					<dim>960</dim>
					<dim>960</dim>
				</port>
			</output>
		</layer>
		<layer id="3" name="Conv/BatchNorm/batchnorm/mul_1_copy" type="Const" version="opset1">
			<data element_type="f32" offset="32" shape="16, 3, 3, 3" size="1728"/>
			<rt_info>
				<attribute name="fused_names" value="Conv/BatchNorm/batchnorm/mul_1_copy" version="0"/>
			</rt_info>
			<output>
				<port id="0" names="Conv/Conv2D/ReadVariableOp:0" precision="FP32">
					<dim>16</dim>
					<dim>3</dim>
					<dim>3</dim>
					<dim>3</dim>
				</port>
			</output>
		</layer>
		<layer id="4" name="Conv/Conv2D" type="Convolution" version="opset1">
			<data auto_pad="explicit" dilations="1, 1" pads_begin="0, 0" pads_end="1, 1" strides="2, 2"/>
			<rt_info>
				<attribute name="fused_names" value="Conv/Conv2D, Conv_pad/Pad" version="0"/>
			</rt_info>
			<input>
				<port id="0" precision="FP32">
					<dim>1</dim>
					<dim>3</dim>
					<dim>960</dim>
					<dim>960</dim>
				</port>
				<port id="1" precision="FP32">
					<dim>16</dim>
					<dim>3</dim>
					<dim>3</dim>
					<dim>3</dim>
				</port>
			</input>
			<output>
				<port id="2" names="Conv/BatchNorm/batchnorm/mul_1:0" precision="FP32">
					<dim>1</dim>
					<dim>16</dim>
					<dim>480</dim>
					<dim>480</dim>
				</port>
			</output>
		</layer>
		<layer id="5" name="Conv/BatchNorm/batchnorm/sub" type="Const" version="opset1">
			<data element_type="f32" offset="1760" shape="1, 16, 1, 1" size="64"/>
			<rt_info>
				<attribute name="fused_names" value="Conv/BatchNorm/batchnorm/sub" version="0"/>
			</rt_info>
			<output>
				<port id="0" names="Conv/BatchNorm/batchnorm/sub:0" precision="FP32">
					<dim>1</dim>
					<dim>16</dim>
					<dim>1</dim>
					<dim>1</dim>
				</port>
			</output>
		</layer>
		<layer id="6" name="Conv/BatchNorm/batchnorm/add_1" type="Add" version="opset1">
			<data auto_broadcast="numpy"/>
			<rt_info>
				<attribute name="fused_names" value="Conv/BatchNorm/batchnorm/add_1" version="0"/>
			</rt_info>
			<input>
				<port id="0" precision="FP32">
					<dim>1</dim>
					<dim>16</dim>
					<dim>480</dim>
					<dim>480</dim>
				</port>
				<port id="1" precision="FP32">
					<dim>1</dim>
					<dim>16</dim>
					<dim>1</dim>
					<dim>1</dim>
				</port>
			</input>
			<output>
				<port id="2" names="Conv/BatchNorm/batchnorm/add_1:0" precision="FP32">
					<dim>1</dim>
					<dim>16</dim>
					<dim>480</dim>
					<dim>480</dim>
				</port>
			</output>
		</layer>
		<layer id="7" name="activation/multiply/mul" type="HSwish" version="opset4">
			<rt_info>
				<attribute name="fused_names" value="activation/activation/mul, activation/multiply/mul" version="0"/>
			</rt_info>
			<input>
				<port id="0" precision="FP32">
					<dim>1</dim>
					<dim>16</dim>
					<dim>480</dim>
					<dim>480</dim>
				</port>
			</input>
			<output>
				<port id="1" names="activation/multiply/mul:0" precision="FP32">
					<dim>1</dim>
					<dim>16</dim>
					<dim>480</dim>
					<dim>480</dim>
				</port>
			</output>
		</layer>
		<layer id="8" name="expanded_conv/depthwise/BatchNorm/batchnorm/mul_1_copy" type="Const" version="opset1">
			<data element_type="f32" offset="1824" shape="16, 1, 1, 3, 3" size="576"/>
			<rt_info>
				<attribute name="fused_names" value="expanded_conv/depthwise/BatchNorm/batchnorm/mul_1_copy" version="0"/>
			</rt_info>
			<output>
				<port id="0" names="expanded_conv/depthwise/Conv/depthwise/ReadVariableOp:0" precision="FP32">
					<dim>16</dim>
					<dim>1</dim>
					<dim>1</dim>
					<dim>3</dim>
					<dim>3</dim>
				</port>
			</output>
		</layer>
		<layer id="9" name="expanded_conv/depthwise/Conv/depthwise" type="GroupConvolution" version="opset1">
			<data auto_pad="explicit" dilations="1, 1" pads_begin="0, 0" pads_end="1, 1" strides="2, 2"/>
			<rt_info>
				<attribute name="fused_names" value="expanded_conv/depthwise/Conv/depthwise, expanded_conv/depthwise/pad/Pad" version="0"/>
			</rt_info>
			<input>
				<port id="0" precision="FP32">
					<dim>1</dim>
					<dim>16</dim>
					<dim>480</dim>
					<dim>480</dim>
				</port>
				<port id="1" precision="FP32">
					<dim>16</dim>
					<dim>1</dim>
					<dim>1</dim>
					<dim>3</dim>
					<dim>3</dim>
				</port>
			</input>
			<output>
				<port id="2" names="expanded_conv/depthwise/BatchNorm/batchnorm/mul_1:0" precision="FP32">
					<dim>1</dim>
					<dim>16</dim>
					<dim>240</dim>
					<dim>240</dim>
				</port>
			</output>
		</layer>
		<layer id="10" name="expanded_conv/depthwise/BatchNorm/batchnorm/sub" type="Const" version="opset1">
			<data element_type="f32" offset="2400" shape="1, 16, 1, 1" size="64"/>
			<rt_info>
				<attribute name="fused_names" value="expanded_conv/depthwise/BatchNorm/batchnorm/sub" version="0"/>
			</rt_info>
			<output>
				<port id="0" names="expanded_conv/depthwise/BatchNorm/batchnorm/sub:0" precision="FP32">
					<dim>1</dim>
					<dim>16</dim>
					<dim>1</dim>
					<dim>1</dim>
				</port>
			</output>
		</layer>
		<layer id="11" name="expanded_conv/depthwise/BatchNorm/batchnorm/add_1" type="Add" version="opset1">
			<data auto_broadcast="numpy"/>
			<rt_info>
				<attribute name="fused_names" value="expanded_conv/depthwise/BatchNorm/batchnorm/add_1" version="0"/>
			</rt_info>
			<input>
				<port id="0" precision="FP32">
					<dim>1</dim>
					<dim>16</dim>
					<dim>240</dim>
					<dim>240</dim>
				</port>
				<port id="1" precision="FP32">
					<dim>1</dim>
					<dim>16</dim>
					<dim>1</dim>
					<dim>1</dim>
				</port>
			</input>
			<output>
				<port id="2" names="expanded_conv/depthwise/BatchNorm/batchnorm/add_1:0" precision="FP32">
					<dim>1</dim>
					<dim>16</dim>
					<dim>240</dim>
					<dim>240</dim>
				</port>
			</output>
		</layer>
		<layer id="12" name="activation_1/Relu" type="ReLU" version="opset1">
			<rt_info>
				<attribute name="fused_names" value="activation_1/Relu" version="0"/>
			</rt_info>
			<input>
				<port id="0" precision="FP32">
					<dim>1</dim>
					<dim>16</dim>
					<dim>240</dim>
					<dim>240</dim>
				</port>
			</input>
			<output>
				<port id="1" precision="FP32">
					<dim>1</dim>
					<dim>16</dim>
					<dim>240</dim>
					<dim>240</dim>
				</port>
			</output>
		</layer>
		<layer id="13" name="expanded_conv/squeeze_excite/AvgPool/MeanGather1608721253" type="Const" version="opset1">
			<data element_type="i64" offset="2464" shape="2" size="16"/>
			<rt_info>
				<attribute name="fused_names" value="expanded_conv/squeeze_excite/AvgPool/MeanGather1608721253" version="0"/>
			</rt_info>
			<output>
				<port id="0" precision="I64">
					<dim>2</dim>
				</port>
			</output>
		</layer>
		<layer id="14" name="expanded_conv/squeeze_excite/AvgPool/Mean" type="ReduceMean" version="opset1">
			<data keep_dims="false"/>
			<rt_info>
				<attribute name="fused_names" value="expanded_conv/squeeze_excite/AvgPool/Mean" version="0"/>
			</rt_info>
			<input>
				<port id="0" precision="FP32">
					<dim>1</dim>
					<dim>16</dim>
					<dim>240</dim>
					<dim>240</dim>
				</port>
				<port id="1" precision="I64">
					<dim>2</dim>
				</port>
			</input>
			<output>
				<port id="2" names="expanded_conv/squeeze_excite/AvgPool/Mean:0" precision="FP32">
					<dim>1</dim>
					<dim>16</dim>
				</port>
			</output>
		</layer>
		<layer id="15" name="reshape/Shape" type="ShapeOf" version="opset3">
			<data output_type="i32"/>
			<rt_info>
				<attribute name="fused_names" value="reshape/Shape" version="0"/>
			</rt_info>
			<input>
				<port id="0" precision="FP32">
					<dim>1</dim>
					<dim>16</dim>
				</port>
			</input>
			<output>
				<port id="1" names="reshape/Shape:0" precision="I32">
					<dim>2</dim>
				</port>
			</output>
		</layer>
		<layer id="16" name="reshape/strided_slice/stack" type="Const" version="opset1">
			<data element_type="i64" offset="2480" shape="1" size="8"/>
			<rt_info>
				<attribute name="fused_names" value="reshape/strided_slice/stack" version="0"/>
			</rt_info>
			<output>
				<port id="0" names="reshape/strided_slice/stack:0" precision="I64">
					<dim>1</dim>
				</port>
			</output>
		</layer>
		<layer id="17" name="reshape/strided_slice/stack_1" type="Const" version="opset1">
			<data element_type="i64" offset="2488" shape="1" size="8"/>
			<rt_info>
				<attribute name="fused_names" value="reshape/strided_slice/stack_1" version="0"/>
			</rt_info>
			<output>
				<port id="0" names="reshape/strided_slice/stack_1:0" precision="I64">
					<dim>1</dim>
				</port>
			</output>
		</layer>
		<layer id="18" name="reshape/strided_slice/stack_2" type="Const" version="opset1">
			<data element_type="i64" offset="2488" shape="1" size="8"/>
			<rt_info>
				<attribute name="fused_names" value="reshape/strided_slice/stack_2" version="0"/>
			</rt_info>
			<output>
				<port id="0" names="reshape/strided_slice/stack_2:0" precision="I64">
					<dim>1</dim>
				</port>
			</output>
		</layer>
		<layer id="19" name="reshape/strided_slice" type="StridedSlice" version="opset1">
			<data begin_mask="0" ellipsis_mask="0" end_mask="0" new_axis_mask="0" shrink_axis_mask="1"/>
			<rt_info>
				<attribute name="fused_names" value="reshape/strided_slice, reshape/strided_slice/stack, reshape/strided_slice/stack_1, reshape/strided_slice/stack_2" version="0"/>
			</rt_info>
			<input>
				<port id="0" precision="I32">
					<dim>2</dim>
				</port>
				<port id="1" precision="I64">
					<dim>1</dim>
				</port>
				<port id="2" precision="I64">
					<dim>1</dim>
				</port>
				<port id="3" precision="I64">
					<dim>1</dim>
				</port>
			</input>
			<output>
				<port id="4" names="reshape/strided_slice:0" precision="I32"/>
			</output>
		</layer>
		<layer id="20" name="reshape/Reshape/shape/Unsqueeze_input_port_1/value" type="Const" version="opset1">
			<data element_type="i64" offset="2480" shape="1" size="8"/>
			<rt_info>
				<attribute name="fused_names" value="reshape/Reshape/shape/Unsqueeze_input_port_1/value" version="0"/>
			</rt_info>
			<output>
				<port id="0" precision="I64">
					<dim>1</dim>
				</port>
			</output>
		</layer>
		<layer id="21" name="reshape/Reshape/shape/Unsqueeze" type="Unsqueeze" version="opset1">
			<rt_info>
				<attribute name="fused_names" value="reshape/Reshape/shape/Unsqueeze, reshape/Reshape/shape/Unsqueeze_input_port_1/value" version="0"/>
			</rt_info>
			<input>
				<port id="0" precision="I32"/>
				<port id="1" precision="I64">
					<dim>1</dim>
				</port>
			</input>
			<output>
				<port id="2" precision="I32">
					<dim>1</dim>
				</port>
			</output>
		</layer>
		<layer id="22" name="reshape/Reshape/shape/Unsqueeze1428" type="Const" version="opset1">
			<data element_type="i32" offset="2496" shape="1" size="4"/>
			<rt_info>
				<attribute name="fused_names" value="reshape/Reshape/shape/Unsqueeze1428" version="0"/>
			</rt_info>
			<output>
				<port id="0" precision="I32">
					<dim>1</dim>
				</port>
			</output>
		</layer>
		<layer id="23" name="reshape/Reshape/shape/Unsqueeze1430" type="Const" version="opset1">
			<data element_type="i32" offset="2496" shape="1" size="4"/>
			<rt_info>
				<attribute name="fused_names" value="reshape/Reshape/shape/Unsqueeze1430" version="0"/>
			</rt_info>
			<output>
				<port id="0" precision="I32">
					<dim>1</dim>
				</port>
			</output>
		</layer>
		<layer id="24" name="reshape/Reshape/shape/Unsqueeze1432" type="Const" version="opset1">
			<data element_type="i32" offset="2500" shape="1" size="4"/>
			<rt_info>
				<attribute name="fused_names" value="reshape/Reshape/shape/Unsqueeze1432" version="0"/>
			</rt_info>
			<output>
				<port id="0" precision="I32">
					<dim>1</dim>
				</port>
			</output>
		</layer>
		<layer id="25" name="reshape/Reshape/shape" type="Concat" version="opset1">
			<data axis="0"/>
			<rt_info>
				<attribute name="fused_names" value="reshape/Reshape/shape, reshape/Reshape/shape/Unsqueeze1428, reshape/Reshape/shape/Unsqueeze1430, reshape/Reshape/shape/Unsqueeze1432" version="0"/>
			</rt_info>
			<input>
				<port id="0" precision="I32">
					<dim>1</dim>
				</port>
				<port id="1" precision="I32">
					<dim>1</dim>
				</port>
				<port id="2" precision="I32">
					<dim>1</dim>
				</port>
				<port id="3" precision="I32">
					<dim>1</dim>
				</port>
			</input>
			<output>
				<port id="4" precision="I32">
					<dim>4</dim>
				</port>
			</output>
		</layer>
		<layer id="26" name="reshape/Reshape/Cast_1" type="Convert" version="opset1">
			<data destination_type="i64"/>
			<rt_info>
				<attribute name="fused_names" value="reshape/Reshape/Cast_1" version="0"/>
			</rt_info>
			<input>
				<port id="0" precision="I32">
					<dim>4</dim>
				</port>
			</input>
			<output>
				<port id="1" names="reshape/Reshape/shape:0" precision="I64">
					<dim>4</dim>
				</port>
			</output>
		</layer>
		<layer id="27" name="reshape/Reshape" type="Reshape" version="opset1">
			<data special_zero="false"/>
			<rt_info>
				<attribute name="fused_names" value="reshape/Reshape" version="0"/>
			</rt_info>
			<input>
				<port id="0" precision="FP32">
					<dim>1</dim>
					<dim>16</dim>
				</port>
				<port id="1" precision="I64">
					<dim>4</dim>
				</port>
			</input>
			<output>
				<port id="2" precision="FP32">
					<dim>1</dim>
					<dim>1</dim>
					<dim>1</dim>
					<dim>16</dim>
				</port>
			</output>
		</layer>
		<layer id="28" name="Constant_3279" type="Const" version="opset1">
			<data element_type="i64" offset="2504" shape="4" size="32"/>
			<output>
				<port id="0" precision="I64">
					<dim>4</dim>
				</port>
			</output>
		</layer>
		<layer id="29" name="reshape/Reshape/Transpose" type="Reshape" version="opset1">
			<data special_zero="true"/>
			<rt_info>
				<attribute name="fused_names" value="reshape/Reshape/Transpose" version="0"/>
			</rt_info>
			<input>
				<port id="0" precision="FP32">
					<dim>1</dim>
					<dim>1</dim>
					<dim>1</dim>
					<dim>16</dim>
				</port>
				<port id="1" precision="I64">
					<dim>4</dim>
				</port>
			</input>
			<output>
				<port id="2" names="reshape/Reshape:0" precision="FP32">
					<dim>1</dim>
					<dim>16</dim>
					<dim>1</dim>
					<dim>1</dim>
				</port>
			</output>
		</layer>
		<layer id="30" name="expanded_conv/squeeze_excite/Conv/Conv2D/ReadVariableOp" type="Const" version="opset1">
			<data element_type="f32" offset="2536" shape="8, 16, 1, 1" size="512"/>
			<rt_info>
				<attribute name="fused_names" value="expanded_conv/squeeze_excite/Conv/Conv2D/ReadVariableOp" version="0"/>
			</rt_info>
			<output>
				<port id="0" names="expanded_conv/squeeze_excite/Conv/Conv2D/ReadVariableOp:0" precision="FP32">
					<dim>8</dim>
					<dim>16</dim>
					<dim>1</dim>
					<dim>1</dim>
				</port>
			</output>
		</layer>
		<layer id="31" name="expanded_conv/squeeze_excite/Conv/Conv2D" type="Convolution" version="opset1">
			<data auto_pad="same_upper" dilations="1, 1" pads_begin="0, 0" pads_end="0, 0" strides="1, 1"/>
			<rt_info>
				<attribute name="fused_names" value="expanded_conv/squeeze_excite/Conv/Conv2D" version="0"/>
			</rt_info>
			<input>
				<port id="0" precision="FP32">
					<dim>1</dim>
					<dim>16</dim>
					<dim>1</dim>
					<dim>1</dim>
				</port>
				<port id="1" precision="FP32">
					<dim>8</dim>
					<dim>16</dim>
					<dim>1</dim>
					<dim>1</dim>
				</port>
			</input>
			<output>
				<port id="2" names="expanded_conv/squeeze_excite/Conv/Conv2D:0" precision="FP32">
					<dim>1</dim>
					<dim>8</dim>
					<dim>1</dim>
					<dim>1</dim>
				</port>
			</output>
		</layer>
		<layer id="32" name="expanded_conv/squeeze_excite/Conv/BiasAdd/ReadVariableOp" type="Const" version="opset1">
			<data element_type="f32" offset="3048" shape="1, 8, 1, 1" size="32"/>
			<rt_info>
				<attribute name="fused_names" value="expanded_conv/squeeze_excite/Conv/BiasAdd/ReadVariableOp" version="0"/>
			</rt_info>
			<output>
				<port id="0" names="expanded_conv/squeeze_excite/Conv/BiasAdd/ReadVariableOp:0" precision="FP32">
					<dim>1</dim>
					<dim>8</dim>
					<dim>1</dim>
					<dim>1</dim>
				</port>
			</output>
		</layer>
		<layer id="33" name="expanded_conv/squeeze_excite/Conv/BiasAdd/Add" type="Add" version="opset1">
			<data auto_broadcast="numpy"/>
			<rt_info>
				<attribute name="fused_names" value="expanded_conv/squeeze_excite/Conv/BiasAdd/Add" version="0"/>
			</rt_info>
			<input>
				<port id="0" precision="FP32">
					<dim>1</dim>
					<dim>8</dim>
					<dim>1</dim>
					<dim>1</dim>
				</port>
				<port id="1" precision="FP32">
					<dim>1</dim>
					<dim>8</dim>
					<dim>1</dim>
					<dim>1</dim>
				</port>
			</input>
			<output>
				<port id="2" names="expanded_conv/squeeze_excite/Conv/BiasAdd:0" precision="FP32">
					<dim>1</dim>
					<dim>8</dim>
					<dim>1</dim>
					<dim>1</dim>
				</port>
			</output>
		</layer>
		<layer id="34" name="expanded_conv/squeeze_excite/Relu/Relu" type="ReLU" version="opset1">
			<rt_info>
				<attribute name="fused_names" value="expanded_conv/squeeze_excite/Relu/Relu" version="0"/>
			</rt_info>
			<input>
				<port id="0" precision="FP32">
					<dim>1</dim>
					<dim>8</dim>
					<dim>1</dim>
					<dim>1</dim>
				</port>
			</input>
			<output>
				<port id="1" names="expanded_conv/squeeze_excite/Relu/Relu:0" precision="FP32">
					<dim>1</dim>
					<dim>8</dim>
					<dim>1</dim>
					<dim>1</dim>
				</port>
			</output>
		</layer>
		<layer id="35" name="expanded_conv/squeeze_excite/Conv_1/Conv2D/ReadVariableOp" type="Const" version="opset1">
			<data element_type="f32" offset="3080" shape="16, 8, 1, 1" size="512"/>
			<rt_info>
				<attribute name="fused_names" value="expanded_conv/squeeze_excite/Conv_1/Conv2D/ReadVariableOp" version="0"/>
			</rt_info>
			<output>
				<port id="0" names="expanded_conv/squeeze_excite/Conv_1/Conv2D/ReadVariableOp:0" precision="FP32">
					<dim>16</dim>
					<dim>8</dim>
					<dim>1</dim>
					<dim>1</dim>
				</port>
			</output>
		</layer>
		<layer id="36" name="expanded_conv/squeeze_excite/Conv_1/Conv2D" type="Convolution" version="opset1">
			<data auto_pad="same_upper" dilations="1, 1" pads_begin="0, 0" pads_end="0, 0" strides="1, 1"/>
			<rt_info>
				<attribute name="fused_names" value="expanded_conv/squeeze_excite/Conv_1/Conv2D" version="0"/>
			</rt_info>
			<input>
				<port id="0" precision="FP32">
					<dim>1</dim>
					<dim>8</dim>
					<dim>1</dim>
					<dim>1</dim>
				</port>
				<port id="1" precision="FP32">
					<dim>16</dim>
					<dim>8</dim>
					<dim>1</dim>
					<dim>1</dim>
				</port>
			</input>
			<output>
				<port id="2" names="expanded_conv/squeeze_excite/Conv_1/Conv2D:0" precision="FP32">
					<dim>1</dim>
					<dim>16</dim>
					<dim>1</dim>
					<dim>1</dim>
				</port>
			</output>
		</layer>
		<layer id="37" name="expanded_conv/squeeze_excite/Conv_1/BiasAdd/ReadVariableOp" type="Const" version="opset1">
			<data element_type="f32" offset="3592" shape="1, 16, 1, 1" size="64"/>
			<rt_info>
				<attribute name="fused_names" value="expanded_conv/squeeze_excite/Conv_1/BiasAdd/ReadVariableOp" version="0"/>
			</rt_info>
			<output>
				<port id="0" names="expanded_conv/squeeze_excite/Conv_1/BiasAdd/ReadVariableOp:0" precision="FP32">
					<dim>1</dim>
					<dim>16</dim>
					<dim>1</dim>
					<dim>1</dim>
				</port>
			</output>
		</layer>
		<layer id="38" name="expanded_conv/squeeze_excite/Conv_1/BiasAdd/Add" type="Add" version="opset1">
			<data auto_broadcast="numpy"/>
			<rt_info>
				<attribute name="fused_names" value="expanded_conv/squeeze_excite/Conv_1/BiasAdd/Add" version="0"/>
			</rt_info>
			<input>
				<port id="0" precision="FP32">
					<dim>1</dim>
					<dim>16</dim>
					<dim>1</dim>
					<dim>1</dim>
				</port>
				<port id="1" precision="FP32">
					<dim>1</dim>
					<dim>16</dim>
					<dim>1</dim>
					<dim>1</dim>
				</port>
			</input>
			<output>
				<port id="2" names="expanded_conv/squeeze_excite/Conv_1/BiasAdd:0" precision="FP32">
					<dim>1</dim>
					<dim>16</dim>
					<dim>1</dim>
					<dim>1</dim>
				</port>
			</output>
		</layer>
		<layer id="39" name="activation_2/mul" type="HSigmoid" version="opset5">
			<rt_info>
				<attribute name="fused_names" value="activation_2/mul" version="0"/>
			</rt_info>
			<input>
				<port id="0" precision="FP32">
					<dim>1</dim>
					<dim>16</dim>
					<dim>1</dim>
					<dim>1</dim>
				</port>
			</input>
			<output>
				<port id="1" names="activation_2/mul:0" precision="FP32">
					<dim>1</dim>
					<dim>16</dim>
					<dim>1</dim>
					<dim>1</dim>
				</port>
			</output>
		</layer>
		<layer id="40" name="expanded_conv/squeeze_excite/Mul/mul" type="Multiply" version="opset1">
			<data auto_broadcast="numpy"/>
			<rt_info>
				<attribute name="fused_names" value="expanded_conv/squeeze_excite/Mul/mul" version="0"/>
			</rt_info>
			<input>
				<port id="0" precision="FP32">
					<dim>1</dim>
					<dim>16</dim>
					<dim>240</dim>
					<dim>240</dim>
				</port>
				<port id="1" precision="FP32">
					<dim>1</dim>
					<dim>16</dim>
					<dim>1</dim>
					<dim>1</dim>
				</port>
			</input>
			<output>
				<port id="2" names="expanded_conv/squeeze_excite/Mul/mul:0" precision="FP32">
					<dim>1</dim>
					<dim>16</dim>
					<dim>240</dim>
					<dim>240</dim>
				</port>
			</output>
		</layer>
		<layer id="41" name="expanded_conv/project/BatchNorm/batchnorm/mul_1_copy" type="Const" version="opset1">
			<data element_type="f32" offset="3656" shape="16, 16, 1, 1" size="1024"/>
			<rt_info>
				<attribute name="fused_names" value="expanded_conv/project/BatchNorm/batchnorm/mul_1_copy" version="0"/>
			</rt_info>
			<output>
				<port id="0" names="expanded_conv/project/Conv2D/ReadVariableOp:0" precision="FP32">
					<dim>16</dim>
					<dim>16</dim>
					<dim>1</dim>
					<dim>1</dim>
				</port>
			</output>
		</layer>
		<layer id="42" name="expanded_conv/project/Conv2D" type="Convolution" version="opset1">
			<data auto_pad="same_upper" dilations="1, 1" pads_begin="0, 0" pads_end="0, 0" strides="1, 1"/>
			<rt_info>
				<attribute name="fused_names" value="expanded_conv/project/Conv2D" version="0"/>
			</rt_info>
			<input>
				<port id="0" precision="FP32">
					<dim>1</dim>
					<dim>16</dim>
					<dim>240</dim>
					<dim>240</dim>
				</port>
				<port id="1" precision="FP32">
					<dim>16</dim>
					<dim>16</dim>
					<dim>1</dim>
					<dim>1</dim>
				</port>
			</input>
			<output>
				<port id="2" names="expanded_conv/project/BatchNorm/batchnorm/mul_1:0" precision="FP32">
					<dim>1</dim>
					<dim>16</dim>
					<dim>240</dim>
					<dim>240</dim>
				</port>
			</output>
		</layer>
		<layer id="43" name="expanded_conv/project/BatchNorm/batchnorm/sub" type="Const" version="opset1">
			<data element_type="f32" offset="4680" shape="1, 16, 1, 1" size="64"/>
			<rt_info>
				<attribute name="fused_names" value="expanded_conv/project/BatchNorm/batchnorm/sub" version="0"/>
			</rt_info>
			<output>
				<port id="0" names="expanded_conv/project/BatchNorm/batchnorm/sub:0" precision="FP32">
					<dim>1</dim>
					<dim>16</dim>
					<dim>1</dim>
					<dim>1</dim>
				</port>
			</output>
		</layer>
		<layer id="44" name="expanded_conv/project/BatchNorm/batchnorm/add_1" type="Add" version="opset1">
			<data auto_broadcast="numpy"/>
			<rt_info>
				<attribute name="fused_names" value="expanded_conv/project/BatchNorm/batchnorm/add_1" version="0"/>
			</rt_info>
			<input>
				<port id="0" precision="FP32">
					<dim>1</dim>
					<dim>16</dim>
					<dim>240</dim>
					<dim>240</dim>
				</port>
				<port id="1" precision="FP32">
					<dim>1</dim>
					<dim>16</dim>
					<dim>1</dim>
					<dim>1</dim>
				</port>
			</input>
			<output>
				<port id="2" names="expanded_conv/project/BatchNorm/batchnorm/add_1:0" precision="FP32">
					<dim>1</dim>
					<dim>16</dim>
					<dim>240</dim>
					<dim>240</dim>
				</port>
			</output>
		</layer>
		<layer id="45" name="expanded_conv_1/expand/BatchNorm/batchnorm/mul_1_copy" type="Const" version="opset1">
			<data element_type="f32" offset="4744" shape="72, 16, 1, 1" size="4608"/>
			<rt_info>
				<attribute name="fused_names" value="expanded_conv_1/expand/BatchNorm/batchnorm/mul_1_copy" version="0"/>
			</rt_info>
			<output>
				<port id="0" names="expanded_conv_1/expand/Conv2D/ReadVariableOp:0" precision="FP32">
					<dim>72</dim>
					<dim>16</dim>
					<dim>1</dim>
					<dim>1</dim>
				</port>
			</output>
		</layer>
		<layer id="46" name="expanded_conv_1/expand/Conv2D" type="Convolution" version="opset1">
			<data auto_pad="same_upper" dilations="1, 1" pads_begin="0, 0" pads_end="0, 0" strides="1, 1"/>
			<rt_info>
				<attribute name="fused_names" value="expanded_conv_1/expand/Conv2D" version="0"/>
			</rt_info>
			<input>
				<port id="0" precision="FP32">
					<dim>1</dim>
					<dim>16</dim>
					<dim>240</dim>
					<dim>240</dim>
				</port>
				<port id="1" precision="FP32">
					<dim>72</dim>
					<dim>16</dim>
					<dim>1</dim>
					<dim>1</dim>
				</port>
			</input>
			<output>
				<port id="2" names="expanded_conv_1/expand/BatchNorm/batchnorm/mul_1:0" precision="FP32">
					<dim>1</dim>
					<dim>72</dim>
					<dim>240</dim>
					<dim>240</dim>
				</port>
			</output>
		</layer>
		<layer id="47" name="expanded_conv_1/expand/BatchNorm/batchnorm/sub" type="Const" version="opset1">
			<data element_type="f32" offset="9352" shape="1, 72, 1, 1" size="288"/>
			<rt_info>
				<attribute name="fused_names" value="expanded_conv_1/expand/BatchNorm/batchnorm/sub" version="0"/>
			</rt_info>
			<output>
				<port id="0" names="expanded_conv_1/expand/BatchNorm/batchnorm/sub:0" precision="FP32">
					<dim>1</dim>
					<dim>72</dim>
					<dim>1</dim>
					<dim>1</dim>
				</port>
			</output>
		</layer>
		<layer id="48" name="expanded_conv_1/expand/BatchNorm/batchnorm/add_1" type="Add" version="opset1">
			<data auto_broadcast="numpy"/>
			<rt_info>
				<attribute name="fused_names" value="expanded_conv_1/expand/BatchNorm/batchnorm/add_1" version="0"/>
			</rt_info>
			<input>
				<port id="0" precision="FP32">
					<dim>1</dim>
					<dim>72</dim>
					<dim>240</dim>
					<dim>240</dim>
				</port>
				<port id="1" precision="FP32">
					<dim>1</dim>
					<dim>72</dim>
					<dim>1</dim>
					<dim>1</dim>
				</port>
			</input>
			<output>
				<port id="2" names="expanded_conv_1/expand/BatchNorm/batchnorm/add_1:0" precision="FP32">
					<dim>1</dim>
					<dim>72</dim>
					<dim>240</dim>
					<dim>240</dim>
				</port>
			</output>
		</layer>
		<layer id="49" name="activation_3/Relu" type="ReLU" version="opset1">
			<rt_info>
				<attribute name="fused_names" value="activation_3/Relu" version="0"/>
			</rt_info>
			<input>
				<port id="0" precision="FP32">
					<dim>1</dim>
					<dim>72</dim>
					<dim>240</dim>
					<dim>240</dim>
				</port>
			</input>
			<output>
				<port id="1" names="activation_3/Relu:0" precision="FP32">
					<dim>1</dim>
					<dim>72</dim>
					<dim>240</dim>
					<dim>240</dim>
				</port>
			</output>
		</layer>
		<layer id="50" name="expanded_conv_1/depthwise/BatchNorm/batchnorm/mul_1_copy" type="Const" version="opset1">
			<data element_type="f32" offset="9640" shape="72, 1, 1, 3, 3" size="2592"/>
			<rt_info>
				<attribute name="fused_names" value="expanded_conv_1/depthwise/BatchNorm/batchnorm/mul_1_copy" version="0"/>
			</rt_info>
			<output>
				<port id="0" names="expanded_conv_1/depthwise/Conv/depthwise/ReadVariableOp:0" precision="FP32">
					<dim>72</dim>
					<dim>1</dim>
					<dim>1</dim>
					<dim>3</dim>
					<dim>3</dim>
				</port>
			</output>
		</layer>
		<layer id="51" name="expanded_conv_1/depthwise/Conv/depthwise" type="GroupConvolution" version="opset1">
			<data auto_pad="explicit" dilations="1, 1" pads_begin="0, 0" pads_end="1, 1" strides="2, 2"/>
			<rt_info>
				<attribute name="fused_names" value="expanded_conv_1/depthwise/Conv/depthwise, expanded_conv_1/depthwise/pad/Pad" version="0"/>
			</rt_info>
			<input>
				<port id="0" precision="FP32">
					<dim>1</dim>
					<dim>72</dim>
					<dim>240</dim>
					<dim>240</dim>
				</port>
				<port id="1" precision="FP32">
					<dim>72</dim>
					<dim>1</dim>
					<dim>1</dim>
					<dim>3</dim>
					<dim>3</dim>
				</port>
			</input>
			<output>
				<port id="2" names="expanded_conv_1/depthwise/BatchNorm/batchnorm/mul_1:0" precision="FP32">
					<dim>1</dim>
					<dim>72</dim>
					<dim>120</dim>
					<dim>120</dim>
				</port>
			</output>
		</layer>
		<layer id="52" name="expanded_conv_1/depthwise/BatchNorm/batchnorm/sub" type="Const" version="opset1">
			<data element_type="f32" offset="12232" shape="1, 72, 1, 1" size="288"/>
			<rt_info>
				<attribute name="fused_names" value="expanded_conv_1/depthwise/BatchNorm/batchnorm/sub" version="0"/>
			</rt_info>
			<output>
				<port id="0" names="expanded_conv_1/depthwise/BatchNorm/batchnorm/sub:0" precision="FP32">
					<dim>1</dim>
					<dim>72</dim>
					<dim>1</dim>
					<dim>1</dim>
				</port>
			</output>
		</layer>
		<layer id="53" name="expanded_conv_1/depthwise/BatchNorm/batchnorm/add_1" type="Add" version="opset1">
			<data auto_broadcast="numpy"/>
			<rt_info>
				<attribute name="fused_names" value="expanded_conv_1/depthwise/BatchNorm/batchnorm/add_1" version="0"/>
			</rt_info>
			<input>
				<port id="0" precision="FP32">
					<dim>1</dim>
					<dim>72</dim>
					<dim>120</dim>
					<dim>120</dim>
				</port>
				<port id="1" precision="FP32">
					<dim>1</dim>
					<dim>72</dim>
					<dim>1</dim>
					<dim>1</dim>
				</port>
			</input>
			<output>
				<port id="2" names="expanded_conv_1/depthwise/BatchNorm/batchnorm/add_1:0" precision="FP32">
					<dim>1</dim>
					<dim>72</dim>
					<dim>120</dim>
					<dim>120</dim>
				</port>
			</output>
		</layer>
		<layer id="54" name="activation_4/Relu" type="ReLU" version="opset1">
			<rt_info>
				<attribute name="fused_names" value="activation_4/Relu" version="0"/>
			</rt_info>
			<input>
				<port id="0" precision="FP32">
					<dim>1</dim>
					<dim>72</dim>
					<dim>120</dim>
					<dim>120</dim>
				</port>
			</input>
			<output>
				<port id="1" names="activation_4/Relu:0" precision="FP32">
					<dim>1</dim>
					<dim>72</dim>
					<dim>120</dim>
					<dim>120</dim>
				</port>
			</output>
		</layer>
		<layer id="55" name="expanded_conv_1/project/BatchNorm/batchnorm/mul_1_copy" type="Const" version="opset1">
			<data element_type="f32" offset="12520" shape="24, 72, 1, 1" size="6912"/>
			<rt_info>
				<attribute name="fused_names" value="expanded_conv_1/project/BatchNorm/batchnorm/mul_1_copy" version="0"/>
			</rt_info>
			<output>
				<port id="0" names="expanded_conv_1/project/Conv2D/ReadVariableOp:0" precision="FP32">
					<dim>24</dim>
					<dim>72</dim>
					<dim>1</dim>
					<dim>1</dim>
				</port>
			</output>
		</layer>
		<layer id="56" name="expanded_conv_1/project/Conv2D" type="Convolution" version="opset1">
			<data auto_pad="same_upper" dilations="1, 1" pads_begin="0, 0" pads_end="0, 0" strides="1, 1"/>
			<rt_info>
				<attribute name="fused_names" value="expanded_conv_1/project/Conv2D" version="0"/>
			</rt_info>
			<input>
				<port id="0" precision="FP32">
					<dim>1</dim>
					<dim>72</dim>
					<dim>120</dim>
					<dim>120</dim>
				</port>
				<port id="1" precision="FP32">
					<dim>24</dim>
					<dim>72</dim>
					<dim>1</dim>
					<dim>1</dim>
				</port>
			</input>
			<output>
				<port id="2" names="expanded_conv_1/project/BatchNorm/batchnorm/mul_1:0" precision="FP32">
					<dim>1</dim>
					<dim>24</dim>
					<dim>120</dim>
					<dim>120</dim>
				</port>
			</output>
		</layer>
		<layer id="57" name="expanded_conv_1/project/BatchNorm/batchnorm/sub" type="Const" version="opset1">
			<data element_type="f32" offset="19432" shape="1, 24, 1, 1" size="96"/>
			<rt_info>
				<attribute name="fused_names" value="expanded_conv_1/project/BatchNorm/batchnorm/sub" version="0"/>
			</rt_info>
			<output>
				<port id="0" names="expanded_conv_1/project/BatchNorm/batchnorm/sub:0" precision="FP32">
					<dim>1</dim>
					<dim>24</dim>
					<dim>1</dim>
					<dim>1</dim>
				</port>
			</output>
		</layer>
		<layer id="58" name="expanded_conv_1/project/BatchNorm/batchnorm/add_1" type="Add" version="opset1">
			<data auto_broadcast="numpy"/>
			<rt_info>
				<attribute name="fused_names" value="expanded_conv_1/project/BatchNorm/batchnorm/add_1" version="0"/>
			</rt_info>
			<input>
				<port id="0" precision="FP32">
					<dim>1</dim>
					<dim>24</dim>
					<dim>120</dim>
					<dim>120</dim>
				</port>
				<port id="1" precision="FP32">
					<dim>1</dim>
					<dim>24</dim>
					<dim>1</dim>
					<dim>1</dim>
				</port>
			</input>
			<output>
				<port id="2" names="expanded_conv_1/project/BatchNorm/batchnorm/add_1:0" precision="FP32">
					<dim>1</dim>
					<dim>24</dim>
					<dim>120</dim>
					<dim>120</dim>
				</port>
			</output>
		</layer>
		<layer id="59" name="expanded_conv_2/expand/BatchNorm/batchnorm/mul_1_copy" type="Const" version="opset1">
			<data element_type="f32" offset="19528" shape="88, 24, 1, 1" size="8448"/>
			<rt_info>
				<attribute name="fused_names" value="expanded_conv_2/expand/BatchNorm/batchnorm/mul_1_copy" version="0"/>
			</rt_info>
			<output>
				<port id="0" names="expanded_conv_2/expand/Conv2D/ReadVariableOp:0" precision="FP32">
					<dim>88</dim>
					<dim>24</dim>
					<dim>1</dim>
					<dim>1</dim>
				</port>
			</output>
		</layer>
		<layer id="60" name="expanded_conv_2/expand/Conv2D" type="Convolution" version="opset1">
			<data auto_pad="same_upper" dilations="1, 1" pads_begin="0, 0" pads_end="0, 0" strides="1, 1"/>
			<rt_info>
				<attribute name="fused_names" value="expanded_conv_2/expand/Conv2D" version="0"/>
			</rt_info>
			<input>
				<port id="0" precision="FP32">
					<dim>1</dim>
					<dim>24</dim>
					<dim>120</dim>
					<dim>120</dim>
				</port>
				<port id="1" precision="FP32">
					<dim>88</dim>
					<dim>24</dim>
					<dim>1</dim>
					<dim>1</dim>
				</port>
			</input>
			<output>
				<port id="2" names="expanded_conv_2/expand/BatchNorm/batchnorm/mul_1:0" precision="FP32">
					<dim>1</dim>
					<dim>88</dim>
					<dim>120</dim>
					<dim>120</dim>
				</port>
			</output>
		</layer>
		<layer id="61" name="expanded_conv_2/expand/BatchNorm/batchnorm/sub" type="Const" version="opset1">
			<data element_type="f32" offset="27976" shape="1, 88, 1, 1" size="352"/>
			<rt_info>
				<attribute name="fused_names" value="expanded_conv_2/expand/BatchNorm/batchnorm/sub" version="0"/>
			</rt_info>
			<output>
				<port id="0" names="expanded_conv_2/expand/BatchNorm/batchnorm/sub:0" precision="FP32">
					<dim>1</dim>
					<dim>88</dim>
					<dim>1</dim>
					<dim>1</dim>
				</port>
			</output>
		</layer>
		<layer id="62" name="expanded_conv_2/expand/BatchNorm/batchnorm/add_1" type="Add" version="opset1">
			<data auto_broadcast="numpy"/>
			<rt_info>
				<attribute name="fused_names" value="expanded_conv_2/expand/BatchNorm/batchnorm/add_1" version="0"/>
			</rt_info>
			<input>
				<port id="0" precision="FP32">
					<dim>1</dim>
					<dim>88</dim>
					<dim>120</dim>
					<dim>120</dim>
				</port>
				<port id="1" precision="FP32">
					<dim>1</dim>
					<dim>88</dim>
					<dim>1</dim>
					<dim>1</dim>
				</port>
			</input>
			<output>
				<port id="2" names="expanded_conv_2/expand/BatchNorm/batchnorm/add_1:0" precision="FP32">
					<dim>1</dim>
					<dim>88</dim>
					<dim>120</dim>
					<dim>120</dim>
				</port>
			</output>
		</layer>
		<layer id="63" name="activation_5/Relu" type="ReLU" version="opset1">
			<rt_info>
				<attribute name="fused_names" value="activation_5/Relu" version="0"/>
			</rt_info>
			<input>
				<port id="0" precision="FP32">
					<dim>1</dim>
					<dim>88</dim>
					<dim>120</dim>
					<dim>120</dim>
				</port>
			</input>
			<output>
				<port id="1" names="activation_5/Relu:0" precision="FP32">
					<dim>1</dim>
					<dim>88</dim>
					<dim>120</dim>
					<dim>120</dim>
				</port>
			</output>
		</layer>
		<layer id="64" name="expanded_conv_2/depthwise/BatchNorm/batchnorm/mul_1_copy" type="Const" version="opset1">
			<data element_type="f32" offset="28328" shape="88, 1, 1, 3, 3" size="3168"/>
			<rt_info>
				<attribute name="fused_names" value="expanded_conv_2/depthwise/BatchNorm/batchnorm/mul_1_copy" version="0"/>
			</rt_info>
			<output>
				<port id="0" names="expanded_conv_2/depthwise/Conv/depthwise/ReadVariableOp:0" precision="FP32">
					<dim>88</dim>
					<dim>1</dim>
					<dim>1</dim>
					<dim>3</dim>
					<dim>3</dim>
				</port>
			</output>
		</layer>
		<layer id="65" name="expanded_conv_2/depthwise/Conv/depthwise" type="GroupConvolution" version="opset1">
			<data auto_pad="same_upper" dilations="1, 1" pads_begin="0, 0" pads_end="0, 0" strides="1, 1"/>
			<rt_info>
				<attribute name="fused_names" value="expanded_conv_2/depthwise/Conv/depthwise" version="0"/>
			</rt_info>
			<input>
				<port id="0" precision="FP32">
					<dim>1</dim>
					<dim>88</dim>
					<dim>120</dim>
					<dim>120</dim>
				</port>
				<port id="1" precision="FP32">
					<dim>88</dim>
					<dim>1</dim>
					<dim>1</dim>
					<dim>3</dim>
					<dim>3</dim>
				</port>
			</input>
			<output>
				<port id="2" names="expanded_conv_2/depthwise/BatchNorm/batchnorm/mul_1:0" precision="FP32">
					<dim>1</dim>
					<dim>88</dim>
					<dim>120</dim>
					<dim>120</dim>
				</port>
			</output>
		</layer>
		<layer id="66" name="expanded_conv_2/depthwise/BatchNorm/batchnorm/sub" type="Const" version="opset1">
			<data element_type="f32" offset="31496" shape="1, 88, 1, 1" size="352"/>
			<rt_info>
				<attribute name="fused_names" value="expanded_conv_2/depthwise/BatchNorm/batchnorm/sub" version="0"/>
			</rt_info>
			<output>
				<port id="0" names="expanded_conv_2/depthwise/BatchNorm/batchnorm/sub:0" precision="FP32">
					<dim>1</dim>
					<dim>88</dim>
					<dim>1</dim>
					<dim>1</dim>
				</port>
			</output>
		</layer>
		<layer id="67" name="expanded_conv_2/depthwise/BatchNorm/batchnorm/add_1" type="Add" version="opset1">
			<data auto_broadcast="numpy"/>
			<rt_info>
				<attribute name="fused_names" value="expanded_conv_2/depthwise/BatchNorm/batchnorm/add_1" version="0"/>
			</rt_info>
			<input>
				<port id="0" precision="FP32">
					<dim>1</dim>
					<dim>88</dim>
					<dim>120</dim>
					<dim>120</dim>
				</port>
				<port id="1" precision="FP32">
					<dim>1</dim>
					<dim>88</dim>
					<dim>1</dim>
					<dim>1</dim>
				</port>
			</input>
			<output>
				<port id="2" names="expanded_conv_2/depthwise/BatchNorm/batchnorm/add_1:0" precision="FP32">
					<dim>1</dim>
					<dim>88</dim>
					<dim>120</dim>
					<dim>120</dim>
				</port>
			</output>
		</layer>
		<layer id="68" name="activation_6/Relu" type="ReLU" version="opset1">
			<rt_info>
				<attribute name="fused_names" value="activation_6/Relu" version="0"/>
			</rt_info>
			<input>
				<port id="0" precision="FP32">
					<dim>1</dim>
					<dim>88</dim>
					<dim>120</dim>
					<dim>120</dim>
				</port>
			</input>
			<output>
				<port id="1" names="activation_6/Relu:0" precision="FP32">
					<dim>1</dim>
					<dim>88</dim>
					<dim>120</dim>
					<dim>120</dim>
				</port>
			</output>
		</layer>
		<layer id="69" name="expanded_conv_2/project/BatchNorm/batchnorm/mul_1_copy" type="Const" version="opset1">
			<data element_type="f32" offset="31848" shape="24, 88, 1, 1" size="8448"/>
			<rt_info>
				<attribute name="fused_names" value="expanded_conv_2/project/BatchNorm/batchnorm/mul_1_copy" version="0"/>
			</rt_info>
			<output>
				<port id="0" names="expanded_conv_2/project/Conv2D/ReadVariableOp:0" precision="FP32">
					<dim>24</dim>
					<dim>88</dim>
					<dim>1</dim>
					<dim>1</dim>
				</port>
			</output>
		</layer>
		<layer id="70" name="expanded_conv_2/project/Conv2D" type="Convolution" version="opset1">
			<data auto_pad="same_upper" dilations="1, 1" pads_begin="0, 0" pads_end="0, 0" strides="1, 1"/>
			<rt_info>
				<attribute name="fused_names" value="expanded_conv_2/project/Conv2D" version="0"/>
			</rt_info>
			<input>
				<port id="0" precision="FP32">
					<dim>1</dim>
					<dim>88</dim>
					<dim>120</dim>
					<dim>120</dim>
				</port>
				<port id="1" precision="FP32">
					<dim>24</dim>
					<dim>88</dim>
					<dim>1</dim>
					<dim>1</dim>
				</port>
			</input>
			<output>
				<port id="2" names="expanded_conv_2/project/BatchNorm/batchnorm/mul_1:0" precision="FP32">
					<dim>1</dim>
					<dim>24</dim>
					<dim>120</dim>
					<dim>120</dim>
				</port>
			</output>
		</layer>
		<layer id="71" name="expanded_conv_2/project/BatchNorm/batchnorm/sub" type="Const" version="opset1">
			<data element_type="f32" offset="40296" shape="1, 24, 1, 1" size="96"/>
			<rt_info>
				<attribute name="fused_names" value="expanded_conv_2/project/BatchNorm/batchnorm/sub" version="0"/>
			</rt_info>
			<output>
				<port id="0" names="expanded_conv_2/project/BatchNorm/batchnorm/sub:0" precision="FP32">
					<dim>1</dim>
					<dim>24</dim>
					<dim>1</dim>
					<dim>1</dim>
				</port>
			</output>
		</layer>
		<layer id="72" name="expanded_conv_2/project/BatchNorm/batchnorm/add_1" type="Add" version="opset1">
			<data auto_broadcast="numpy"/>
			<rt_info>
				<attribute name="fused_names" value="expanded_conv_2/project/BatchNorm/batchnorm/add_1" version="0"/>
			</rt_info>
			<input>
				<port id="0" precision="FP32">
					<dim>1</dim>
					<dim>24</dim>
					<dim>120</dim>
					<dim>120</dim>
				</port>
				<port id="1" precision="FP32">
					<dim>1</dim>
					<dim>24</dim>
					<dim>1</dim>
					<dim>1</dim>
				</port>
			</input>
			<output>
				<port id="2" names="expanded_conv_2/project/BatchNorm/batchnorm/add_1:0" precision="FP32">
					<dim>1</dim>
					<dim>24</dim>
					<dim>120</dim>
					<dim>120</dim>
				</port>
			</output>
		</layer>
		<layer id="73" name="expanded_conv_2/Add/add" type="Add" version="opset1">
			<data auto_broadcast="numpy"/>
			<rt_info>
				<attribute name="fused_names" value="expanded_conv_2/Add/add" version="0"/>
			</rt_info>
			<input>
				<port id="0" precision="FP32">
					<dim>1</dim>
					<dim>24</dim>
					<dim>120</dim>
					<dim>120</dim>
				</port>
				<port id="1" precision="FP32">
					<dim>1</dim>
					<dim>24</dim>
					<dim>120</dim>
					<dim>120</dim>
				</port>
			</input>
			<output>
				<port id="2" names="expanded_conv_2/Add/add:0" precision="FP32">
					<dim>1</dim>
					<dim>24</dim>
					<dim>120</dim>
					<dim>120</dim>
				</port>
			</output>
		</layer>
		<layer id="74" name="expanded_conv_3/expand/BatchNorm/batchnorm/mul_1_copy" type="Const" version="opset1">
			<data element_type="f32" offset="40392" shape="96, 24, 1, 1" size="9216"/>
			<rt_info>
				<attribute name="fused_names" value="expanded_conv_3/expand/BatchNorm/batchnorm/mul_1_copy" version="0"/>
			</rt_info>
			<output>
				<port id="0" names="expanded_conv_3/expand/Conv2D/ReadVariableOp:0" precision="FP32">
					<dim>96</dim>
					<dim>24</dim>
					<dim>1</dim>
					<dim>1</dim>
				</port>
			</output>
		</layer>
		<layer id="75" name="expanded_conv_3/expand/Conv2D" type="Convolution" version="opset1">
			<data auto_pad="same_upper" dilations="1, 1" pads_begin="0, 0" pads_end="0, 0" strides="1, 1"/>
			<rt_info>
				<attribute name="fused_names" value="expanded_conv_3/expand/Conv2D" version="0"/>
			</rt_info>
			<input>
				<port id="0" precision="FP32">
					<dim>1</dim>
					<dim>24</dim>
					<dim>120</dim>
					<dim>120</dim>
				</port>
				<port id="1" precision="FP32">
					<dim>96</dim>
					<dim>24</dim>
					<dim>1</dim>
					<dim>1</dim>
				</port>
			</input>
			<output>
				<port id="2" names="expanded_conv_3/expand/BatchNorm/batchnorm/mul_1:0" precision="FP32">
					<dim>1</dim>
					<dim>96</dim>
					<dim>120</dim>
					<dim>120</dim>
				</port>
			</output>
		</layer>
		<layer id="76" name="expanded_conv_3/expand/BatchNorm/batchnorm/sub" type="Const" version="opset1">
			<data element_type="f32" offset="49608" shape="1, 96, 1, 1" size="384"/>
			<rt_info>
				<attribute name="fused_names" value="expanded_conv_3/expand/BatchNorm/batchnorm/sub" version="0"/>
			</rt_info>
			<output>
				<port id="0" names="expanded_conv_3/expand/BatchNorm/batchnorm/sub:0" precision="FP32">
					<dim>1</dim>
					<dim>96</dim>
					<dim>1</dim>
					<dim>1</dim>
				</port>
			</output>
		</layer>
		<layer id="77" name="expanded_conv_3/expand/BatchNorm/batchnorm/add_1" type="Add" version="opset1">
			<data auto_broadcast="numpy"/>
			<rt_info>
				<attribute name="fused_names" value="expanded_conv_3/expand/BatchNorm/batchnorm/add_1" version="0"/>
			</rt_info>
			<input>
				<port id="0" precision="FP32">
					<dim>1</dim>
					<dim>96</dim>
					<dim>120</dim>
					<dim>120</dim>
				</port>
				<port id="1" precision="FP32">
					<dim>1</dim>
					<dim>96</dim>
					<dim>1</dim>
					<dim>1</dim>
				</port>
			</input>
			<output>
				<port id="2" names="expanded_conv_3/expand/BatchNorm/batchnorm/add_1:0" precision="FP32">
					<dim>1</dim>
					<dim>96</dim>
					<dim>120</dim>
					<dim>120</dim>
				</port>
			</output>
		</layer>
		<layer id="78" name="activation_7/multiply_1/mul" type="HSwish" version="opset4">
			<rt_info>
				<attribute name="fused_names" value="activation_7/activation_1/mul, activation_7/multiply_1/mul" version="0"/>
			</rt_info>
			<input>
				<port id="0" precision="FP32">
					<dim>1</dim>
					<dim>96</dim>
					<dim>120</dim>
					<dim>120</dim>
				</port>
			</input>
			<output>
				<port id="1" names="activation_7/multiply_1/mul:0" precision="FP32">
					<dim>1</dim>
					<dim>96</dim>
					<dim>120</dim>
					<dim>120</dim>
				</port>
			</output>
		</layer>
		<layer id="79" name="expanded_conv_3/depthwise/BatchNorm/batchnorm/mul_1_copy" type="Const" version="opset1">
			<data element_type="f32" offset="49992" shape="96, 1, 1, 5, 5" size="9600"/>
			<rt_info>
				<attribute name="fused_names" value="expanded_conv_3/depthwise/BatchNorm/batchnorm/mul_1_copy" version="0"/>
			</rt_info>
			<output>
				<port id="0" names="expanded_conv_3/depthwise/Conv/depthwise/ReadVariableOp:0" precision="FP32">
					<dim>96</dim>
					<dim>1</dim>
					<dim>1</dim>
					<dim>5</dim>
					<dim>5</dim>
				</port>
			</output>
		</layer>
		<layer id="80" name="expanded_conv_3/depthwise/Conv/depthwise" type="GroupConvolution" version="opset1">
			<data auto_pad="explicit" dilations="1, 1" pads_begin="1, 1" pads_end="2, 2" strides="2, 2"/>
			<rt_info>
				<attribute name="fused_names" value="expanded_conv_3/depthwise/Conv/depthwise, expanded_conv_3/depthwise/pad/Pad" version="0"/>
			</rt_info>
			<input>
				<port id="0" precision="FP32">
					<dim>1</dim>
					<dim>96</dim>
					<dim>120</dim>
					<dim>120</dim>
				</port>
				<port id="1" precision="FP32">
					<dim>96</dim>
					<dim>1</dim>
					<dim>1</dim>
					<dim>5</dim>
					<dim>5</dim>
				</port>
			</input>
			<output>
				<port id="2" names="expanded_conv_3/depthwise/BatchNorm/batchnorm/mul_1:0" precision="FP32">
					<dim>1</dim>
					<dim>96</dim>
					<dim>60</dim>
					<dim>60</dim>
				</port>
			</output>
		</layer>
		<layer id="81" name="expanded_conv_3/depthwise/BatchNorm/batchnorm/sub" type="Const" version="opset1">
			<data element_type="f32" offset="59592" shape="1, 96, 1, 1" size="384"/>
			<rt_info>
				<attribute name="fused_names" value="expanded_conv_3/depthwise/BatchNorm/batchnorm/sub" version="0"/>
			</rt_info>
			<output>
				<port id="0" names="expanded_conv_3/depthwise/BatchNorm/batchnorm/sub:0" precision="FP32">
					<dim>1</dim>
					<dim>96</dim>
					<dim>1</dim>
					<dim>1</dim>
				</port>
			</output>
		</layer>
		<layer id="82" name="expanded_conv_3/depthwise/BatchNorm/batchnorm/add_1" type="Add" version="opset1">
			<data auto_broadcast="numpy"/>
			<rt_info>
				<attribute name="fused_names" value="expanded_conv_3/depthwise/BatchNorm/batchnorm/add_1" version="0"/>
			</rt_info>
			<input>
				<port id="0" precision="FP32">
					<dim>1</dim>
					<dim>96</dim>
					<dim>60</dim>
					<dim>60</dim>
				</port>
				<port id="1" precision="FP32">
					<dim>1</dim>
					<dim>96</dim>
					<dim>1</dim>
					<dim>1</dim>
				</port>
			</input>
			<output>
				<port id="2" names="expanded_conv_3/depthwise/BatchNorm/batchnorm/add_1:0" precision="FP32">
					<dim>1</dim>
					<dim>96</dim>
					<dim>60</dim>
					<dim>60</dim>
				</port>
			</output>
		</layer>
		<layer id="83" name="activation_8/multiply_2/mul" type="HSwish" version="opset4">
			<rt_info>
				<attribute name="fused_names" value="activation_8/activation_2/mul, activation_8/multiply_2/mul" version="0"/>
			</rt_info>
			<input>
				<port id="0" precision="FP32">
					<dim>1</dim>
					<dim>96</dim>
					<dim>60</dim>
					<dim>60</dim>
				</port>
			</input>
			<output>
				<port id="1" precision="FP32">
					<dim>1</dim>
					<dim>96</dim>
					<dim>60</dim>
					<dim>60</dim>
				</port>
			</output>
		</layer>
		<layer id="84" name="expanded_conv_3/squeeze_excite/AvgPool/MeanGather1610321616" type="Const" version="opset1">
			<data element_type="i64" offset="2464" shape="2" size="16"/>
			<rt_info>
				<attribute name="fused_names" value="expanded_conv_3/squeeze_excite/AvgPool/MeanGather1610321616" version="0"/>
			</rt_info>
			<output>
				<port id="0" precision="I64">
					<dim>2</dim>
				</port>
			</output>
		</layer>
		<layer id="85" name="expanded_conv_3/squeeze_excite/AvgPool/Mean" type="ReduceMean" version="opset1">
			<data keep_dims="false"/>
			<rt_info>
				<attribute name="fused_names" value="expanded_conv_3/squeeze_excite/AvgPool/Mean" version="0"/>
			</rt_info>
			<input>
				<port id="0" precision="FP32">
					<dim>1</dim>
					<dim>96</dim>
					<dim>60</dim>
					<dim>60</dim>
				</port>
				<port id="1" precision="I64">
					<dim>2</dim>
				</port>
			</input>
			<output>
				<port id="2" names="expanded_conv_3/squeeze_excite/AvgPool/Mean:0" precision="FP32">
					<dim>1</dim>
					<dim>96</dim>
				</port>
			</output>
		</layer>
		<layer id="86" name="reshape_1/Shape" type="ShapeOf" version="opset3">
			<data output_type="i32"/>
			<rt_info>
				<attribute name="fused_names" value="reshape_1/Shape" version="0"/>
			</rt_info>
			<input>
				<port id="0" precision="FP32">
					<dim>1</dim>
					<dim>96</dim>
				</port>
			</input>
			<output>
				<port id="1" names="reshape_1/Shape:0" precision="I32">
					<dim>2</dim>
				</port>
			</output>
		</layer>
		<layer id="87" name="reshape_1/strided_slice/stack" type="Const" version="opset1">
			<data element_type="i64" offset="2480" shape="1" size="8"/>
			<rt_info>
				<attribute name="fused_names" value="reshape_1/strided_slice/stack" version="0"/>
			</rt_info>
			<output>
				<port id="0" names="reshape_1/strided_slice/stack:0" precision="I64">
					<dim>1</dim>
				</port>
			</output>
		</layer>
		<layer id="88" name="reshape_1/strided_slice/stack_1" type="Const" version="opset1">
			<data element_type="i64" offset="2488" shape="1" size="8"/>
			<rt_info>
				<attribute name="fused_names" value="reshape_1/strided_slice/stack_1" version="0"/>
			</rt_info>
			<output>
				<port id="0" names="reshape_1/strided_slice/stack_1:0" precision="I64">
					<dim>1</dim>
				</port>
			</output>
		</layer>
		<layer id="89" name="reshape_1/strided_slice/stack_2" type="Const" version="opset1">
			<data element_type="i64" offset="2488" shape="1" size="8"/>
			<rt_info>
				<attribute name="fused_names" value="reshape_1/strided_slice/stack_2" version="0"/>
			</rt_info>
			<output>
				<port id="0" names="reshape_1/strided_slice/stack_2:0" precision="I64">
					<dim>1</dim>
				</port>
			</output>
		</layer>
		<layer id="90" name="reshape_1/strided_slice" type="StridedSlice" version="opset1">
			<data begin_mask="0" ellipsis_mask="0" end_mask="0" new_axis_mask="0" shrink_axis_mask="1"/>
			<rt_info>
				<attribute name="fused_names" value="reshape_1/strided_slice, reshape_1/strided_slice/stack, reshape_1/strided_slice/stack_1, reshape_1/strided_slice/stack_2" version="0"/>
			</rt_info>
			<input>
				<port id="0" precision="I32">
					<dim>2</dim>
				</port>
				<port id="1" precision="I64">
					<dim>1</dim>
				</port>
				<port id="2" precision="I64">
					<dim>1</dim>
				</port>
				<port id="3" precision="I64">
					<dim>1</dim>
				</port>
			</input>
			<output>
				<port id="4" names="reshape_1/strided_slice:0" precision="I32"/>
			</output>
		</layer>
		<layer id="91" name="reshape_1/Reshape/shape/Unsqueeze_input_port_1/value" type="Const" version="opset1">
			<data element_type="i64" offset="2480" shape="1" size="8"/>
			<rt_info>
				<attribute name="fused_names" value="reshape_1/Reshape/shape/Unsqueeze_input_port_1/value" version="0"/>
			</rt_info>
			<output>
				<port id="0" precision="I64">
					<dim>1</dim>
				</port>
			</output>
		</layer>
		<layer id="92" name="reshape_1/Reshape/shape/Unsqueeze" type="Unsqueeze" version="opset1">
			<rt_info>
				<attribute name="fused_names" value="reshape_1/Reshape/shape/Unsqueeze, reshape_1/Reshape/shape/Unsqueeze_input_port_1/value" version="0"/>
			</rt_info>
			<input>
				<port id="0" precision="I32"/>
				<port id="1" precision="I64">
					<dim>1</dim>
				</port>
			</input>
			<output>
				<port id="2" precision="I32">
					<dim>1</dim>
				</port>
			</output>
		</layer>
		<layer id="93" name="reshape_1/Reshape/shape/Unsqueeze1464" type="Const" version="opset1">
			<data element_type="i32" offset="2496" shape="1" size="4"/>
			<rt_info>
				<attribute name="fused_names" value="reshape_1/Reshape/shape/Unsqueeze1464" version="0"/>
			</rt_info>
			<output>
				<port id="0" precision="I32">
					<dim>1</dim>
				</port>
			</output>
		</layer>
		<layer id="94" name="reshape_1/Reshape/shape/Unsqueeze1466" type="Const" version="opset1">
			<data element_type="i32" offset="2496" shape="1" size="4"/>
			<rt_info>
				<attribute name="fused_names" value="reshape_1/Reshape/shape/Unsqueeze1466" version="0"/>
			</rt_info>
			<output>
				<port id="0" precision="I32">
					<dim>1</dim>
				</port>
			</output>
		</layer>
		<layer id="95" name="reshape_1/Reshape/shape/Unsqueeze1468" type="Const" version="opset1">
			<data element_type="i32" offset="59976" shape="1" size="4"/>
			<rt_info>
				<attribute name="fused_names" value="reshape_1/Reshape/shape/Unsqueeze1468" version="0"/>
			</rt_info>
			<output>
				<port id="0" precision="I32">
					<dim>1</dim>
				</port>
			</output>
		</layer>
		<layer id="96" name="reshape_1/Reshape/shape" type="Concat" version="opset1">
			<data axis="0"/>
			<rt_info>
				<attribute name="fused_names" value="reshape_1/Reshape/shape, reshape_1/Reshape/shape/Unsqueeze1464, reshape_1/Reshape/shape/Unsqueeze1466, reshape_1/Reshape/shape/Unsqueeze1468" version="0"/>
			</rt_info>
			<input>
				<port id="0" precision="I32">
					<dim>1</dim>
				</port>
				<port id="1" precision="I32">
					<dim>1</dim>
				</port>
				<port id="2" precision="I32">
					<dim>1</dim>
				</port>
				<port id="3" precision="I32">
					<dim>1</dim>
				</port>
			</input>
			<output>
				<port id="4" precision="I32">
					<dim>4</dim>
				</port>
			</output>
		</layer>
		<layer id="97" name="reshape_1/Reshape/Cast_1" type="Convert" version="opset1">
			<data destination_type="i64"/>
			<rt_info>
				<attribute name="fused_names" value="reshape_1/Reshape/Cast_1" version="0"/>
			</rt_info>
			<input>
				<port id="0" precision="I32">
					<dim>4</dim>
				</port>
			</input>
			<output>
				<port id="1" names="reshape_1/Reshape/shape:0" precision="I64">
					<dim>4</dim>
				</port>
			</output>
		</layer>
		<layer id="98" name="reshape_1/Reshape" type="Reshape" version="opset1">
			<data special_zero="false"/>
			<rt_info>
				<attribute name="fused_names" value="reshape_1/Reshape" version="0"/>
			</rt_info>
			<input>
				<port id="0" precision="FP32">
					<dim>1</dim>
					<dim>96</dim>
				</port>
				<port id="1" precision="I64">
					<dim>4</dim>
				</port>
			</input>
			<output>
				<port id="2" precision="FP32">
					<dim>1</dim>
					<dim>1</dim>
					<dim>1</dim>
					<dim>96</dim>
				</port>
			</output>
		</layer>
		<layer id="99" name="Constant_3290" type="Const" version="opset1">
			<data element_type="i64" offset="59980" shape="4" size="32"/>
			<output>
				<port id="0" precision="I64">
					<dim>4</dim>
				</port>
			</output>
		</layer>
		<layer id="100" name="reshape_1/Reshape/Transpose" type="Reshape" version="opset1">
			<data special_zero="true"/>
			<rt_info>
				<attribute name="fused_names" value="reshape_1/Reshape/Transpose" version="0"/>
			</rt_info>
			<input>
				<port id="0" precision="FP32">
					<dim>1</dim>
					<dim>1</dim>
					<dim>1</dim>
					<dim>96</dim>
				</port>
				<port id="1" precision="I64">
					<dim>4</dim>
				</port>
			</input>
			<output>
				<port id="2" names="reshape_1/Reshape:0" precision="FP32">
					<dim>1</dim>
					<dim>96</dim>
					<dim>1</dim>
					<dim>1</dim>
				</port>
			</output>
		</layer>
		<layer id="101" name="expanded_conv_3/squeeze_excite/Conv/Conv2D/ReadVariableOp" type="Const" version="opset1">
			<data element_type="f32" offset="60012" shape="24, 96, 1, 1" size="9216"/>
			<rt_info>
				<attribute name="fused_names" value="expanded_conv_3/squeeze_excite/Conv/Conv2D/ReadVariableOp" version="0"/>
			</rt_info>
			<output>
				<port id="0" names="expanded_conv_3/squeeze_excite/Conv/Conv2D/ReadVariableOp:0" precision="FP32">
					<dim>24</dim>
					<dim>96</dim>
					<dim>1</dim>
					<dim>1</dim>
				</port>
			</output>
		</layer>
		<layer id="102" name="expanded_conv_3/squeeze_excite/Conv/Conv2D" type="Convolution" version="opset1">
			<data auto_pad="same_upper" dilations="1, 1" pads_begin="0, 0" pads_end="0, 0" strides="1, 1"/>
			<rt_info>
				<attribute name="fused_names" value="expanded_conv_3/squeeze_excite/Conv/Conv2D" version="0"/>
			</rt_info>
			<input>
				<port id="0" precision="FP32">
					<dim>1</dim>
					<dim>96</dim>
					<dim>1</dim>
					<dim>1</dim>
				</port>
				<port id="1" precision="FP32">
					<dim>24</dim>
					<dim>96</dim>
					<dim>1</dim>
					<dim>1</dim>
				</port>
			</input>
			<output>
				<port id="2" names="expanded_conv_3/squeeze_excite/Conv/Conv2D:0" precision="FP32">
					<dim>1</dim>
					<dim>24</dim>
					<dim>1</dim>
					<dim>1</dim>
				</port>
			</output>
		</layer>
		<layer id="103" name="expanded_conv_3/squeeze_excite/Conv/BiasAdd/ReadVariableOp" type="Const" version="opset1">
			<data element_type="f32" offset="69228" shape="1, 24, 1, 1" size="96"/>
			<rt_info>
				<attribute name="fused_names" value="expanded_conv_3/squeeze_excite/Conv/BiasAdd/ReadVariableOp" version="0"/>
			</rt_info>
			<output>
				<port id="0" names="expanded_conv_3/squeeze_excite/Conv/BiasAdd/ReadVariableOp:0" precision="FP32">
					<dim>1</dim>
					<dim>24</dim>
					<dim>1</dim>
					<dim>1</dim>
				</port>
			</output>
		</layer>
		<layer id="104" name="expanded_conv_3/squeeze_excite/Conv/BiasAdd/Add" type="Add" version="opset1">
			<data auto_broadcast="numpy"/>
			<rt_info>
				<attribute name="fused_names" value="expanded_conv_3/squeeze_excite/Conv/BiasAdd/Add" version="0"/>
			</rt_info>
			<input>
				<port id="0" precision="FP32">
					<dim>1</dim>
					<dim>24</dim>
					<dim>1</dim>
					<dim>1</dim>
				</port>
				<port id="1" precision="FP32">
					<dim>1</dim>
					<dim>24</dim>
					<dim>1</dim>
					<dim>1</dim>
				</port>
			</input>
			<output>
				<port id="2" names="expanded_conv_3/squeeze_excite/Conv/BiasAdd:0" precision="FP32">
					<dim>1</dim>
					<dim>24</dim>
					<dim>1</dim>
					<dim>1</dim>
				</port>
			</output>
		</layer>
		<layer id="105" name="expanded_conv_3/squeeze_excite/Relu/Relu" type="ReLU" version="opset1">
			<rt_info>
				<attribute name="fused_names" value="expanded_conv_3/squeeze_excite/Relu/Relu" version="0"/>
			</rt_info>
			<input>
				<port id="0" precision="FP32">
					<dim>1</dim>
					<dim>24</dim>
					<dim>1</dim>
					<dim>1</dim>
				</port>
			</input>
			<output>
				<port id="1" names="expanded_conv_3/squeeze_excite/Relu/Relu:0" precision="FP32">
					<dim>1</dim>
					<dim>24</dim>
					<dim>1</dim>
					<dim>1</dim>
				</port>
			</output>
		</layer>
		<layer id="106" name="expanded_conv_3/squeeze_excite/Conv_1/Conv2D/ReadVariableOp" type="Const" version="opset1">
			<data element_type="f32" offset="69324" shape="96, 24, 1, 1" size="9216"/>
			<rt_info>
				<attribute name="fused_names" value="expanded_conv_3/squeeze_excite/Conv_1/Conv2D/ReadVariableOp" version="0"/>
			</rt_info>
			<output>
				<port id="0" names="expanded_conv_3/squeeze_excite/Conv_1/Conv2D/ReadVariableOp:0" precision="FP32">
					<dim>96</dim>
					<dim>24</dim>
					<dim>1</dim>
					<dim>1</dim>
				</port>
			</output>
		</layer>
		<layer id="107" name="expanded_conv_3/squeeze_excite/Conv_1/Conv2D" type="Convolution" version="opset1">
			<data auto_pad="same_upper" dilations="1, 1" pads_begin="0, 0" pads_end="0, 0" strides="1, 1"/>
			<rt_info>
				<attribute name="fused_names" value="expanded_conv_3/squeeze_excite/Conv_1/Conv2D" version="0"/>
			</rt_info>
			<input>
				<port id="0" precision="FP32">
					<dim>1</dim>
					<dim>24</dim>
					<dim>1</dim>
					<dim>1</dim>
				</port>
				<port id="1" precision="FP32">
					<dim>96</dim>
					<dim>24</dim>
					<dim>1</dim>
					<dim>1</dim>
				</port>
			</input>
			<output>
				<port id="2" names="expanded_conv_3/squeeze_excite/Conv_1/Conv2D:0" precision="FP32">
					<dim>1</dim>
					<dim>96</dim>
					<dim>1</dim>
					<dim>1</dim>
				</port>
			</output>
		</layer>
		<layer id="108" name="expanded_conv_3/squeeze_excite/Conv_1/BiasAdd/ReadVariableOp" type="Const" version="opset1">
			<data element_type="f32" offset="78540" shape="1, 96, 1, 1" size="384"/>
			<rt_info>
				<attribute name="fused_names" value="expanded_conv_3/squeeze_excite/Conv_1/BiasAdd/ReadVariableOp" version="0"/>
			</rt_info>
			<output>
				<port id="0" names="expanded_conv_3/squeeze_excite/Conv_1/BiasAdd/ReadVariableOp:0" precision="FP32">
					<dim>1</dim>
					<dim>96</dim>
					<dim>1</dim>
					<dim>1</dim>
				</port>
			</output>
		</layer>
		<layer id="109" name="expanded_conv_3/squeeze_excite/Conv_1/BiasAdd/Add" type="Add" version="opset1">
			<data auto_broadcast="numpy"/>
			<rt_info>
				<attribute name="fused_names" value="expanded_conv_3/squeeze_excite/Conv_1/BiasAdd/Add" version="0"/>
			</rt_info>
			<input>
				<port id="0" precision="FP32">
					<dim>1</dim>
					<dim>96</dim>
					<dim>1</dim>
					<dim>1</dim>
				</port>
				<port id="1" precision="FP32">
					<dim>1</dim>
					<dim>96</dim>
					<dim>1</dim>
					<dim>1</dim>
				</port>
			</input>
			<output>
				<port id="2" names="expanded_conv_3/squeeze_excite/Conv_1/BiasAdd:0" precision="FP32">
					<dim>1</dim>
					<dim>96</dim>
					<dim>1</dim>
					<dim>1</dim>
				</port>
			</output>
		</layer>
		<layer id="110" name="activation_9/mul" type="HSigmoid" version="opset5">
			<rt_info>
				<attribute name="fused_names" value="activation_9/mul" version="0"/>
			</rt_info>
			<input>
				<port id="0" precision="FP32">
					<dim>1</dim>
					<dim>96</dim>
					<dim>1</dim>
					<dim>1</dim>
				</port>
			</input>
			<output>
				<port id="1" names="activation_9/mul:0" precision="FP32">
					<dim>1</dim>
					<dim>96</dim>
					<dim>1</dim>
					<dim>1</dim>
				</port>
			</output>
		</layer>
		<layer id="111" name="expanded_conv_3/squeeze_excite/Mul/mul" type="Multiply" version="opset1">
			<data auto_broadcast="numpy"/>
			<rt_info>
				<attribute name="fused_names" value="expanded_conv_3/squeeze_excite/Mul/mul" version="0"/>
			</rt_info>
			<input>
				<port id="0" precision="FP32">
					<dim>1</dim>
					<dim>96</dim>
					<dim>60</dim>
					<dim>60</dim>
				</port>
				<port id="1" precision="FP32">
					<dim>1</dim>
					<dim>96</dim>
					<dim>1</dim>
					<dim>1</dim>
				</port>
			</input>
			<output>
				<port id="2" names="expanded_conv_3/squeeze_excite/Mul/mul:0" precision="FP32">
					<dim>1</dim>
					<dim>96</dim>
					<dim>60</dim>
					<dim>60</dim>
				</port>
			</output>
		</layer>
		<layer id="112" name="expanded_conv_3/project/BatchNorm/batchnorm/mul_1_copy" type="Const" version="opset1">
			<data element_type="f32" offset="78924" shape="40, 96, 1, 1" size="15360"/>
			<rt_info>
				<attribute name="fused_names" value="expanded_conv_3/project/BatchNorm/batchnorm/mul_1_copy" version="0"/>
			</rt_info>
			<output>
				<port id="0" names="expanded_conv_3/project/Conv2D/ReadVariableOp:0" precision="FP32">
					<dim>40</dim>
					<dim>96</dim>
					<dim>1</dim>
					<dim>1</dim>
				</port>
			</output>
		</layer>
		<layer id="113" name="expanded_conv_3/project/Conv2D" type="Convolution" version="opset1">
			<data auto_pad="same_upper" dilations="1, 1" pads_begin="0, 0" pads_end="0, 0" strides="1, 1"/>
			<rt_info>
				<attribute name="fused_names" value="expanded_conv_3/project/Conv2D" version="0"/>
			</rt_info>
			<input>
				<port id="0" precision="FP32">
					<dim>1</dim>
					<dim>96</dim>
					<dim>60</dim>
					<dim>60</dim>
				</port>
				<port id="1" precision="FP32">
					<dim>40</dim>
					<dim>96</dim>
					<dim>1</dim>
					<dim>1</dim>
				</port>
			</input>
			<output>
				<port id="2" names="expanded_conv_3/project/BatchNorm/batchnorm/mul_1:0" precision="FP32">
					<dim>1</dim>
					<dim>40</dim>
					<dim>60</dim>
					<dim>60</dim>
				</port>
			</output>
		</layer>
		<layer id="114" name="expanded_conv_3/project/BatchNorm/batchnorm/sub" type="Const" version="opset1">
			<data element_type="f32" offset="94284" shape="1, 40, 1, 1" size="160"/>
			<rt_info>
				<attribute name="fused_names" value="expanded_conv_3/project/BatchNorm/batchnorm/sub" version="0"/>
			</rt_info>
			<output>
				<port id="0" names="expanded_conv_3/project/BatchNorm/batchnorm/sub:0" precision="FP32">
					<dim>1</dim>
					<dim>40</dim>
					<dim>1</dim>
					<dim>1</dim>
				</port>
			</output>
		</layer>
		<layer id="115" name="expanded_conv_3/project/BatchNorm/batchnorm/add_1" type="Add" version="opset1">
			<data auto_broadcast="numpy"/>
			<rt_info>
				<attribute name="fused_names" value="expanded_conv_3/project/BatchNorm/batchnorm/add_1" version="0"/>
			</rt_info>
			<input>
				<port id="0" precision="FP32">
					<dim>1</dim>
					<dim>40</dim>
					<dim>60</dim>
					<dim>60</dim>
				</port>
				<port id="1" precision="FP32">
					<dim>1</dim>
					<dim>40</dim>
					<dim>1</dim>
					<dim>1</dim>
				</port>
			</input>
			<output>
				<port id="2" names="expanded_conv_3/project/BatchNorm/batchnorm/add_1:0" precision="FP32">
					<dim>1</dim>
					<dim>40</dim>
					<dim>60</dim>
					<dim>60</dim>
				</port>
			</output>
		</layer>
		<layer id="116" name="expanded_conv_4/expand/BatchNorm/batchnorm/mul_1_copy" type="Const" version="opset1">
			<data element_type="f32" offset="94444" shape="240, 40, 1, 1" size="38400"/>
			<rt_info>
				<attribute name="fused_names" value="expanded_conv_4/expand/BatchNorm/batchnorm/mul_1_copy" version="0"/>
			</rt_info>
			<output>
				<port id="0" names="expanded_conv_4/expand/Conv2D/ReadVariableOp:0" precision="FP32">
					<dim>240</dim>
					<dim>40</dim>
					<dim>1</dim>
					<dim>1</dim>
				</port>
			</output>
		</layer>
		<layer id="117" name="expanded_conv_4/expand/Conv2D" type="Convolution" version="opset1">
			<data auto_pad="same_upper" dilations="1, 1" pads_begin="0, 0" pads_end="0, 0" strides="1, 1"/>
			<rt_info>
				<attribute name="fused_names" value="expanded_conv_4/expand/Conv2D" version="0"/>
			</rt_info>
			<input>
				<port id="0" precision="FP32">
					<dim>1</dim>
					<dim>40</dim>
					<dim>60</dim>
					<dim>60</dim>
				</port>
				<port id="1" precision="FP32">
					<dim>240</dim>
					<dim>40</dim>
					<dim>1</dim>
					<dim>1</dim>
				</port>
			</input>
			<output>
				<port id="2" names="expanded_conv_4/expand/BatchNorm/batchnorm/mul_1:0" precision="FP32">
					<dim>1</dim>
					<dim>240</dim>
					<dim>60</dim>
					<dim>60</dim>
				</port>
			</output>
		</layer>
		<layer id="118" name="expanded_conv_4/expand/BatchNorm/batchnorm/sub" type="Const" version="opset1">
			<data element_type="f32" offset="132844" shape="1, 240, 1, 1" size="960"/>
			<rt_info>
				<attribute name="fused_names" value="expanded_conv_4/expand/BatchNorm/batchnorm/sub" version="0"/>
			</rt_info>
			<output>
				<port id="0" names="expanded_conv_4/expand/BatchNorm/batchnorm/sub:0" precision="FP32">
					<dim>1</dim>
					<dim>240</dim>
					<dim>1</dim>
					<dim>1</dim>
				</port>
			</output>
		</layer>
		<layer id="119" name="expanded_conv_4/expand/BatchNorm/batchnorm/add_1" type="Add" version="opset1">
			<data auto_broadcast="numpy"/>
			<rt_info>
				<attribute name="fused_names" value="expanded_conv_4/expand/BatchNorm/batchnorm/add_1" version="0"/>
			</rt_info>
			<input>
				<port id="0" precision="FP32">
					<dim>1</dim>
					<dim>240</dim>
					<dim>60</dim>
					<dim>60</dim>
				</port>
				<port id="1" precision="FP32">
					<dim>1</dim>
					<dim>240</dim>
					<dim>1</dim>
					<dim>1</dim>
				</port>
			</input>
			<output>
				<port id="2" names="expanded_conv_4/expand/BatchNorm/batchnorm/add_1:0" precision="FP32">
					<dim>1</dim>
					<dim>240</dim>
					<dim>60</dim>
					<dim>60</dim>
				</port>
			</output>
		</layer>
		<layer id="120" name="activation_10/multiply_3/mul" type="HSwish" version="opset4">
			<rt_info>
				<attribute name="fused_names" value="activation_10/activation_3/mul, activation_10/multiply_3/mul" version="0"/>
			</rt_info>
			<input>
				<port id="0" precision="FP32">
					<dim>1</dim>
					<dim>240</dim>
					<dim>60</dim>
					<dim>60</dim>
				</port>
			</input>
			<output>
				<port id="1" names="activation_10/multiply_3/mul:0" precision="FP32">
					<dim>1</dim>
					<dim>240</dim>
					<dim>60</dim>
					<dim>60</dim>
				</port>
			</output>
		</layer>
		<layer id="121" name="expanded_conv_4/depthwise/BatchNorm/batchnorm/mul_1_copy" type="Const" version="opset1">
			<data element_type="f32" offset="133804" shape="240, 1, 1, 5, 5" size="24000"/>
			<rt_info>
				<attribute name="fused_names" value="expanded_conv_4/depthwise/BatchNorm/batchnorm/mul_1_copy" version="0"/>
			</rt_info>
			<output>
				<port id="0" names="expanded_conv_4/depthwise/Conv/depthwise/ReadVariableOp:0" precision="FP32">
					<dim>240</dim>
					<dim>1</dim>
					<dim>1</dim>
					<dim>5</dim>
					<dim>5</dim>
				</port>
			</output>
		</layer>
		<layer id="122" name="expanded_conv_4/depthwise/Conv/depthwise" type="GroupConvolution" version="opset1">
			<data auto_pad="same_upper" dilations="1, 1" pads_begin="0, 0" pads_end="0, 0" strides="1, 1"/>
			<rt_info>
				<attribute name="fused_names" value="expanded_conv_4/depthwise/Conv/depthwise" version="0"/>
			</rt_info>
			<input>
				<port id="0" precision="FP32">
					<dim>1</dim>
					<dim>240</dim>
					<dim>60</dim>
					<dim>60</dim>
				</port>
				<port id="1" precision="FP32">
					<dim>240</dim>
					<dim>1</dim>
					<dim>1</dim>
					<dim>5</dim>
					<dim>5</dim>
				</port>
			</input>
			<output>
				<port id="2" names="expanded_conv_4/depthwise/BatchNorm/batchnorm/mul_1:0" precision="FP32">
					<dim>1</dim>
					<dim>240</dim>
					<dim>60</dim>
					<dim>60</dim>
				</port>
			</output>
		</layer>
		<layer id="123" name="expanded_conv_4/depthwise/BatchNorm/batchnorm/sub" type="Const" version="opset1">
			<data element_type="f32" offset="157804" shape="1, 240, 1, 1" size="960"/>
			<rt_info>
				<attribute name="fused_names" value="expanded_conv_4/depthwise/BatchNorm/batchnorm/sub" version="0"/>
			</rt_info>
			<output>
				<port id="0" names="expanded_conv_4/depthwise/BatchNorm/batchnorm/sub:0" precision="FP32">
					<dim>1</dim>
					<dim>240</dim>
					<dim>1</dim>
					<dim>1</dim>
				</port>
			</output>
		</layer>
		<layer id="124" name="expanded_conv_4/depthwise/BatchNorm/batchnorm/add_1" type="Add" version="opset1">
			<data auto_broadcast="numpy"/>
			<rt_info>
				<attribute name="fused_names" value="expanded_conv_4/depthwise/BatchNorm/batchnorm/add_1" version="0"/>
			</rt_info>
			<input>
				<port id="0" precision="FP32">
					<dim>1</dim>
					<dim>240</dim>
					<dim>60</dim>
					<dim>60</dim>
				</port>
				<port id="1" precision="FP32">
					<dim>1</dim>
					<dim>240</dim>
					<dim>1</dim>
					<dim>1</dim>
				</port>
			</input>
			<output>
				<port id="2" names="expanded_conv_4/depthwise/BatchNorm/batchnorm/add_1:0" precision="FP32">
					<dim>1</dim>
					<dim>240</dim>
					<dim>60</dim>
					<dim>60</dim>
				</port>
			</output>
		</layer>
		<layer id="125" name="activation_11/multiply_4/mul" type="HSwish" version="opset4">
			<rt_info>
				<attribute name="fused_names" value="activation_11/activation_4/mul, activation_11/multiply_4/mul" version="0"/>
			</rt_info>
			<input>
				<port id="0" precision="FP32">
					<dim>1</dim>
					<dim>240</dim>
					<dim>60</dim>
					<dim>60</dim>
				</port>
			</input>
			<output>
				<port id="1" precision="FP32">
					<dim>1</dim>
					<dim>240</dim>
					<dim>60</dim>
					<dim>60</dim>
				</port>
			</output>
		</layer>
		<layer id="126" name="expanded_conv_4/squeeze_excite/AvgPool/MeanGather1609121703" type="Const" version="opset1">
			<data element_type="i64" offset="2464" shape="2" size="16"/>
			<rt_info>
				<attribute name="fused_names" value="expanded_conv_4/squeeze_excite/AvgPool/MeanGather1609121703" version="0"/>
			</rt_info>
			<output>
				<port id="0" precision="I64">
					<dim>2</dim>
				</port>
			</output>
		</layer>
		<layer id="127" name="expanded_conv_4/squeeze_excite/AvgPool/Mean" type="ReduceMean" version="opset1">
			<data keep_dims="false"/>
			<rt_info>
				<attribute name="fused_names" value="expanded_conv_4/squeeze_excite/AvgPool/Mean" version="0"/>
			</rt_info>
			<input>
				<port id="0" precision="FP32">
					<dim>1</dim>
					<dim>240</dim>
					<dim>60</dim>
					<dim>60</dim>
				</port>
				<port id="1" precision="I64">
					<dim>2</dim>
				</port>
			</input>
			<output>
				<port id="2" names="expanded_conv_4/squeeze_excite/AvgPool/Mean:0" precision="FP32">
					<dim>1</dim>
					<dim>240</dim>
				</port>
			</output>
		</layer>
		<layer id="128" name="reshape_2/Shape" type="ShapeOf" version="opset3">
			<data output_type="i32"/>
			<rt_info>
				<attribute name="fused_names" value="reshape_2/Shape" version="0"/>
			</rt_info>
			<input>
				<port id="0" precision="FP32">
					<dim>1</dim>
					<dim>240</dim>
				</port>
			</input>
			<output>
				<port id="1" names="reshape_2/Shape:0" precision="I32">
					<dim>2</dim>
				</port>
			</output>
		</layer>
		<layer id="129" name="reshape_2/strided_slice/stack" type="Const" version="opset1">
			<data element_type="i64" offset="2480" shape="1" size="8"/>
			<rt_info>
				<attribute name="fused_names" value="reshape_2/strided_slice/stack" version="0"/>
			</rt_info>
			<output>
				<port id="0" names="reshape_2/strided_slice/stack:0" precision="I64">
					<dim>1</dim>
				</port>
			</output>
		</layer>
		<layer id="130" name="reshape_2/strided_slice/stack_1" type="Const" version="opset1">
			<data element_type="i64" offset="2488" shape="1" size="8"/>
			<rt_info>
				<attribute name="fused_names" value="reshape_2/strided_slice/stack_1" version="0"/>
			</rt_info>
			<output>
				<port id="0" names="reshape_2/strided_slice/stack_1:0" precision="I64">
					<dim>1</dim>
				</port>
			</output>
		</layer>
		<layer id="131" name="reshape_2/strided_slice/stack_2" type="Const" version="opset1">
			<data element_type="i64" offset="2488" shape="1" size="8"/>
			<rt_info>
				<attribute name="fused_names" value="reshape_2/strided_slice/stack_2" version="0"/>
			</rt_info>
			<output>
				<port id="0" names="reshape_2/strided_slice/stack_2:0" precision="I64">
					<dim>1</dim>
				</port>
			</output>
		</layer>
		<layer id="132" name="reshape_2/strided_slice" type="StridedSlice" version="opset1">
			<data begin_mask="0" ellipsis_mask="0" end_mask="0" new_axis_mask="0" shrink_axis_mask="1"/>
			<rt_info>
				<attribute name="fused_names" value="reshape_2/strided_slice, reshape_2/strided_slice/stack, reshape_2/strided_slice/stack_1, reshape_2/strided_slice/stack_2" version="0"/>
			</rt_info>
			<input>
				<port id="0" precision="I32">
					<dim>2</dim>
				</port>
				<port id="1" precision="I64">
					<dim>1</dim>
				</port>
				<port id="2" precision="I64">
					<dim>1</dim>
				</port>
				<port id="3" precision="I64">
					<dim>1</dim>
				</port>
			</input>
			<output>
				<port id="4" names="reshape_2/strided_slice:0" precision="I32"/>
			</output>
		</layer>
		<layer id="133" name="reshape_2/Reshape/shape/Unsqueeze_input_port_1/value" type="Const" version="opset1">
			<data element_type="i64" offset="2480" shape="1" size="8"/>
			<rt_info>
				<attribute name="fused_names" value="reshape_2/Reshape/shape/Unsqueeze_input_port_1/value" version="0"/>
			</rt_info>
			<output>
				<port id="0" precision="I64">
					<dim>1</dim>
				</port>
			</output>
		</layer>
		<layer id="134" name="reshape_2/Reshape/shape/Unsqueeze" type="Unsqueeze" version="opset1">
			<rt_info>
				<attribute name="fused_names" value="reshape_2/Reshape/shape/Unsqueeze, reshape_2/Reshape/shape/Unsqueeze_input_port_1/value" version="0"/>
			</rt_info>
			<input>
				<port id="0" precision="I32"/>
				<port id="1" precision="I64">
					<dim>1</dim>
				</port>
			</input>
			<output>
				<port id="2" precision="I32">
					<dim>1</dim>
				</port>
			</output>
		</layer>
		<layer id="135" name="reshape_2/Reshape/shape/Unsqueeze1500" type="Const" version="opset1">
			<data element_type="i32" offset="2496" shape="1" size="4"/>
			<rt_info>
				<attribute name="fused_names" value="reshape_2/Reshape/shape/Unsqueeze1500" version="0"/>
			</rt_info>
			<output>
				<port id="0" precision="I32">
					<dim>1</dim>
				</port>
			</output>
		</layer>
		<layer id="136" name="reshape_2/Reshape/shape/Unsqueeze1502" type="Const" version="opset1">
			<data element_type="i32" offset="2496" shape="1" size="4"/>
			<rt_info>
				<attribute name="fused_names" value="reshape_2/Reshape/shape/Unsqueeze1502" version="0"/>
			</rt_info>
			<output>
				<port id="0" precision="I32">
					<dim>1</dim>
				</port>
			</output>
		</layer>
		<layer id="137" name="reshape_2/Reshape/shape/Unsqueeze1504" type="Const" version="opset1">
			<data element_type="i32" offset="158764" shape="1" size="4"/>
			<rt_info>
				<attribute name="fused_names" value="reshape_2/Reshape/shape/Unsqueeze1504" version="0"/>
			</rt_info>
			<output>
				<port id="0" precision="I32">
					<dim>1</dim>
				</port>
			</output>
		</layer>
		<layer id="138" name="reshape_2/Reshape/shape" type="Concat" version="opset1">
			<data axis="0"/>
			<rt_info>
				<attribute name="fused_names" value="reshape_2/Reshape/shape, reshape_2/Reshape/shape/Unsqueeze1500, reshape_2/Reshape/shape/Unsqueeze1502, reshape_2/Reshape/shape/Unsqueeze1504" version="0"/>
			</rt_info>
			<input>
				<port id="0" precision="I32">
					<dim>1</dim>
				</port>
				<port id="1" precision="I32">
					<dim>1</dim>
				</port>
				<port id="2" precision="I32">
					<dim>1</dim>
				</port>
				<port id="3" precision="I32">
					<dim>1</dim>
				</port>
			</input>
			<output>
				<port id="4" precision="I32">
					<dim>4</dim>
				</port>
			</output>
		</layer>
		<layer id="139" name="reshape_2/Reshape/Cast_1" type="Convert" version="opset1">
			<data destination_type="i64"/>
			<rt_info>
				<attribute name="fused_names" value="reshape_2/Reshape/Cast_1" version="0"/>
			</rt_info>
			<input>
				<port id="0" precision="I32">
					<dim>4</dim>
				</port>
			</input>
			<output>
				<port id="1" names="reshape_2/Reshape/shape:0" precision="I64">
					<dim>4</dim>
				</port>
			</output>
		</layer>
		<layer id="140" name="reshape_2/Reshape" type="Reshape" version="opset1">
			<data special_zero="false"/>
			<rt_info>
				<attribute name="fused_names" value="reshape_2/Reshape" version="0"/>
			</rt_info>
			<input>
				<port id="0" precision="FP32">
					<dim>1</dim>
					<dim>240</dim>
				</port>
				<port id="1" precision="I64">
					<dim>4</dim>
				</port>
			</input>
			<output>
				<port id="2" precision="FP32">
					<dim>1</dim>
					<dim>1</dim>
					<dim>1</dim>
					<dim>240</dim>
				</port>
			</output>
		</layer>
		<layer id="141" name="Constant_3299" type="Const" version="opset1">
			<data element_type="i64" offset="158768" shape="4" size="32"/>
			<output>
				<port id="0" precision="I64">
					<dim>4</dim>
				</port>
			</output>
		</layer>
		<layer id="142" name="reshape_2/Reshape/Transpose" type="Reshape" version="opset1">
			<data special_zero="true"/>
			<rt_info>
				<attribute name="fused_names" value="reshape_2/Reshape/Transpose" version="0"/>
			</rt_info>
			<input>
				<port id="0" precision="FP32">
					<dim>1</dim>
					<dim>1</dim>
					<dim>1</dim>
					<dim>240</dim>
				</port>
				<port id="1" precision="I64">
					<dim>4</dim>
				</port>
			</input>
			<output>
				<port id="2" names="reshape_2/Reshape:0" precision="FP32">
					<dim>1</dim>
					<dim>240</dim>
					<dim>1</dim>
					<dim>1</dim>
				</port>
			</output>
		</layer>
		<layer id="143" name="expanded_conv_4/squeeze_excite/Conv/Conv2D/ReadVariableOp" type="Const" version="opset1">
			<data element_type="f32" offset="158800" shape="64, 240, 1, 1" size="61440"/>
			<rt_info>
				<attribute name="fused_names" value="expanded_conv_4/squeeze_excite/Conv/Conv2D/ReadVariableOp" version="0"/>
			</rt_info>
			<output>
				<port id="0" names="expanded_conv_4/squeeze_excite/Conv/Conv2D/ReadVariableOp:0" precision="FP32">
					<dim>64</dim>
					<dim>240</dim>
					<dim>1</dim>
					<dim>1</dim>
				</port>
			</output>
		</layer>
		<layer id="144" name="expanded_conv_4/squeeze_excite/Conv/Conv2D" type="Convolution" version="opset1">
			<data auto_pad="same_upper" dilations="1, 1" pads_begin="0, 0" pads_end="0, 0" strides="1, 1"/>
			<rt_info>
				<attribute name="fused_names" value="expanded_conv_4/squeeze_excite/Conv/Conv2D" version="0"/>
			</rt_info>
			<input>
				<port id="0" precision="FP32">
					<dim>1</dim>
					<dim>240</dim>
					<dim>1</dim>
					<dim>1</dim>
				</port>
				<port id="1" precision="FP32">
					<dim>64</dim>
					<dim>240</dim>
					<dim>1</dim>
					<dim>1</dim>
				</port>
			</input>
			<output>
				<port id="2" names="expanded_conv_4/squeeze_excite/Conv/Conv2D:0" precision="FP32">
					<dim>1</dim>
					<dim>64</dim>
					<dim>1</dim>
					<dim>1</dim>
				</port>
			</output>
		</layer>
		<layer id="145" name="expanded_conv_4/squeeze_excite/Conv/BiasAdd/ReadVariableOp" type="Const" version="opset1">
			<data element_type="f32" offset="220240" shape="1, 64, 1, 1" size="256"/>
			<rt_info>
				<attribute name="fused_names" value="expanded_conv_4/squeeze_excite/Conv/BiasAdd/ReadVariableOp" version="0"/>
			</rt_info>
			<output>
				<port id="0" names="expanded_conv_4/squeeze_excite/Conv/BiasAdd/ReadVariableOp:0" precision="FP32">
					<dim>1</dim>
					<dim>64</dim>
					<dim>1</dim>
					<dim>1</dim>
				</port>
			</output>
		</layer>
		<layer id="146" name="expanded_conv_4/squeeze_excite/Conv/BiasAdd/Add" type="Add" version="opset1">
			<data auto_broadcast="numpy"/>
			<rt_info>
				<attribute name="fused_names" value="expanded_conv_4/squeeze_excite/Conv/BiasAdd/Add" version="0"/>
			</rt_info>
			<input>
				<port id="0" precision="FP32">
					<dim>1</dim>
					<dim>64</dim>
					<dim>1</dim>
					<dim>1</dim>
				</port>
				<port id="1" precision="FP32">
					<dim>1</dim>
					<dim>64</dim>
					<dim>1</dim>
					<dim>1</dim>
				</port>
			</input>
			<output>
				<port id="2" names="expanded_conv_4/squeeze_excite/Conv/BiasAdd:0" precision="FP32">
					<dim>1</dim>
					<dim>64</dim>
					<dim>1</dim>
					<dim>1</dim>
				</port>
			</output>
		</layer>
		<layer id="147" name="expanded_conv_4/squeeze_excite/Relu/Relu" type="ReLU" version="opset1">
			<rt_info>
				<attribute name="fused_names" value="expanded_conv_4/squeeze_excite/Relu/Relu" version="0"/>
			</rt_info>
			<input>
				<port id="0" precision="FP32">
					<dim>1</dim>
					<dim>64</dim>
					<dim>1</dim>
					<dim>1</dim>
				</port>
			</input>
			<output>
				<port id="1" names="expanded_conv_4/squeeze_excite/Relu/Relu:0" precision="FP32">
					<dim>1</dim>
					<dim>64</dim>
					<dim>1</dim>
					<dim>1</dim>
				</port>
			</output>
		</layer>
		<layer id="148" name="expanded_conv_4/squeeze_excite/Conv_1/Conv2D/ReadVariableOp" type="Const" version="opset1">
			<data element_type="f32" offset="220496" shape="240, 64, 1, 1" size="61440"/>
			<rt_info>
				<attribute name="fused_names" value="expanded_conv_4/squeeze_excite/Conv_1/Conv2D/ReadVariableOp" version="0"/>
			</rt_info>
			<output>
				<port id="0" names="expanded_conv_4/squeeze_excite/Conv_1/Conv2D/ReadVariableOp:0" precision="FP32">
					<dim>240</dim>
					<dim>64</dim>
					<dim>1</dim>
					<dim>1</dim>
				</port>
			</output>
		</layer>
		<layer id="149" name="expanded_conv_4/squeeze_excite/Conv_1/Conv2D" type="Convolution" version="opset1">
			<data auto_pad="same_upper" dilations="1, 1" pads_begin="0, 0" pads_end="0, 0" strides="1, 1"/>
			<rt_info>
				<attribute name="fused_names" value="expanded_conv_4/squeeze_excite/Conv_1/Conv2D" version="0"/>
			</rt_info>
			<input>
				<port id="0" precision="FP32">
					<dim>1</dim>
					<dim>64</dim>
					<dim>1</dim>
					<dim>1</dim>
				</port>
				<port id="1" precision="FP32">
					<dim>240</dim>
					<dim>64</dim>
					<dim>1</dim>
					<dim>1</dim>
				</port>
			</input>
			<output>
				<port id="2" names="expanded_conv_4/squeeze_excite/Conv_1/Conv2D:0" precision="FP32">
					<dim>1</dim>
					<dim>240</dim>
					<dim>1</dim>
					<dim>1</dim>
				</port>
			</output>
		</layer>
		<layer id="150" name="expanded_conv_4/squeeze_excite/Conv_1/BiasAdd/ReadVariableOp" type="Const" version="opset1">
			<data element_type="f32" offset="281936" shape="1, 240, 1, 1" size="960"/>
			<rt_info>
				<attribute name="fused_names" value="expanded_conv_4/squeeze_excite/Conv_1/BiasAdd/ReadVariableOp" version="0"/>
			</rt_info>
			<output>
				<port id="0" names="expanded_conv_4/squeeze_excite/Conv_1/BiasAdd/ReadVariableOp:0" precision="FP32">
					<dim>1</dim>
					<dim>240</dim>
					<dim>1</dim>
					<dim>1</dim>
				</port>
			</output>
		</layer>
		<layer id="151" name="expanded_conv_4/squeeze_excite/Conv_1/BiasAdd/Add" type="Add" version="opset1">
			<data auto_broadcast="numpy"/>
			<rt_info>
				<attribute name="fused_names" value="expanded_conv_4/squeeze_excite/Conv_1/BiasAdd/Add" version="0"/>
			</rt_info>
			<input>
				<port id="0" precision="FP32">
					<dim>1</dim>
					<dim>240</dim>
					<dim>1</dim>
					<dim>1</dim>
				</port>
				<port id="1" precision="FP32">
					<dim>1</dim>
					<dim>240</dim>
					<dim>1</dim>
					<dim>1</dim>
				</port>
			</input>
			<output>
				<port id="2" names="expanded_conv_4/squeeze_excite/Conv_1/BiasAdd:0" precision="FP32">
					<dim>1</dim>
					<dim>240</dim>
					<dim>1</dim>
					<dim>1</dim>
				</port>
			</output>
		</layer>
		<layer id="152" name="activation_12/mul" type="HSigmoid" version="opset5">
			<rt_info>
				<attribute name="fused_names" value="activation_12/mul" version="0"/>
			</rt_info>
			<input>
				<port id="0" precision="FP32">
					<dim>1</dim>
					<dim>240</dim>
					<dim>1</dim>
					<dim>1</dim>
				</port>
			</input>
			<output>
				<port id="1" names="activation_12/mul:0" precision="FP32">
					<dim>1</dim>
					<dim>240</dim>
					<dim>1</dim>
					<dim>1</dim>
				</port>
			</output>
		</layer>
		<layer id="153" name="expanded_conv_4/squeeze_excite/Mul/mul" type="Multiply" version="opset1">
			<data auto_broadcast="numpy"/>
			<rt_info>
				<attribute name="fused_names" value="expanded_conv_4/squeeze_excite/Mul/mul" version="0"/>
			</rt_info>
			<input>
				<port id="0" precision="FP32">
					<dim>1</dim>
					<dim>240</dim>
					<dim>60</dim>
					<dim>60</dim>
				</port>
				<port id="1" precision="FP32">
					<dim>1</dim>
					<dim>240</dim>
					<dim>1</dim>
					<dim>1</dim>
				</port>
			</input>
			<output>
				<port id="2" names="expanded_conv_4/squeeze_excite/Mul/mul:0" precision="FP32">
					<dim>1</dim>
					<dim>240</dim>
					<dim>60</dim>
					<dim>60</dim>
				</port>
			</output>
		</layer>
		<layer id="154" name="expanded_conv_4/project/BatchNorm/batchnorm/mul_1_copy" type="Const" version="opset1">
			<data element_type="f32" offset="282896" shape="40, 240, 1, 1" size="38400"/>
			<rt_info>
				<attribute name="fused_names" value="expanded_conv_4/project/BatchNorm/batchnorm/mul_1_copy" version="0"/>
			</rt_info>
			<output>
				<port id="0" names="expanded_conv_4/project/Conv2D/ReadVariableOp:0" precision="FP32">
					<dim>40</dim>
					<dim>240</dim>
					<dim>1</dim>
					<dim>1</dim>
				</port>
			</output>
		</layer>
		<layer id="155" name="expanded_conv_4/project/Conv2D" type="Convolution" version="opset1">
			<data auto_pad="same_upper" dilations="1, 1" pads_begin="0, 0" pads_end="0, 0" strides="1, 1"/>
			<rt_info>
				<attribute name="fused_names" value="expanded_conv_4/project/Conv2D" version="0"/>
			</rt_info>
			<input>
				<port id="0" precision="FP32">
					<dim>1</dim>
					<dim>240</dim>
					<dim>60</dim>
					<dim>60</dim>
				</port>
				<port id="1" precision="FP32">
					<dim>40</dim>
					<dim>240</dim>
					<dim>1</dim>
					<dim>1</dim>
				</port>
			</input>
			<output>
				<port id="2" names="expanded_conv_4/project/BatchNorm/batchnorm/mul_1:0" precision="FP32">
					<dim>1</dim>
					<dim>40</dim>
					<dim>60</dim>
					<dim>60</dim>
				</port>
			</output>
		</layer>
		<layer id="156" name="expanded_conv_4/project/BatchNorm/batchnorm/sub" type="Const" version="opset1">
			<data element_type="f32" offset="321296" shape="1, 40, 1, 1" size="160"/>
			<rt_info>
				<attribute name="fused_names" value="expanded_conv_4/project/BatchNorm/batchnorm/sub" version="0"/>
			</rt_info>
			<output>
				<port id="0" names="expanded_conv_4/project/BatchNorm/batchnorm/sub:0" precision="FP32">
					<dim>1</dim>
					<dim>40</dim>
					<dim>1</dim>
					<dim>1</dim>
				</port>
			</output>
		</layer>
		<layer id="157" name="expanded_conv_4/project/BatchNorm/batchnorm/add_1" type="Add" version="opset1">
			<data auto_broadcast="numpy"/>
			<rt_info>
				<attribute name="fused_names" value="expanded_conv_4/project/BatchNorm/batchnorm/add_1" version="0"/>
			</rt_info>
			<input>
				<port id="0" precision="FP32">
					<dim>1</dim>
					<dim>40</dim>
					<dim>60</dim>
					<dim>60</dim>
				</port>
				<port id="1" precision="FP32">
					<dim>1</dim>
					<dim>40</dim>
					<dim>1</dim>
					<dim>1</dim>
				</port>
			</input>
			<output>
				<port id="2" names="expanded_conv_4/project/BatchNorm/batchnorm/add_1:0" precision="FP32">
					<dim>1</dim>
					<dim>40</dim>
					<dim>60</dim>
					<dim>60</dim>
				</port>
			</output>
		</layer>
		<layer id="158" name="expanded_conv_4/Add/add" type="Add" version="opset1">
			<data auto_broadcast="numpy"/>
			<rt_info>
				<attribute name="fused_names" value="expanded_conv_4/Add/add" version="0"/>
			</rt_info>
			<input>
				<port id="0" precision="FP32">
					<dim>1</dim>
					<dim>40</dim>
					<dim>60</dim>
					<dim>60</dim>
				</port>
				<port id="1" precision="FP32">
					<dim>1</dim>
					<dim>40</dim>
					<dim>60</dim>
					<dim>60</dim>
				</port>
			</input>
			<output>
				<port id="2" names="expanded_conv_4/Add/add:0" precision="FP32">
					<dim>1</dim>
					<dim>40</dim>
					<dim>60</dim>
					<dim>60</dim>
				</port>
			</output>
		</layer>
		<layer id="159" name="expanded_conv_5/expand/BatchNorm/batchnorm/mul_1_copy" type="Const" version="opset1">
			<data element_type="f32" offset="321456" shape="240, 40, 1, 1" size="38400"/>
			<rt_info>
				<attribute name="fused_names" value="expanded_conv_5/expand/BatchNorm/batchnorm/mul_1_copy" version="0"/>
			</rt_info>
			<output>
				<port id="0" names="expanded_conv_5/expand/Conv2D/ReadVariableOp:0" precision="FP32">
					<dim>240</dim>
					<dim>40</dim>
					<dim>1</dim>
					<dim>1</dim>
				</port>
			</output>
		</layer>
		<layer id="160" name="expanded_conv_5/expand/Conv2D" type="Convolution" version="opset1">
			<data auto_pad="same_upper" dilations="1, 1" pads_begin="0, 0" pads_end="0, 0" strides="1, 1"/>
			<rt_info>
				<attribute name="fused_names" value="expanded_conv_5/expand/Conv2D" version="0"/>
			</rt_info>
			<input>
				<port id="0" precision="FP32">
					<dim>1</dim>
					<dim>40</dim>
					<dim>60</dim>
					<dim>60</dim>
				</port>
				<port id="1" precision="FP32">
					<dim>240</dim>
					<dim>40</dim>
					<dim>1</dim>
					<dim>1</dim>
				</port>
			</input>
			<output>
				<port id="2" names="expanded_conv_5/expand/BatchNorm/batchnorm/mul_1:0" precision="FP32">
					<dim>1</dim>
					<dim>240</dim>
					<dim>60</dim>
					<dim>60</dim>
				</port>
			</output>
		</layer>
		<layer id="161" name="expanded_conv_5/expand/BatchNorm/batchnorm/sub" type="Const" version="opset1">
			<data element_type="f32" offset="359856" shape="1, 240, 1, 1" size="960"/>
			<rt_info>
				<attribute name="fused_names" value="expanded_conv_5/expand/BatchNorm/batchnorm/sub" version="0"/>
			</rt_info>
			<output>
				<port id="0" names="expanded_conv_5/expand/BatchNorm/batchnorm/sub:0" precision="FP32">
					<dim>1</dim>
					<dim>240</dim>
					<dim>1</dim>
					<dim>1</dim>
				</port>
			</output>
		</layer>
		<layer id="162" name="expanded_conv_5/expand/BatchNorm/batchnorm/add_1" type="Add" version="opset1">
			<data auto_broadcast="numpy"/>
			<rt_info>
				<attribute name="fused_names" value="expanded_conv_5/expand/BatchNorm/batchnorm/add_1" version="0"/>
			</rt_info>
			<input>
				<port id="0" precision="FP32">
					<dim>1</dim>
					<dim>240</dim>
					<dim>60</dim>
					<dim>60</dim>
				</port>
				<port id="1" precision="FP32">
					<dim>1</dim>
					<dim>240</dim>
					<dim>1</dim>
					<dim>1</dim>
				</port>
			</input>
			<output>
				<port id="2" names="expanded_conv_5/expand/BatchNorm/batchnorm/add_1:0" precision="FP32">
					<dim>1</dim>
					<dim>240</dim>
					<dim>60</dim>
					<dim>60</dim>
				</port>
			</output>
		</layer>
		<layer id="163" name="activation_13/multiply_5/mul" type="HSwish" version="opset4">
			<rt_info>
				<attribute name="fused_names" value="activation_13/activation_5/mul, activation_13/multiply_5/mul" version="0"/>
			</rt_info>
			<input>
				<port id="0" precision="FP32">
					<dim>1</dim>
					<dim>240</dim>
					<dim>60</dim>
					<dim>60</dim>
				</port>
			</input>
			<output>
				<port id="1" names="activation_13/multiply_5/mul:0" precision="FP32">
					<dim>1</dim>
					<dim>240</dim>
					<dim>60</dim>
					<dim>60</dim>
				</port>
			</output>
		</layer>
		<layer id="164" name="expanded_conv_5/depthwise/BatchNorm/batchnorm/mul_1_copy" type="Const" version="opset1">
			<data element_type="f32" offset="360816" shape="240, 1, 1, 5, 5" size="24000"/>
			<rt_info>
				<attribute name="fused_names" value="expanded_conv_5/depthwise/BatchNorm/batchnorm/mul_1_copy" version="0"/>
			</rt_info>
			<output>
				<port id="0" names="expanded_conv_5/depthwise/Conv/depthwise/ReadVariableOp:0" precision="FP32">
					<dim>240</dim>
					<dim>1</dim>
					<dim>1</dim>
					<dim>5</dim>
					<dim>5</dim>
				</port>
			</output>
		</layer>
		<layer id="165" name="expanded_conv_5/depthwise/Conv/depthwise" type="GroupConvolution" version="opset1">
			<data auto_pad="same_upper" dilations="1, 1" pads_begin="0, 0" pads_end="0, 0" strides="1, 1"/>
			<rt_info>
				<attribute name="fused_names" value="expanded_conv_5/depthwise/Conv/depthwise" version="0"/>
			</rt_info>
			<input>
				<port id="0" precision="FP32">
					<dim>1</dim>
					<dim>240</dim>
					<dim>60</dim>
					<dim>60</dim>
				</port>
				<port id="1" precision="FP32">
					<dim>240</dim>
					<dim>1</dim>
					<dim>1</dim>
					<dim>5</dim>
					<dim>5</dim>
				</port>
			</input>
			<output>
				<port id="2" names="expanded_conv_5/depthwise/BatchNorm/batchnorm/mul_1:0" precision="FP32">
					<dim>1</dim>
					<dim>240</dim>
					<dim>60</dim>
					<dim>60</dim>
				</port>
			</output>
		</layer>
		<layer id="166" name="expanded_conv_5/depthwise/BatchNorm/batchnorm/sub" type="Const" version="opset1">
			<data element_type="f32" offset="384816" shape="1, 240, 1, 1" size="960"/>
			<rt_info>
				<attribute name="fused_names" value="expanded_conv_5/depthwise/BatchNorm/batchnorm/sub" version="0"/>
			</rt_info>
			<output>
				<port id="0" names="expanded_conv_5/depthwise/BatchNorm/batchnorm/sub:0" precision="FP32">
					<dim>1</dim>
					<dim>240</dim>
					<dim>1</dim>
					<dim>1</dim>
				</port>
			</output>
		</layer>
		<layer id="167" name="expanded_conv_5/depthwise/BatchNorm/batchnorm/add_1" type="Add" version="opset1">
			<data auto_broadcast="numpy"/>
			<rt_info>
				<attribute name="fused_names" value="expanded_conv_5/depthwise/BatchNorm/batchnorm/add_1" version="0"/>
			</rt_info>
			<input>
				<port id="0" precision="FP32">
					<dim>1</dim>
					<dim>240</dim>
					<dim>60</dim>
					<dim>60</dim>
				</port>
				<port id="1" precision="FP32">
					<dim>1</dim>
					<dim>240</dim>
					<dim>1</dim>
					<dim>1</dim>
				</port>
			</input>
			<output>
				<port id="2" names="expanded_conv_5/depthwise/BatchNorm/batchnorm/add_1:0" precision="FP32">
					<dim>1</dim>
					<dim>240</dim>
					<dim>60</dim>
					<dim>60</dim>
				</port>
			</output>
		</layer>
		<layer id="168" name="activation_14/multiply_6/mul" type="HSwish" version="opset4">
			<rt_info>
				<attribute name="fused_names" value="activation_14/activation_6/mul, activation_14/multiply_6/mul" version="0"/>
			</rt_info>
			<input>
				<port id="0" precision="FP32">
					<dim>1</dim>
					<dim>240</dim>
					<dim>60</dim>
					<dim>60</dim>
				</port>
			</input>
			<output>
				<port id="1" precision="FP32">
					<dim>1</dim>
					<dim>240</dim>
					<dim>60</dim>
					<dim>60</dim>
				</port>
			</output>
		</layer>
		<layer id="169" name="expanded_conv_5/squeeze_excite/AvgPool/MeanGather1608321733" type="Const" version="opset1">
			<data element_type="i64" offset="2464" shape="2" size="16"/>
			<rt_info>
				<attribute name="fused_names" value="expanded_conv_5/squeeze_excite/AvgPool/MeanGather1608321733" version="0"/>
			</rt_info>
			<output>
				<port id="0" precision="I64">
					<dim>2</dim>
				</port>
			</output>
		</layer>
		<layer id="170" name="expanded_conv_5/squeeze_excite/AvgPool/Mean" type="ReduceMean" version="opset1">
			<data keep_dims="false"/>
			<rt_info>
				<attribute name="fused_names" value="expanded_conv_5/squeeze_excite/AvgPool/Mean" version="0"/>
			</rt_info>
			<input>
				<port id="0" precision="FP32">
					<dim>1</dim>
					<dim>240</dim>
					<dim>60</dim>
					<dim>60</dim>
				</port>
				<port id="1" precision="I64">
					<dim>2</dim>
				</port>
			</input>
			<output>
				<port id="2" names="expanded_conv_5/squeeze_excite/AvgPool/Mean:0" precision="FP32">
					<dim>1</dim>
					<dim>240</dim>
				</port>
			</output>
		</layer>
		<layer id="171" name="reshape_3/Shape" type="ShapeOf" version="opset3">
			<data output_type="i32"/>
			<rt_info>
				<attribute name="fused_names" value="reshape_3/Shape" version="0"/>
			</rt_info>
			<input>
				<port id="0" precision="FP32">
					<dim>1</dim>
					<dim>240</dim>
				</port>
			</input>
			<output>
				<port id="1" names="reshape_3/Shape:0" precision="I32">
					<dim>2</dim>
				</port>
			</output>
		</layer>
		<layer id="172" name="reshape_3/strided_slice/stack" type="Const" version="opset1">
			<data element_type="i64" offset="2480" shape="1" size="8"/>
			<rt_info>
				<attribute name="fused_names" value="reshape_3/strided_slice/stack" version="0"/>
			</rt_info>
			<output>
				<port id="0" names="reshape_3/strided_slice/stack:0" precision="I64">
					<dim>1</dim>
				</port>
			</output>
		</layer>
		<layer id="173" name="reshape_3/strided_slice/stack_1" type="Const" version="opset1">
			<data element_type="i64" offset="2488" shape="1" size="8"/>
			<rt_info>
				<attribute name="fused_names" value="reshape_3/strided_slice/stack_1" version="0"/>
			</rt_info>
			<output>
				<port id="0" names="reshape_3/strided_slice/stack_1:0" precision="I64">
					<dim>1</dim>
				</port>
			</output>
		</layer>
		<layer id="174" name="reshape_3/strided_slice/stack_2" type="Const" version="opset1">
			<data element_type="i64" offset="2488" shape="1" size="8"/>
			<rt_info>
				<attribute name="fused_names" value="reshape_3/strided_slice/stack_2" version="0"/>
			</rt_info>
			<output>
				<port id="0" names="reshape_3/strided_slice/stack_2:0" precision="I64">
					<dim>1</dim>
				</port>
			</output>
		</layer>
		<layer id="175" name="reshape_3/strided_slice" type="StridedSlice" version="opset1">
			<data begin_mask="0" ellipsis_mask="0" end_mask="0" new_axis_mask="0" shrink_axis_mask="1"/>
			<rt_info>
				<attribute name="fused_names" value="reshape_3/strided_slice, reshape_3/strided_slice/stack, reshape_3/strided_slice/stack_1, reshape_3/strided_slice/stack_2" version="0"/>
			</rt_info>
			<input>
				<port id="0" precision="I32">
					<dim>2</dim>
				</port>
				<port id="1" precision="I64">
					<dim>1</dim>
				</port>
				<port id="2" precision="I64">
					<dim>1</dim>
				</port>
				<port id="3" precision="I64">
					<dim>1</dim>
				</port>
			</input>
			<output>
				<port id="4" names="reshape_3/strided_slice:0" precision="I32"/>
			</output>
		</layer>
		<layer id="176" name="reshape_3/Reshape/shape/Unsqueeze_input_port_1/value" type="Const" version="opset1">
			<data element_type="i64" offset="2480" shape="1" size="8"/>
			<rt_info>
				<attribute name="fused_names" value="reshape_3/Reshape/shape/Unsqueeze_input_port_1/value" version="0"/>
			</rt_info>
			<output>
				<port id="0" precision="I64">
					<dim>1</dim>
				</port>
			</output>
		</layer>
		<layer id="177" name="reshape_3/Reshape/shape/Unsqueeze" type="Unsqueeze" version="opset1">
			<rt_info>
				<attribute name="fused_names" value="reshape_3/Reshape/shape/Unsqueeze, reshape_3/Reshape/shape/Unsqueeze_input_port_1/value" version="0"/>
			</rt_info>
			<input>
				<port id="0" precision="I32"/>
				<port id="1" precision="I64">
					<dim>1</dim>
				</port>
			</input>
			<output>
				<port id="2" precision="I32">
					<dim>1</dim>
				</port>
			</output>
		</layer>
		<layer id="178" name="reshape_3/Reshape/shape/Unsqueeze1473" type="Const" version="opset1">
			<data element_type="i32" offset="2496" shape="1" size="4"/>
			<rt_info>
				<attribute name="fused_names" value="reshape_3/Reshape/shape/Unsqueeze1473" version="0"/>
			</rt_info>
			<output>
				<port id="0" precision="I32">
					<dim>1</dim>
				</port>
			</output>
		</layer>
		<layer id="179" name="reshape_3/Reshape/shape/Unsqueeze1475" type="Const" version="opset1">
			<data element_type="i32" offset="2496" shape="1" size="4"/>
			<rt_info>
				<attribute name="fused_names" value="reshape_3/Reshape/shape/Unsqueeze1475" version="0"/>
			</rt_info>
			<output>
				<port id="0" precision="I32">
					<dim>1</dim>
				</port>
			</output>
		</layer>
		<layer id="180" name="reshape_3/Reshape/shape/Unsqueeze1477" type="Const" version="opset1">
			<data element_type="i32" offset="158764" shape="1" size="4"/>
			<rt_info>
				<attribute name="fused_names" value="reshape_3/Reshape/shape/Unsqueeze1477" version="0"/>
			</rt_info>
			<output>
				<port id="0" precision="I32">
					<dim>1</dim>
				</port>
			</output>
		</layer>
		<layer id="181" name="reshape_3/Reshape/shape" type="Concat" version="opset1">
			<data axis="0"/>
			<rt_info>
				<attribute name="fused_names" value="reshape_3/Reshape/shape, reshape_3/Reshape/shape/Unsqueeze1473, reshape_3/Reshape/shape/Unsqueeze1475, reshape_3/Reshape/shape/Unsqueeze1477" version="0"/>
			</rt_info>
			<input>
				<port id="0" precision="I32">
					<dim>1</dim>
				</port>
				<port id="1" precision="I32">
					<dim>1</dim>
				</port>
				<port id="2" precision="I32">
					<dim>1</dim>
				</port>
				<port id="3" precision="I32">
					<dim>1</dim>
				</port>
			</input>
			<output>
				<port id="4" precision="I32">
					<dim>4</dim>
				</port>
			</output>
		</layer>
		<layer id="182" name="reshape_3/Reshape/Cast_1" type="Convert" version="opset1">
			<data destination_type="i64"/>
			<rt_info>
				<attribute name="fused_names" value="reshape_3/Reshape/Cast_1" version="0"/>
			</rt_info>
			<input>
				<port id="0" precision="I32">
					<dim>4</dim>
				</port>
			</input>
			<output>
				<port id="1" names="reshape_3/Reshape/shape:0" precision="I64">
					<dim>4</dim>
				</port>
			</output>
		</layer>
		<layer id="183" name="reshape_3/Reshape" type="Reshape" version="opset1">
			<data special_zero="false"/>
			<rt_info>
				<attribute name="fused_names" value="reshape_3/Reshape" version="0"/>
			</rt_info>
			<input>
				<port id="0" precision="FP32">
					<dim>1</dim>
					<dim>240</dim>
				</port>
				<port id="1" precision="I64">
					<dim>4</dim>
				</port>
			</input>
			<output>
				<port id="2" precision="FP32">
					<dim>1</dim>
					<dim>1</dim>
					<dim>1</dim>
					<dim>240</dim>
				</port>
			</output>
		</layer>
		<layer id="184" name="Constant_3308" type="Const" version="opset1">
			<data element_type="i64" offset="158768" shape="4" size="32"/>
			<output>
				<port id="0" precision="I64">
					<dim>4</dim>
				</port>
			</output>
		</layer>
		<layer id="185" name="reshape_3/Reshape/Transpose" type="Reshape" version="opset1">
			<data special_zero="true"/>
			<rt_info>
				<attribute name="fused_names" value="reshape_3/Reshape/Transpose" version="0"/>
			</rt_info>
			<input>
				<port id="0" precision="FP32">
					<dim>1</dim>
					<dim>1</dim>
					<dim>1</dim>
					<dim>240</dim>
				</port>
				<port id="1" precision="I64">
					<dim>4</dim>
				</port>
			</input>
			<output>
				<port id="2" names="reshape_3/Reshape:0" precision="FP32">
					<dim>1</dim>
					<dim>240</dim>
					<dim>1</dim>
					<dim>1</dim>
				</port>
			</output>
		</layer>
		<layer id="186" name="expanded_conv_5/squeeze_excite/Conv/Conv2D/ReadVariableOp" type="Const" version="opset1">
			<data element_type="f32" offset="385776" shape="64, 240, 1, 1" size="61440"/>
			<rt_info>
				<attribute name="fused_names" value="expanded_conv_5/squeeze_excite/Conv/Conv2D/ReadVariableOp" version="0"/>
			</rt_info>
			<output>
				<port id="0" names="expanded_conv_5/squeeze_excite/Conv/Conv2D/ReadVariableOp:0" precision="FP32">
					<dim>64</dim>
					<dim>240</dim>
					<dim>1</dim>
					<dim>1</dim>
				</port>
			</output>
		</layer>
		<layer id="187" name="expanded_conv_5/squeeze_excite/Conv/Conv2D" type="Convolution" version="opset1">
			<data auto_pad="same_upper" dilations="1, 1" pads_begin="0, 0" pads_end="0, 0" strides="1, 1"/>
			<rt_info>
				<attribute name="fused_names" value="expanded_conv_5/squeeze_excite/Conv/Conv2D" version="0"/>
			</rt_info>
			<input>
				<port id="0" precision="FP32">
					<dim>1</dim>
					<dim>240</dim>
					<dim>1</dim>
					<dim>1</dim>
				</port>
				<port id="1" precision="FP32">
					<dim>64</dim>
					<dim>240</dim>
					<dim>1</dim>
					<dim>1</dim>
				</port>
			</input>
			<output>
				<port id="2" names="expanded_conv_5/squeeze_excite/Conv/Conv2D:0" precision="FP32">
					<dim>1</dim>
					<dim>64</dim>
					<dim>1</dim>
					<dim>1</dim>
				</port>
			</output>
		</layer>
		<layer id="188" name="expanded_conv_5/squeeze_excite/Conv/BiasAdd/ReadVariableOp" type="Const" version="opset1">
			<data element_type="f32" offset="447216" shape="1, 64, 1, 1" size="256"/>
			<rt_info>
				<attribute name="fused_names" value="expanded_conv_5/squeeze_excite/Conv/BiasAdd/ReadVariableOp" version="0"/>
			</rt_info>
			<output>
				<port id="0" names="expanded_conv_5/squeeze_excite/Conv/BiasAdd/ReadVariableOp:0" precision="FP32">
					<dim>1</dim>
					<dim>64</dim>
					<dim>1</dim>
					<dim>1</dim>
				</port>
			</output>
		</layer>
		<layer id="189" name="expanded_conv_5/squeeze_excite/Conv/BiasAdd/Add" type="Add" version="opset1">
			<data auto_broadcast="numpy"/>
			<rt_info>
				<attribute name="fused_names" value="expanded_conv_5/squeeze_excite/Conv/BiasAdd/Add" version="0"/>
			</rt_info>
			<input>
				<port id="0" precision="FP32">
					<dim>1</dim>
					<dim>64</dim>
					<dim>1</dim>
					<dim>1</dim>
				</port>
				<port id="1" precision="FP32">
					<dim>1</dim>
					<dim>64</dim>
					<dim>1</dim>
					<dim>1</dim>
				</port>
			</input>
			<output>
				<port id="2" names="expanded_conv_5/squeeze_excite/Conv/BiasAdd:0" precision="FP32">
					<dim>1</dim>
					<dim>64</dim>
					<dim>1</dim>
					<dim>1</dim>
				</port>
			</output>
		</layer>
		<layer id="190" name="expanded_conv_5/squeeze_excite/Relu/Relu" type="ReLU" version="opset1">
			<rt_info>
				<attribute name="fused_names" value="expanded_conv_5/squeeze_excite/Relu/Relu" version="0"/>
			</rt_info>
			<input>
				<port id="0" precision="FP32">
					<dim>1</dim>
					<dim>64</dim>
					<dim>1</dim>
					<dim>1</dim>
				</port>
			</input>
			<output>
				<port id="1" names="expanded_conv_5/squeeze_excite/Relu/Relu:0" precision="FP32">
					<dim>1</dim>
					<dim>64</dim>
					<dim>1</dim>
					<dim>1</dim>
				</port>
			</output>
		</layer>
		<layer id="191" name="expanded_conv_5/squeeze_excite/Conv_1/Conv2D/ReadVariableOp" type="Const" version="opset1">
			<data element_type="f32" offset="447472" shape="240, 64, 1, 1" size="61440"/>
			<rt_info>
				<attribute name="fused_names" value="expanded_conv_5/squeeze_excite/Conv_1/Conv2D/ReadVariableOp" version="0"/>
			</rt_info>
			<output>
				<port id="0" names="expanded_conv_5/squeeze_excite/Conv_1/Conv2D/ReadVariableOp:0" precision="FP32">
					<dim>240</dim>
					<dim>64</dim>
					<dim>1</dim>
					<dim>1</dim>
				</port>
			</output>
		</layer>
		<layer id="192" name="expanded_conv_5/squeeze_excite/Conv_1/Conv2D" type="Convolution" version="opset1">
			<data auto_pad="same_upper" dilations="1, 1" pads_begin="0, 0" pads_end="0, 0" strides="1, 1"/>
			<rt_info>
				<attribute name="fused_names" value="expanded_conv_5/squeeze_excite/Conv_1/Conv2D" version="0"/>
			</rt_info>
			<input>
				<port id="0" precision="FP32">
					<dim>1</dim>
					<dim>64</dim>
					<dim>1</dim>
					<dim>1</dim>
				</port>
				<port id="1" precision="FP32">
					<dim>240</dim>
					<dim>64</dim>
					<dim>1</dim>
					<dim>1</dim>
				</port>
			</input>
			<output>
				<port id="2" names="expanded_conv_5/squeeze_excite/Conv_1/Conv2D:0" precision="FP32">
					<dim>1</dim>
					<dim>240</dim>
					<dim>1</dim>
					<dim>1</dim>
				</port>
			</output>
		</layer>
		<layer id="193" name="expanded_conv_5/squeeze_excite/Conv_1/BiasAdd/ReadVariableOp" type="Const" version="opset1">
			<data element_type="f32" offset="508912" shape="1, 240, 1, 1" size="960"/>
			<rt_info>
				<attribute name="fused_names" value="expanded_conv_5/squeeze_excite/Conv_1/BiasAdd/ReadVariableOp" version="0"/>
			</rt_info>
			<output>
				<port id="0" names="expanded_conv_5/squeeze_excite/Conv_1/BiasAdd/ReadVariableOp:0" precision="FP32">
					<dim>1</dim>
					<dim>240</dim>
					<dim>1</dim>
					<dim>1</dim>
				</port>
			</output>
		</layer>
		<layer id="194" name="expanded_conv_5/squeeze_excite/Conv_1/BiasAdd/Add" type="Add" version="opset1">
			<data auto_broadcast="numpy"/>
			<rt_info>
				<attribute name="fused_names" value="expanded_conv_5/squeeze_excite/Conv_1/BiasAdd/Add" version="0"/>
			</rt_info>
			<input>
				<port id="0" precision="FP32">
					<dim>1</dim>
					<dim>240</dim>
					<dim>1</dim>
					<dim>1</dim>
				</port>
				<port id="1" precision="FP32">
					<dim>1</dim>
					<dim>240</dim>
					<dim>1</dim>
					<dim>1</dim>
				</port>
			</input>
			<output>
				<port id="2" names="expanded_conv_5/squeeze_excite/Conv_1/BiasAdd:0" precision="FP32">
					<dim>1</dim>
					<dim>240</dim>
					<dim>1</dim>
					<dim>1</dim>
				</port>
			</output>
		</layer>
		<layer id="195" name="activation_15/mul" type="HSigmoid" version="opset5">
			<rt_info>
				<attribute name="fused_names" value="activation_15/mul" version="0"/>
			</rt_info>
			<input>
				<port id="0" precision="FP32">
					<dim>1</dim>
					<dim>240</dim>
					<dim>1</dim>
					<dim>1</dim>
				</port>
			</input>
			<output>
				<port id="1" names="activation_15/mul:0" precision="FP32">
					<dim>1</dim>
					<dim>240</dim>
					<dim>1</dim>
					<dim>1</dim>
				</port>
			</output>
		</layer>
		<layer id="196" name="expanded_conv_5/squeeze_excite/Mul/mul" type="Multiply" version="opset1">
			<data auto_broadcast="numpy"/>
			<rt_info>
				<attribute name="fused_names" value="expanded_conv_5/squeeze_excite/Mul/mul" version="0"/>
			</rt_info>
			<input>
				<port id="0" precision="FP32">
					<dim>1</dim>
					<dim>240</dim>
					<dim>60</dim>
					<dim>60</dim>
				</port>
				<port id="1" precision="FP32">
					<dim>1</dim>
					<dim>240</dim>
					<dim>1</dim>
					<dim>1</dim>
				</port>
			</input>
			<output>
				<port id="2" names="expanded_conv_5/squeeze_excite/Mul/mul:0" precision="FP32">
					<dim>1</dim>
					<dim>240</dim>
					<dim>60</dim>
					<dim>60</dim>
				</port>
			</output>
		</layer>
		<layer id="197" name="expanded_conv_5/project/BatchNorm/batchnorm/mul_1_copy" type="Const" version="opset1">
			<data element_type="f32" offset="509872" shape="40, 240, 1, 1" size="38400"/>
			<rt_info>
				<attribute name="fused_names" value="expanded_conv_5/project/BatchNorm/batchnorm/mul_1_copy" version="0"/>
			</rt_info>
			<output>
				<port id="0" names="expanded_conv_5/project/Conv2D/ReadVariableOp:0" precision="FP32">
					<dim>40</dim>
					<dim>240</dim>
					<dim>1</dim>
					<dim>1</dim>
				</port>
			</output>
		</layer>
		<layer id="198" name="expanded_conv_5/project/Conv2D" type="Convolution" version="opset1">
			<data auto_pad="same_upper" dilations="1, 1" pads_begin="0, 0" pads_end="0, 0" strides="1, 1"/>
			<rt_info>
				<attribute name="fused_names" value="expanded_conv_5/project/Conv2D" version="0"/>
			</rt_info>
			<input>
				<port id="0" precision="FP32">
					<dim>1</dim>
					<dim>240</dim>
					<dim>60</dim>
					<dim>60</dim>
				</port>
				<port id="1" precision="FP32">
					<dim>40</dim>
					<dim>240</dim>
					<dim>1</dim>
					<dim>1</dim>
				</port>
			</input>
			<output>
				<port id="2" names="expanded_conv_5/project/BatchNorm/batchnorm/mul_1:0" precision="FP32">
					<dim>1</dim>
					<dim>40</dim>
					<dim>60</dim>
					<dim>60</dim>
				</port>
			</output>
		</layer>
		<layer id="199" name="expanded_conv_5/project/BatchNorm/batchnorm/sub" type="Const" version="opset1">
			<data element_type="f32" offset="548272" shape="1, 40, 1, 1" size="160"/>
			<rt_info>
				<attribute name="fused_names" value="expanded_conv_5/project/BatchNorm/batchnorm/sub" version="0"/>
			</rt_info>
			<output>
				<port id="0" names="expanded_conv_5/project/BatchNorm/batchnorm/sub:0" precision="FP32">
					<dim>1</dim>
					<dim>40</dim>
					<dim>1</dim>
					<dim>1</dim>
				</port>
			</output>
		</layer>
		<layer id="200" name="expanded_conv_5/project/BatchNorm/batchnorm/add_1" type="Add" version="opset1">
			<data auto_broadcast="numpy"/>
			<rt_info>
				<attribute name="fused_names" value="expanded_conv_5/project/BatchNorm/batchnorm/add_1" version="0"/>
			</rt_info>
			<input>
				<port id="0" precision="FP32">
					<dim>1</dim>
					<dim>40</dim>
					<dim>60</dim>
					<dim>60</dim>
				</port>
				<port id="1" precision="FP32">
					<dim>1</dim>
					<dim>40</dim>
					<dim>1</dim>
					<dim>1</dim>
				</port>
			</input>
			<output>
				<port id="2" names="expanded_conv_5/project/BatchNorm/batchnorm/add_1:0" precision="FP32">
					<dim>1</dim>
					<dim>40</dim>
					<dim>60</dim>
					<dim>60</dim>
				</port>
			</output>
		</layer>
		<layer id="201" name="expanded_conv_5/Add/add" type="Add" version="opset1">
			<data auto_broadcast="numpy"/>
			<rt_info>
				<attribute name="fused_names" value="expanded_conv_5/Add/add" version="0"/>
			</rt_info>
			<input>
				<port id="0" precision="FP32">
					<dim>1</dim>
					<dim>40</dim>
					<dim>60</dim>
					<dim>60</dim>
				</port>
				<port id="1" precision="FP32">
					<dim>1</dim>
					<dim>40</dim>
					<dim>60</dim>
					<dim>60</dim>
				</port>
			</input>
			<output>
				<port id="2" names="expanded_conv_5/Add/add:0" precision="FP32">
					<dim>1</dim>
					<dim>40</dim>
					<dim>60</dim>
					<dim>60</dim>
				</port>
			</output>
		</layer>
		<layer id="202" name="expanded_conv_6/expand/BatchNorm/batchnorm/mul_1_copy" type="Const" version="opset1">
			<data element_type="f32" offset="548432" shape="120, 40, 1, 1" size="19200"/>
			<rt_info>
				<attribute name="fused_names" value="expanded_conv_6/expand/BatchNorm/batchnorm/mul_1_copy" version="0"/>
			</rt_info>
			<output>
				<port id="0" names="expanded_conv_6/expand/Conv2D/ReadVariableOp:0" precision="FP32">
					<dim>120</dim>
					<dim>40</dim>
					<dim>1</dim>
					<dim>1</dim>
				</port>
			</output>
		</layer>
		<layer id="203" name="expanded_conv_6/expand/Conv2D" type="Convolution" version="opset1">
			<data auto_pad="same_upper" dilations="1, 1" pads_begin="0, 0" pads_end="0, 0" strides="1, 1"/>
			<rt_info>
				<attribute name="fused_names" value="expanded_conv_6/expand/Conv2D" version="0"/>
			</rt_info>
			<input>
				<port id="0" precision="FP32">
					<dim>1</dim>
					<dim>40</dim>
					<dim>60</dim>
					<dim>60</dim>
				</port>
				<port id="1" precision="FP32">
					<dim>120</dim>
					<dim>40</dim>
					<dim>1</dim>
					<dim>1</dim>
				</port>
			</input>
			<output>
				<port id="2" names="expanded_conv_6/expand/BatchNorm/batchnorm/mul_1:0" precision="FP32">
					<dim>1</dim>
					<dim>120</dim>
					<dim>60</dim>
					<dim>60</dim>
				</port>
			</output>
		</layer>
		<layer id="204" name="expanded_conv_6/expand/BatchNorm/batchnorm/sub" type="Const" version="opset1">
			<data element_type="f32" offset="567632" shape="1, 120, 1, 1" size="480"/>
			<rt_info>
				<attribute name="fused_names" value="expanded_conv_6/expand/BatchNorm/batchnorm/sub" version="0"/>
			</rt_info>
			<output>
				<port id="0" names="expanded_conv_6/expand/BatchNorm/batchnorm/sub:0" precision="FP32">
					<dim>1</dim>
					<dim>120</dim>
					<dim>1</dim>
					<dim>1</dim>
				</port>
			</output>
		</layer>
		<layer id="205" name="expanded_conv_6/expand/BatchNorm/batchnorm/add_1" type="Add" version="opset1">
			<data auto_broadcast="numpy"/>
			<rt_info>
				<attribute name="fused_names" value="expanded_conv_6/expand/BatchNorm/batchnorm/add_1" version="0"/>
			</rt_info>
			<input>
				<port id="0" precision="FP32">
					<dim>1</dim>
					<dim>120</dim>
					<dim>60</dim>
					<dim>60</dim>
				</port>
				<port id="1" precision="FP32">
					<dim>1</dim>
					<dim>120</dim>
					<dim>1</dim>
					<dim>1</dim>
				</port>
			</input>
			<output>
				<port id="2" names="expanded_conv_6/expand/BatchNorm/batchnorm/add_1:0" precision="FP32">
					<dim>1</dim>
					<dim>120</dim>
					<dim>60</dim>
					<dim>60</dim>
				</port>
			</output>
		</layer>
		<layer id="206" name="activation_16/multiply_7/mul" type="HSwish" version="opset4">
			<rt_info>
				<attribute name="fused_names" value="activation_16/activation_7/mul, activation_16/multiply_7/mul" version="0"/>
			</rt_info>
			<input>
				<port id="0" precision="FP32">
					<dim>1</dim>
					<dim>120</dim>
					<dim>60</dim>
					<dim>60</dim>
				</port>
			</input>
			<output>
				<port id="1" names="activation_16/multiply_7/mul:0" precision="FP32">
					<dim>1</dim>
					<dim>120</dim>
					<dim>60</dim>
					<dim>60</dim>
				</port>
			</output>
		</layer>
		<layer id="207" name="expanded_conv_6/depthwise/BatchNorm/batchnorm/mul_1_copy" type="Const" version="opset1">
			<data element_type="f32" offset="568112" shape="120, 1, 1, 5, 5" size="12000"/>
			<rt_info>
				<attribute name="fused_names" value="expanded_conv_6/depthwise/BatchNorm/batchnorm/mul_1_copy" version="0"/>
			</rt_info>
			<output>
				<port id="0" names="expanded_conv_6/depthwise/Conv/depthwise/ReadVariableOp:0" precision="FP32">
					<dim>120</dim>
					<dim>1</dim>
					<dim>1</dim>
					<dim>5</dim>
					<dim>5</dim>
				</port>
			</output>
		</layer>
		<layer id="208" name="expanded_conv_6/depthwise/Conv/depthwise" type="GroupConvolution" version="opset1">
			<data auto_pad="same_upper" dilations="1, 1" pads_begin="0, 0" pads_end="0, 0" strides="1, 1"/>
			<rt_info>
				<attribute name="fused_names" value="expanded_conv_6/depthwise/Conv/depthwise" version="0"/>
			</rt_info>
			<input>
				<port id="0" precision="FP32">
					<dim>1</dim>
					<dim>120</dim>
					<dim>60</dim>
					<dim>60</dim>
				</port>
				<port id="1" precision="FP32">
					<dim>120</dim>
					<dim>1</dim>
					<dim>1</dim>
					<dim>5</dim>
					<dim>5</dim>
				</port>
			</input>
			<output>
				<port id="2" names="expanded_conv_6/depthwise/BatchNorm/batchnorm/mul_1:0" precision="FP32">
					<dim>1</dim>
					<dim>120</dim>
					<dim>60</dim>
					<dim>60</dim>
				</port>
			</output>
		</layer>
		<layer id="209" name="expanded_conv_6/depthwise/BatchNorm/batchnorm/sub" type="Const" version="opset1">
			<data element_type="f32" offset="580112" shape="1, 120, 1, 1" size="480"/>
			<rt_info>
				<attribute name="fused_names" value="expanded_conv_6/depthwise/BatchNorm/batchnorm/sub" version="0"/>
			</rt_info>
			<output>
				<port id="0" names="expanded_conv_6/depthwise/BatchNorm/batchnorm/sub:0" precision="FP32">
					<dim>1</dim>
					<dim>120</dim>
					<dim>1</dim>
					<dim>1</dim>
				</port>
			</output>
		</layer>
		<layer id="210" name="expanded_conv_6/depthwise/BatchNorm/batchnorm/add_1" type="Add" version="opset1">
			<data auto_broadcast="numpy"/>
			<rt_info>
				<attribute name="fused_names" value="expanded_conv_6/depthwise/BatchNorm/batchnorm/add_1" version="0"/>
			</rt_info>
			<input>
				<port id="0" precision="FP32">
					<dim>1</dim>
					<dim>120</dim>
					<dim>60</dim>
					<dim>60</dim>
				</port>
				<port id="1" precision="FP32">
					<dim>1</dim>
					<dim>120</dim>
					<dim>1</dim>
					<dim>1</dim>
				</port>
			</input>
			<output>
				<port id="2" names="expanded_conv_6/depthwise/BatchNorm/batchnorm/add_1:0" precision="FP32">
					<dim>1</dim>
					<dim>120</dim>
					<dim>60</dim>
					<dim>60</dim>
				</port>
			</output>
		</layer>
		<layer id="211" name="activation_17/multiply_8/mul" type="HSwish" version="opset4">
			<rt_info>
				<attribute name="fused_names" value="activation_17/activation_8/mul, activation_17/multiply_8/mul" version="0"/>
			</rt_info>
			<input>
				<port id="0" precision="FP32">
					<dim>1</dim>
					<dim>120</dim>
					<dim>60</dim>
					<dim>60</dim>
				</port>
			</input>
			<output>
				<port id="1" precision="FP32">
					<dim>1</dim>
					<dim>120</dim>
					<dim>60</dim>
					<dim>60</dim>
				</port>
			</output>
		</layer>
		<layer id="212" name="expanded_conv_6/squeeze_excite/AvgPool/MeanGather1609921778" type="Const" version="opset1">
			<data element_type="i64" offset="2464" shape="2" size="16"/>
			<rt_info>
				<attribute name="fused_names" value="expanded_conv_6/squeeze_excite/AvgPool/MeanGather1609921778" version="0"/>
			</rt_info>
			<output>
				<port id="0" precision="I64">
					<dim>2</dim>
				</port>
			</output>
		</layer>
		<layer id="213" name="expanded_conv_6/squeeze_excite/AvgPool/Mean" type="ReduceMean" version="opset1">
			<data keep_dims="false"/>
			<rt_info>
				<attribute name="fused_names" value="expanded_conv_6/squeeze_excite/AvgPool/Mean" version="0"/>
			</rt_info>
			<input>
				<port id="0" precision="FP32">
					<dim>1</dim>
					<dim>120</dim>
					<dim>60</dim>
					<dim>60</dim>
				</port>
				<port id="1" precision="I64">
					<dim>2</dim>
				</port>
			</input>
			<output>
				<port id="2" names="expanded_conv_6/squeeze_excite/AvgPool/Mean:0" precision="FP32">
					<dim>1</dim>
					<dim>120</dim>
				</port>
			</output>
		</layer>
		<layer id="214" name="reshape_4/Shape" type="ShapeOf" version="opset3">
			<data output_type="i32"/>
			<rt_info>
				<attribute name="fused_names" value="reshape_4/Shape" version="0"/>
			</rt_info>
			<input>
				<port id="0" precision="FP32">
					<dim>1</dim>
					<dim>120</dim>
				</port>
			</input>
			<output>
				<port id="1" names="reshape_4/Shape:0" precision="I32">
					<dim>2</dim>
				</port>
			</output>
		</layer>
		<layer id="215" name="reshape_4/strided_slice/stack" type="Const" version="opset1">
			<data element_type="i64" offset="2480" shape="1" size="8"/>
			<rt_info>
				<attribute name="fused_names" value="reshape_4/strided_slice/stack" version="0"/>
			</rt_info>
			<output>
				<port id="0" names="reshape_4/strided_slice/stack:0" precision="I64">
					<dim>1</dim>
				</port>
			</output>
		</layer>
		<layer id="216" name="reshape_4/strided_slice/stack_1" type="Const" version="opset1">
			<data element_type="i64" offset="2488" shape="1" size="8"/>
			<rt_info>
				<attribute name="fused_names" value="reshape_4/strided_slice/stack_1" version="0"/>
			</rt_info>
			<output>
				<port id="0" names="reshape_4/strided_slice/stack_1:0" precision="I64">
					<dim>1</dim>
				</port>
			</output>
		</layer>
		<layer id="217" name="reshape_4/strided_slice/stack_2" type="Const" version="opset1">
			<data element_type="i64" offset="2488" shape="1" size="8"/>
			<rt_info>
				<attribute name="fused_names" value="reshape_4/strided_slice/stack_2" version="0"/>
			</rt_info>
			<output>
				<port id="0" names="reshape_4/strided_slice/stack_2:0" precision="I64">
					<dim>1</dim>
				</port>
			</output>
		</layer>
		<layer id="218" name="reshape_4/strided_slice" type="StridedSlice" version="opset1">
			<data begin_mask="0" ellipsis_mask="0" end_mask="0" new_axis_mask="0" shrink_axis_mask="1"/>
			<rt_info>
				<attribute name="fused_names" value="reshape_4/strided_slice, reshape_4/strided_slice/stack, reshape_4/strided_slice/stack_1, reshape_4/strided_slice/stack_2" version="0"/>
			</rt_info>
			<input>
				<port id="0" precision="I32">
					<dim>2</dim>
				</port>
				<port id="1" precision="I64">
					<dim>1</dim>
				</port>
				<port id="2" precision="I64">
					<dim>1</dim>
				</port>
				<port id="3" precision="I64">
					<dim>1</dim>
				</port>
			</input>
			<output>
				<port id="4" names="reshape_4/strided_slice:0" precision="I32"/>
			</output>
		</layer>
		<layer id="219" name="reshape_4/Reshape/shape/Unsqueeze_input_port_1/value" type="Const" version="opset1">
			<data element_type="i64" offset="2480" shape="1" size="8"/>
			<rt_info>
				<attribute name="fused_names" value="reshape_4/Reshape/shape/Unsqueeze_input_port_1/value" version="0"/>
			</rt_info>
			<output>
				<port id="0" precision="I64">
					<dim>1</dim>
				</port>
			</output>
		</layer>
		<layer id="220" name="reshape_4/Reshape/shape/Unsqueeze" type="Unsqueeze" version="opset1">
			<rt_info>
				<attribute name="fused_names" value="reshape_4/Reshape/shape/Unsqueeze, reshape_4/Reshape/shape/Unsqueeze_input_port_1/value" version="0"/>
			</rt_info>
			<input>
				<port id="0" precision="I32"/>
				<port id="1" precision="I64">
					<dim>1</dim>
				</port>
			</input>
			<output>
				<port id="2" precision="I32">
					<dim>1</dim>
				</port>
			</output>
		</layer>
		<layer id="221" name="reshape_4/Reshape/shape/Unsqueeze1437" type="Const" version="opset1">
			<data element_type="i32" offset="2496" shape="1" size="4"/>
			<rt_info>
				<attribute name="fused_names" value="reshape_4/Reshape/shape/Unsqueeze1437" version="0"/>
			</rt_info>
			<output>
				<port id="0" precision="I32">
					<dim>1</dim>
				</port>
			</output>
		</layer>
		<layer id="222" name="reshape_4/Reshape/shape/Unsqueeze1439" type="Const" version="opset1">
			<data element_type="i32" offset="2496" shape="1" size="4"/>
			<rt_info>
				<attribute name="fused_names" value="reshape_4/Reshape/shape/Unsqueeze1439" version="0"/>
			</rt_info>
			<output>
				<port id="0" precision="I32">
					<dim>1</dim>
				</port>
			</output>
		</layer>
		<layer id="223" name="reshape_4/Reshape/shape/Unsqueeze1441" type="Const" version="opset1">
			<data element_type="i32" offset="580592" shape="1" size="4"/>
			<rt_info>
				<attribute name="fused_names" value="reshape_4/Reshape/shape/Unsqueeze1441" version="0"/>
			</rt_info>
			<output>
				<port id="0" precision="I32">
					<dim>1</dim>
				</port>
			</output>
		</layer>
		<layer id="224" name="reshape_4/Reshape/shape" type="Concat" version="opset1">
			<data axis="0"/>
			<rt_info>
				<attribute name="fused_names" value="reshape_4/Reshape/shape, reshape_4/Reshape/shape/Unsqueeze1437, reshape_4/Reshape/shape/Unsqueeze1439, reshape_4/Reshape/shape/Unsqueeze1441" version="0"/>
			</rt_info>
			<input>
				<port id="0" precision="I32">
					<dim>1</dim>
				</port>
				<port id="1" precision="I32">
					<dim>1</dim>
				</port>
				<port id="2" precision="I32">
					<dim>1</dim>
				</port>
				<port id="3" precision="I32">
					<dim>1</dim>
				</port>
			</input>
			<output>
				<port id="4" precision="I32">
					<dim>4</dim>
				</port>
			</output>
		</layer>
		<layer id="225" name="reshape_4/Reshape/Cast_1" type="Convert" version="opset1">
			<data destination_type="i64"/>
			<rt_info>
				<attribute name="fused_names" value="reshape_4/Reshape/Cast_1" version="0"/>
			</rt_info>
			<input>
				<port id="0" precision="I32">
					<dim>4</dim>
				</port>
			</input>
			<output>
				<port id="1" names="reshape_4/Reshape/shape:0" precision="I64">
					<dim>4</dim>
				</port>
			</output>
		</layer>
		<layer id="226" name="reshape_4/Reshape" type="Reshape" version="opset1">
			<data special_zero="false"/>
			<rt_info>
				<attribute name="fused_names" value="reshape_4/Reshape" version="0"/>
			</rt_info>
			<input>
				<port id="0" precision="FP32">
					<dim>1</dim>
					<dim>120</dim>
				</port>
				<port id="1" precision="I64">
					<dim>4</dim>
				</port>
			</input>
			<output>
				<port id="2" precision="FP32">
					<dim>1</dim>
					<dim>1</dim>
					<dim>1</dim>
					<dim>120</dim>
				</port>
			</output>
		</layer>
		<layer id="227" name="Constant_3317" type="Const" version="opset1">
			<data element_type="i64" offset="580596" shape="4" size="32"/>
			<output>
				<port id="0" precision="I64">
					<dim>4</dim>
				</port>
			</output>
		</layer>
		<layer id="228" name="reshape_4/Reshape/Transpose" type="Reshape" version="opset1">
			<data special_zero="true"/>
			<rt_info>
				<attribute name="fused_names" value="reshape_4/Reshape/Transpose" version="0"/>
			</rt_info>
			<input>
				<port id="0" precision="FP32">
					<dim>1</dim>
					<dim>1</dim>
					<dim>1</dim>
					<dim>120</dim>
				</port>
				<port id="1" precision="I64">
					<dim>4</dim>
				</port>
			</input>
			<output>
				<port id="2" names="reshape_4/Reshape:0" precision="FP32">
					<dim>1</dim>
					<dim>120</dim>
					<dim>1</dim>
					<dim>1</dim>
				</port>
			</output>
		</layer>
		<layer id="229" name="expanded_conv_6/squeeze_excite/Conv/Conv2D/ReadVariableOp" type="Const" version="opset1">
			<data element_type="f32" offset="580628" shape="32, 120, 1, 1" size="15360"/>
			<rt_info>
				<attribute name="fused_names" value="expanded_conv_6/squeeze_excite/Conv/Conv2D/ReadVariableOp" version="0"/>
			</rt_info>
			<output>
				<port id="0" names="expanded_conv_6/squeeze_excite/Conv/Conv2D/ReadVariableOp:0" precision="FP32">
					<dim>32</dim>
					<dim>120</dim>
					<dim>1</dim>
					<dim>1</dim>
				</port>
			</output>
		</layer>
		<layer id="230" name="expanded_conv_6/squeeze_excite/Conv/Conv2D" type="Convolution" version="opset1">
			<data auto_pad="same_upper" dilations="1, 1" pads_begin="0, 0" pads_end="0, 0" strides="1, 1"/>
			<rt_info>
				<attribute name="fused_names" value="expanded_conv_6/squeeze_excite/Conv/Conv2D" version="0"/>
			</rt_info>
			<input>
				<port id="0" precision="FP32">
					<dim>1</dim>
					<dim>120</dim>
					<dim>1</dim>
					<dim>1</dim>
				</port>
				<port id="1" precision="FP32">
					<dim>32</dim>
					<dim>120</dim>
					<dim>1</dim>
					<dim>1</dim>
				</port>
			</input>
			<output>
				<port id="2" names="expanded_conv_6/squeeze_excite/Conv/Conv2D:0" precision="FP32">
					<dim>1</dim>
					<dim>32</dim>
					<dim>1</dim>
					<dim>1</dim>
				</port>
			</output>
		</layer>
		<layer id="231" name="expanded_conv_6/squeeze_excite/Conv/BiasAdd/ReadVariableOp" type="Const" version="opset1">
			<data element_type="f32" offset="595988" shape="1, 32, 1, 1" size="128"/>
			<rt_info>
				<attribute name="fused_names" value="expanded_conv_6/squeeze_excite/Conv/BiasAdd/ReadVariableOp" version="0"/>
			</rt_info>
			<output>
				<port id="0" names="expanded_conv_6/squeeze_excite/Conv/BiasAdd/ReadVariableOp:0" precision="FP32">
					<dim>1</dim>
					<dim>32</dim>
					<dim>1</dim>
					<dim>1</dim>
				</port>
			</output>
		</layer>
		<layer id="232" name="expanded_conv_6/squeeze_excite/Conv/BiasAdd/Add" type="Add" version="opset1">
			<data auto_broadcast="numpy"/>
			<rt_info>
				<attribute name="fused_names" value="expanded_conv_6/squeeze_excite/Conv/BiasAdd/Add" version="0"/>
			</rt_info>
			<input>
				<port id="0" precision="FP32">
					<dim>1</dim>
					<dim>32</dim>
					<dim>1</dim>
					<dim>1</dim>
				</port>
				<port id="1" precision="FP32">
					<dim>1</dim>
					<dim>32</dim>
					<dim>1</dim>
					<dim>1</dim>
				</port>
			</input>
			<output>
				<port id="2" names="expanded_conv_6/squeeze_excite/Conv/BiasAdd:0" precision="FP32">
					<dim>1</dim>
					<dim>32</dim>
					<dim>1</dim>
					<dim>1</dim>
				</port>
			</output>
		</layer>
		<layer id="233" name="expanded_conv_6/squeeze_excite/Relu/Relu" type="ReLU" version="opset1">
			<rt_info>
				<attribute name="fused_names" value="expanded_conv_6/squeeze_excite/Relu/Relu" version="0"/>
			</rt_info>
			<input>
				<port id="0" precision="FP32">
					<dim>1</dim>
					<dim>32</dim>
					<dim>1</dim>
					<dim>1</dim>
				</port>
			</input>
			<output>
				<port id="1" names="expanded_conv_6/squeeze_excite/Relu/Relu:0" precision="FP32">
					<dim>1</dim>
					<dim>32</dim>
					<dim>1</dim>
					<dim>1</dim>
				</port>
			</output>
		</layer>
		<layer id="234" name="expanded_conv_6/squeeze_excite/Conv_1/Conv2D/ReadVariableOp" type="Const" version="opset1">
			<data element_type="f32" offset="596116" shape="120, 32, 1, 1" size="15360"/>
			<rt_info>
				<attribute name="fused_names" value="expanded_conv_6/squeeze_excite/Conv_1/Conv2D/ReadVariableOp" version="0"/>
			</rt_info>
			<output>
				<port id="0" names="expanded_conv_6/squeeze_excite/Conv_1/Conv2D/ReadVariableOp:0" precision="FP32">
					<dim>120</dim>
					<dim>32</dim>
					<dim>1</dim>
					<dim>1</dim>
				</port>
			</output>
		</layer>
		<layer id="235" name="expanded_conv_6/squeeze_excite/Conv_1/Conv2D" type="Convolution" version="opset1">
			<data auto_pad="same_upper" dilations="1, 1" pads_begin="0, 0" pads_end="0, 0" strides="1, 1"/>
			<rt_info>
				<attribute name="fused_names" value="expanded_conv_6/squeeze_excite/Conv_1/Conv2D" version="0"/>
			</rt_info>
			<input>
				<port id="0" precision="FP32">
					<dim>1</dim>
					<dim>32</dim>
					<dim>1</dim>
					<dim>1</dim>
				</port>
				<port id="1" precision="FP32">
					<dim>120</dim>
					<dim>32</dim>
					<dim>1</dim>
					<dim>1</dim>
				</port>
			</input>
			<output>
				<port id="2" names="expanded_conv_6/squeeze_excite/Conv_1/Conv2D:0" precision="FP32">
					<dim>1</dim>
					<dim>120</dim>
					<dim>1</dim>
					<dim>1</dim>
				</port>
			</output>
		</layer>
		<layer id="236" name="expanded_conv_6/squeeze_excite/Conv_1/BiasAdd/ReadVariableOp" type="Const" version="opset1">
			<data element_type="f32" offset="611476" shape="1, 120, 1, 1" size="480"/>
			<rt_info>
				<attribute name="fused_names" value="expanded_conv_6/squeeze_excite/Conv_1/BiasAdd/ReadVariableOp" version="0"/>
			</rt_info>
			<output>
				<port id="0" names="expanded_conv_6/squeeze_excite/Conv_1/BiasAdd/ReadVariableOp:0" precision="FP32">
					<dim>1</dim>
					<dim>120</dim>
					<dim>1</dim>
					<dim>1</dim>
				</port>
			</output>
		</layer>
		<layer id="237" name="expanded_conv_6/squeeze_excite/Conv_1/BiasAdd/Add" type="Add" version="opset1">
			<data auto_broadcast="numpy"/>
			<rt_info>
				<attribute name="fused_names" value="expanded_conv_6/squeeze_excite/Conv_1/BiasAdd/Add" version="0"/>
			</rt_info>
			<input>
				<port id="0" precision="FP32">
					<dim>1</dim>
					<dim>120</dim>
					<dim>1</dim>
					<dim>1</dim>
				</port>
				<port id="1" precision="FP32">
					<dim>1</dim>
					<dim>120</dim>
					<dim>1</dim>
					<dim>1</dim>
				</port>
			</input>
			<output>
				<port id="2" names="expanded_conv_6/squeeze_excite/Conv_1/BiasAdd:0" precision="FP32">
					<dim>1</dim>
					<dim>120</dim>
					<dim>1</dim>
					<dim>1</dim>
				</port>
			</output>
		</layer>
		<layer id="238" name="activation_18/mul" type="HSigmoid" version="opset5">
			<rt_info>
				<attribute name="fused_names" value="activation_18/mul" version="0"/>
			</rt_info>
			<input>
				<port id="0" precision="FP32">
					<dim>1</dim>
					<dim>120</dim>
					<dim>1</dim>
					<dim>1</dim>
				</port>
			</input>
			<output>
				<port id="1" names="activation_18/mul:0" precision="FP32">
					<dim>1</dim>
					<dim>120</dim>
					<dim>1</dim>
					<dim>1</dim>
				</port>
			</output>
		</layer>
		<layer id="239" name="expanded_conv_6/squeeze_excite/Mul/mul" type="Multiply" version="opset1">
			<data auto_broadcast="numpy"/>
			<rt_info>
				<attribute name="fused_names" value="expanded_conv_6/squeeze_excite/Mul/mul" version="0"/>
			</rt_info>
			<input>
				<port id="0" precision="FP32">
					<dim>1</dim>
					<dim>120</dim>
					<dim>60</dim>
					<dim>60</dim>
				</port>
				<port id="1" precision="FP32">
					<dim>1</dim>
					<dim>120</dim>
					<dim>1</dim>
					<dim>1</dim>
				</port>
			</input>
			<output>
				<port id="2" names="expanded_conv_6/squeeze_excite/Mul/mul:0" precision="FP32">
					<dim>1</dim>
					<dim>120</dim>
					<dim>60</dim>
					<dim>60</dim>
				</port>
			</output>
		</layer>
		<layer id="240" name="expanded_conv_6/project/BatchNorm/batchnorm/mul_1_copy" type="Const" version="opset1">
			<data element_type="f32" offset="611956" shape="48, 120, 1, 1" size="23040"/>
			<rt_info>
				<attribute name="fused_names" value="expanded_conv_6/project/BatchNorm/batchnorm/mul_1_copy" version="0"/>
			</rt_info>
			<output>
				<port id="0" names="expanded_conv_6/project/Conv2D/ReadVariableOp:0" precision="FP32">
					<dim>48</dim>
					<dim>120</dim>
					<dim>1</dim>
					<dim>1</dim>
				</port>
			</output>
		</layer>
		<layer id="241" name="expanded_conv_6/project/Conv2D" type="Convolution" version="opset1">
			<data auto_pad="same_upper" dilations="1, 1" pads_begin="0, 0" pads_end="0, 0" strides="1, 1"/>
			<rt_info>
				<attribute name="fused_names" value="expanded_conv_6/project/Conv2D" version="0"/>
			</rt_info>
			<input>
				<port id="0" precision="FP32">
					<dim>1</dim>
					<dim>120</dim>
					<dim>60</dim>
					<dim>60</dim>
				</port>
				<port id="1" precision="FP32">
					<dim>48</dim>
					<dim>120</dim>
					<dim>1</dim>
					<dim>1</dim>
				</port>
			</input>
			<output>
				<port id="2" names="expanded_conv_6/project/BatchNorm/batchnorm/mul_1:0" precision="FP32">
					<dim>1</dim>
					<dim>48</dim>
					<dim>60</dim>
					<dim>60</dim>
				</port>
			</output>
		</layer>
		<layer id="242" name="expanded_conv_6/project/BatchNorm/batchnorm/sub" type="Const" version="opset1">
			<data element_type="f32" offset="634996" shape="1, 48, 1, 1" size="192"/>
			<rt_info>
				<attribute name="fused_names" value="expanded_conv_6/project/BatchNorm/batchnorm/sub" version="0"/>
			</rt_info>
			<output>
				<port id="0" names="expanded_conv_6/project/BatchNorm/batchnorm/sub:0" precision="FP32">
					<dim>1</dim>
					<dim>48</dim>
					<dim>1</dim>
					<dim>1</dim>
				</port>
			</output>
		</layer>
		<layer id="243" name="expanded_conv_6/project/BatchNorm/batchnorm/add_1" type="Add" version="opset1">
			<data auto_broadcast="numpy"/>
			<rt_info>
				<attribute name="fused_names" value="expanded_conv_6/project/BatchNorm/batchnorm/add_1" version="0"/>
			</rt_info>
			<input>
				<port id="0" precision="FP32">
					<dim>1</dim>
					<dim>48</dim>
					<dim>60</dim>
					<dim>60</dim>
				</port>
				<port id="1" precision="FP32">
					<dim>1</dim>
					<dim>48</dim>
					<dim>1</dim>
					<dim>1</dim>
				</port>
			</input>
			<output>
				<port id="2" names="expanded_conv_6/project/BatchNorm/batchnorm/add_1:0" precision="FP32">
					<dim>1</dim>
					<dim>48</dim>
					<dim>60</dim>
					<dim>60</dim>
				</port>
			</output>
		</layer>
		<layer id="244" name="expanded_conv_7/expand/BatchNorm/batchnorm/mul_1_copy" type="Const" version="opset1">
			<data element_type="f32" offset="635188" shape="144, 48, 1, 1" size="27648"/>
			<rt_info>
				<attribute name="fused_names" value="expanded_conv_7/expand/BatchNorm/batchnorm/mul_1_copy" version="0"/>
			</rt_info>
			<output>
				<port id="0" names="expanded_conv_7/expand/Conv2D/ReadVariableOp:0" precision="FP32">
					<dim>144</dim>
					<dim>48</dim>
					<dim>1</dim>
					<dim>1</dim>
				</port>
			</output>
		</layer>
		<layer id="245" name="expanded_conv_7/expand/Conv2D" type="Convolution" version="opset1">
			<data auto_pad="same_upper" dilations="1, 1" pads_begin="0, 0" pads_end="0, 0" strides="1, 1"/>
			<rt_info>
				<attribute name="fused_names" value="expanded_conv_7/expand/Conv2D" version="0"/>
			</rt_info>
			<input>
				<port id="0" precision="FP32">
					<dim>1</dim>
					<dim>48</dim>
					<dim>60</dim>
					<dim>60</dim>
				</port>
				<port id="1" precision="FP32">
					<dim>144</dim>
					<dim>48</dim>
					<dim>1</dim>
					<dim>1</dim>
				</port>
			</input>
			<output>
				<port id="2" names="expanded_conv_7/expand/BatchNorm/batchnorm/mul_1:0" precision="FP32">
					<dim>1</dim>
					<dim>144</dim>
					<dim>60</dim>
					<dim>60</dim>
				</port>
			</output>
		</layer>
		<layer id="246" name="expanded_conv_7/expand/BatchNorm/batchnorm/sub" type="Const" version="opset1">
			<data element_type="f32" offset="662836" shape="1, 144, 1, 1" size="576"/>
			<rt_info>
				<attribute name="fused_names" value="expanded_conv_7/expand/BatchNorm/batchnorm/sub" version="0"/>
			</rt_info>
			<output>
				<port id="0" names="expanded_conv_7/expand/BatchNorm/batchnorm/sub:0" precision="FP32">
					<dim>1</dim>
					<dim>144</dim>
					<dim>1</dim>
					<dim>1</dim>
				</port>
			</output>
		</layer>
		<layer id="247" name="expanded_conv_7/expand/BatchNorm/batchnorm/add_1" type="Add" version="opset1">
			<data auto_broadcast="numpy"/>
			<rt_info>
				<attribute name="fused_names" value="expanded_conv_7/expand/BatchNorm/batchnorm/add_1" version="0"/>
			</rt_info>
			<input>
				<port id="0" precision="FP32">
					<dim>1</dim>
					<dim>144</dim>
					<dim>60</dim>
					<dim>60</dim>
				</port>
				<port id="1" precision="FP32">
					<dim>1</dim>
					<dim>144</dim>
					<dim>1</dim>
					<dim>1</dim>
				</port>
			</input>
			<output>
				<port id="2" names="expanded_conv_7/expand/BatchNorm/batchnorm/add_1:0" precision="FP32">
					<dim>1</dim>
					<dim>144</dim>
					<dim>60</dim>
					<dim>60</dim>
				</port>
			</output>
		</layer>
		<layer id="248" name="activation_19/multiply_9/mul" type="HSwish" version="opset4">
			<rt_info>
				<attribute name="fused_names" value="activation_19/activation_9/mul, activation_19/multiply_9/mul" version="0"/>
			</rt_info>
			<input>
				<port id="0" precision="FP32">
					<dim>1</dim>
					<dim>144</dim>
					<dim>60</dim>
					<dim>60</dim>
				</port>
			</input>
			<output>
				<port id="1" names="activation_19/multiply_9/mul:0" precision="FP32">
					<dim>1</dim>
					<dim>144</dim>
					<dim>60</dim>
					<dim>60</dim>
				</port>
			</output>
		</layer>
		<layer id="249" name="expanded_conv_7/depthwise/BatchNorm/batchnorm/mul_1_copy" type="Const" version="opset1">
			<data element_type="f32" offset="663412" shape="144, 1, 1, 5, 5" size="14400"/>
			<rt_info>
				<attribute name="fused_names" value="expanded_conv_7/depthwise/BatchNorm/batchnorm/mul_1_copy" version="0"/>
			</rt_info>
			<output>
				<port id="0" names="expanded_conv_7/depthwise/Conv/depthwise/ReadVariableOp:0" precision="FP32">
					<dim>144</dim>
					<dim>1</dim>
					<dim>1</dim>
					<dim>5</dim>
					<dim>5</dim>
				</port>
			</output>
		</layer>
		<layer id="250" name="expanded_conv_7/depthwise/Conv/depthwise" type="GroupConvolution" version="opset1">
			<data auto_pad="same_upper" dilations="1, 1" pads_begin="0, 0" pads_end="0, 0" strides="1, 1"/>
			<rt_info>
				<attribute name="fused_names" value="expanded_conv_7/depthwise/Conv/depthwise" version="0"/>
			</rt_info>
			<input>
				<port id="0" precision="FP32">
					<dim>1</dim>
					<dim>144</dim>
					<dim>60</dim>
					<dim>60</dim>
				</port>
				<port id="1" precision="FP32">
					<dim>144</dim>
					<dim>1</dim>
					<dim>1</dim>
					<dim>5</dim>
					<dim>5</dim>
				</port>
			</input>
			<output>
				<port id="2" names="expanded_conv_7/depthwise/BatchNorm/batchnorm/mul_1:0" precision="FP32">
					<dim>1</dim>
					<dim>144</dim>
					<dim>60</dim>
					<dim>60</dim>
				</port>
			</output>
		</layer>
		<layer id="251" name="expanded_conv_7/depthwise/BatchNorm/batchnorm/sub" type="Const" version="opset1">
			<data element_type="f32" offset="677812" shape="1, 144, 1, 1" size="576"/>
			<rt_info>
				<attribute name="fused_names" value="expanded_conv_7/depthwise/BatchNorm/batchnorm/sub" version="0"/>
			</rt_info>
			<output>
				<port id="0" names="expanded_conv_7/depthwise/BatchNorm/batchnorm/sub:0" precision="FP32">
					<dim>1</dim>
					<dim>144</dim>
					<dim>1</dim>
					<dim>1</dim>
				</port>
			</output>
		</layer>
		<layer id="252" name="expanded_conv_7/depthwise/BatchNorm/batchnorm/add_1" type="Add" version="opset1">
			<data auto_broadcast="numpy"/>
			<rt_info>
				<attribute name="fused_names" value="expanded_conv_7/depthwise/BatchNorm/batchnorm/add_1" version="0"/>
			</rt_info>
			<input>
				<port id="0" precision="FP32">
					<dim>1</dim>
					<dim>144</dim>
					<dim>60</dim>
					<dim>60</dim>
				</port>
				<port id="1" precision="FP32">
					<dim>1</dim>
					<dim>144</dim>
					<dim>1</dim>
					<dim>1</dim>
				</port>
			</input>
			<output>
				<port id="2" names="expanded_conv_7/depthwise/BatchNorm/batchnorm/add_1:0" precision="FP32">
					<dim>1</dim>
					<dim>144</dim>
					<dim>60</dim>
					<dim>60</dim>
				</port>
			</output>
		</layer>
		<layer id="253" name="activation_20/multiply_10/mul" type="HSwish" version="opset4">
			<rt_info>
				<attribute name="fused_names" value="activation_20/activation_10/mul, activation_20/multiply_10/mul" version="0"/>
			</rt_info>
			<input>
				<port id="0" precision="FP32">
					<dim>1</dim>
					<dim>144</dim>
					<dim>60</dim>
					<dim>60</dim>
				</port>
			</input>
			<output>
				<port id="1" precision="FP32">
					<dim>1</dim>
					<dim>144</dim>
					<dim>60</dim>
					<dim>60</dim>
				</port>
			</output>
		</layer>
		<layer id="254" name="expanded_conv_7/squeeze_excite/AvgPool/MeanGather1607921682" type="Const" version="opset1">
			<data element_type="i64" offset="2464" shape="2" size="16"/>
			<rt_info>
				<attribute name="fused_names" value="expanded_conv_7/squeeze_excite/AvgPool/MeanGather1607921682" version="0"/>
			</rt_info>
			<output>
				<port id="0" precision="I64">
					<dim>2</dim>
				</port>
			</output>
		</layer>
		<layer id="255" name="expanded_conv_7/squeeze_excite/AvgPool/Mean" type="ReduceMean" version="opset1">
			<data keep_dims="false"/>
			<rt_info>
				<attribute name="fused_names" value="expanded_conv_7/squeeze_excite/AvgPool/Mean" version="0"/>
			</rt_info>
			<input>
				<port id="0" precision="FP32">
					<dim>1</dim>
					<dim>144</dim>
					<dim>60</dim>
					<dim>60</dim>
				</port>
				<port id="1" precision="I64">
					<dim>2</dim>
				</port>
			</input>
			<output>
				<port id="2" names="expanded_conv_7/squeeze_excite/AvgPool/Mean:0" precision="FP32">
					<dim>1</dim>
					<dim>144</dim>
				</port>
			</output>
		</layer>
		<layer id="256" name="reshape_5/Shape" type="ShapeOf" version="opset3">
			<data output_type="i32"/>
			<rt_info>
				<attribute name="fused_names" value="reshape_5/Shape" version="0"/>
			</rt_info>
			<input>
				<port id="0" precision="FP32">
…
		<layer id="498" name="data_add_1059510600" type="Const" version="opset1">
			<data element_type="f32" offset="4182612" shape="1, 432, 1, 1" size="1728"/>
			<rt_info>
				<attribute name="fused_names" value="data_add_1059510600" version="0"/>
			</rt_info>
			<output>
				<port id="0" precision="FP32">
					<dim>1</dim>
					<dim>432</dim>
					<dim>1</dim>
					<dim>1</dim>
				</port>
			</output>
		</layer>
		<layer id="499" name="conv_dw_pred_2_3/BiasAdd/Add/Fused_Add_" type="Add" version="opset1">
			<data auto_broadcast="numpy"/>
			<rt_info>
				<attribute name="fused_names" value="conv_dw_pred_2_3/BiasAdd/Add/Fused_Add_" version="0"/>
			</rt_info>
			<input>
				<port id="0" precision="FP32">
					<dim>1</dim>
					<dim>432</dim>
					<dim>60</dim>
					<dim>60</dim>
				</port>
				<port id="1" precision="FP32">
					<dim>1</dim>
					<dim>432</dim>
					<dim>1</dim>
					<dim>1</dim>
				</port>
			</input>
			<output>
				<port id="2" names="conv_dw_pred_2_3_bn/batchnorm/add_1:0" precision="FP32">
					<dim>1</dim>
					<dim>432</dim>
					<dim>60</dim>
					<dim>60</dim>
				</port>
			</output>
		</layer>
		<layer id="500" name="conv_dw_pred_2_3_leaky_relu/LeakyRelu/weights1553221652" type="Const" version="opset1">
			<data element_type="f32" offset="3707168" shape="1" size="4"/>
			<rt_info>
				<attribute name="fused_names" value="conv_dw_pred_2_3_leaky_relu/LeakyRelu/weights1553221652" version="0"/>
			</rt_info>
			<output>
				<port id="0" precision="FP32">
					<dim>1</dim>
				</port>
			</output>
		</layer>
		<layer id="501" name="conv_dw_pred_2_3_leaky_relu/LeakyRelu" type="PReLU" version="opset1">
			<rt_info>
				<attribute name="fused_names" value="conv_dw_pred_2_3_leaky_relu/LeakyRelu" version="0"/>
			</rt_info>
			<input>
				<port id="0" precision="FP32">
					<dim>1</dim>
					<dim>432</dim>
					<dim>60</dim>
					<dim>60</dim>
				</port>
				<port id="1" precision="FP32">
					<dim>1</dim>
				</port>
			</input>
			<output>
				<port id="2" names="conv_dw_pred_2_3_leaky_relu/LeakyRelu:0" precision="FP32">
					<dim>1</dim>
					<dim>432</dim>
					<dim>60</dim>
					<dim>60</dim>
				</port>
			</output>
		</layer>
		<layer id="502" name="predict_conv_2/Conv2D/ReadVariableOp" type="Const" version="opset1">
			<data element_type="f32" offset="4184340" shape="27, 432, 1, 1" size="46656"/>
			<rt_info>
				<attribute name="fused_names" value="predict_conv_2/Conv2D/ReadVariableOp" version="0"/>
			</rt_info>
			<output>
				<port id="0" names="predict_conv_2/Conv2D/ReadVariableOp:0" precision="FP32">
					<dim>27</dim>
					<dim>432</dim>
					<dim>1</dim>
					<dim>1</dim>
				</port>
			</output>
		</layer>
		<layer id="503" name="predict_conv_2/Conv2D" type="Convolution" version="opset1">
			<data auto_pad="same_upper" dilations="1, 1" pads_begin="0, 0" pads_end="0, 0" strides="1, 1"/>
			<rt_info>
				<attribute name="fused_names" value="predict_conv_2/Conv2D" version="0"/>
			</rt_info>
			<input>
				<port id="0" precision="FP32">
					<dim>1</dim>
					<dim>432</dim>
					<dim>60</dim>
					<dim>60</dim>
				</port>
				<port id="1" precision="FP32">
					<dim>27</dim>
					<dim>432</dim>
					<dim>1</dim>
					<dim>1</dim>
				</port>
			</input>
			<output>
				<port id="2" names="predict_conv_2/Conv2D:0" precision="FP32">
					<dim>1</dim>
					<dim>27</dim>
					<dim>60</dim>
					<dim>60</dim>
				</port>
			</output>
		</layer>
		<layer id="504" name="predict_conv_2/Conv2D/YoloRegion" type="RegionYolo" version="opset1">
			<data anchors="10, 13, 16, 30, 33, 23, 30, 61, 62, 45, 59, 119, 116, 90, 156, 198, 373, 326" axis="1" classes="4" coords="4" do_softmax="false" end_axis="3" mask="3, 4, 5" num="9"/>
			<rt_info>
				<attribute name="fused_names" value="predict_conv_2/Conv2D/YoloRegion" version="0"/>
			</rt_info>
			<input>
				<port id="0" precision="FP32">
					<dim>1</dim>
					<dim>27</dim>
					<dim>60</dim>
					<dim>60</dim>
				</port>
			</input>
			<output>
				<port id="1" names="predict_conv_2/Conv2D/YoloRegion,predict_conv_2/Conv2D/YoloRegion:0" precision="FP32">
					<dim>1</dim>
					<dim>27</dim>
					<dim>60</dim>
					<dim>60</dim>
				</port>
			</output>
		</layer>
		<layer id="506" name="conv_dw_pred_1_3_bn/batchnorm/mul_1/Fused_Mul__copy" type="Const" version="opset1">
			<data element_type="f32" offset="4230996" shape="576, 1, 1, 3, 3" size="20736"/>
			<rt_info>
				<attribute name="fused_names" value="conv_dw_pred_1_3_bn/batchnorm/mul_1/Fused_Mul__copy" version="0"/>
			</rt_info>
			<output>
				<port id="0" names="conv_dw_pred_1_3/depthwise/ReadVariableOp:0" precision="FP32">
					<dim>576</dim>
					<dim>1</dim>
					<dim>1</dim>
					<dim>3</dim>
					<dim>3</dim>
				</port>
			</output>
		</layer>
		<layer id="507" name="conv_dw_pred_1_3/depthwise" type="GroupConvolution" version="opset1">
			<data auto_pad="same_upper" dilations="1, 1" pads_begin="0, 0" pads_end="0, 0" strides="1, 1"/>
			<rt_info>
				<attribute name="fused_names" value="conv_dw_pred_1_3/depthwise" version="0"/>
			</rt_info>
			<input>
				<port id="0" precision="FP32">
					<dim>1</dim>
					<dim>576</dim>
					<dim>30</dim>
					<dim>30</dim>
				</port>
				<port id="1" precision="FP32">
					<dim>576</dim>
					<dim>1</dim>
					<dim>1</dim>
					<dim>3</dim>
					<dim>3</dim>
				</port>
			</input>
			<output>
				<port id="2" precision="FP32">
					<dim>1</dim>
					<dim>576</dim>
					<dim>30</dim>
					<dim>30</dim>
				</port>
			</output>
		</layer>
		<layer id="508" name="data_add_1057910584" type="Const" version="opset1">
			<data element_type="f32" offset="4251732" shape="1, 576, 1, 1" size="2304"/>
			<rt_info>
				<attribute name="fused_names" value="data_add_1057910584" version="0"/>
			</rt_info>
			<output>
				<port id="0" precision="FP32">
					<dim>1</dim>
					<dim>576</dim>
					<dim>1</dim>
					<dim>1</dim>
				</port>
			</output>
		</layer>
		<layer id="509" name="conv_dw_pred_1_3/BiasAdd/Add/Fused_Add_" type="Add" version="opset1">
			<data auto_broadcast="numpy"/>
			<rt_info>
				<attribute name="fused_names" value="conv_dw_pred_1_3/BiasAdd/Add/Fused_Add_" version="0"/>
			</rt_info>
			<input>
				<port id="0" precision="FP32">
					<dim>1</dim>
					<dim>576</dim>
					<dim>30</dim>
					<dim>30</dim>
				</port>
				<port id="1" precision="FP32">
					<dim>1</dim>
					<dim>576</dim>
					<dim>1</dim>
					<dim>1</dim>
				</port>
			</input>
			<output>
				<port id="2" names="conv_dw_pred_1_3_bn/batchnorm/add_1:0" precision="FP32">
					<dim>1</dim>
					<dim>576</dim>
					<dim>30</dim>
					<dim>30</dim>
				</port>
			</output>
		</layer>
		<layer id="510" name="conv_dw_pred_1_3_leaky_relu/LeakyRelu/weights1556021769" type="Const" version="opset1">
			<data element_type="f32" offset="3707168" shape="1" size="4"/>
			<rt_info>
				<attribute name="fused_names" value="conv_dw_pred_1_3_leaky_relu/LeakyRelu/weights1556021769" version="0"/>
			</rt_info>
			<output>
				<port id="0" precision="FP32">
					<dim>1</dim>
				</port>
			</output>
		</layer>
		<layer id="511" name="conv_dw_pred_1_3_leaky_relu/LeakyRelu" type="PReLU" version="opset1">
			<rt_info>
				<attribute name="fused_names" value="conv_dw_pred_1_3_leaky_relu/LeakyRelu" version="0"/>
			</rt_info>
			<input>
				<port id="0" precision="FP32">
					<dim>1</dim>
					<dim>576</dim>
					<dim>30</dim>
					<dim>30</dim>
				</port>
				<port id="1" precision="FP32">
					<dim>1</dim>
				</port>
			</input>
			<output>
				<port id="2" names="conv_dw_pred_1_3_leaky_relu/LeakyRelu:0" precision="FP32">
					<dim>1</dim>
					<dim>576</dim>
					<dim>30</dim>
					<dim>30</dim>
				</port>
			</output>
		</layer>
		<layer id="512" name="predict_conv_1/Conv2D/ReadVariableOp" type="Const" version="opset1">
			<data element_type="f32" offset="4254036" shape="27, 576, 1, 1" size="62208"/>
			<rt_info>
				<attribute name="fused_names" value="predict_conv_1/Conv2D/ReadVariableOp" version="0"/>
			</rt_info>
			<output>
				<port id="0" names="predict_conv_1/Conv2D/ReadVariableOp:0" precision="FP32">
					<dim>27</dim>
					<dim>576</dim>
					<dim>1</dim>
					<dim>1</dim>
				</port>
			</output>
		</layer>
		<layer id="513" name="predict_conv_1/Conv2D" type="Convolution" version="opset1">
			<data auto_pad="same_upper" dilations="1, 1" pads_begin="0, 0" pads_end="0, 0" strides="1, 1"/>
			<rt_info>
				<attribute name="fused_names" value="predict_conv_1/Conv2D" version="0"/>
			</rt_info>
			<input>
				<port id="0" precision="FP32">
					<dim>1</dim>
					<dim>576</dim>
					<dim>30</dim>
					<dim>30</dim>
				</port>
				<port id="1" precision="FP32">
					<dim>27</dim>
					<dim>576</dim>
					<dim>1</dim>
					<dim>1</dim>
				</port>
			</input>
			<output>
				<port id="2" names="predict_conv_1/Conv2D:0" precision="FP32">
					<dim>1</dim>
					<dim>27</dim>
					<dim>30</dim>
					<dim>30</dim>
				</port>
			</output>
		</layer>
		<layer id="514" name="predict_conv_1/Conv2D/YoloRegion" type="RegionYolo" version="opset1">
			<data anchors="10, 13, 16, 30, 33, 23, 30, 61, 62, 45, 59, 119, 116, 90, 156, 198, 373, 326" axis="1" classes="4" coords="4" do_softmax="false" end_axis="3" mask="6, 7, 8" num="9"/>
			<rt_info>
				<attribute name="fused_names" value="predict_conv_1/Conv2D/YoloRegion" version="0"/>
			</rt_info>
			<input>
				<port id="0" precision="FP32">
					<dim>1</dim>
					<dim>27</dim>
					<dim>30</dim>
					<dim>30</dim>
				</port>
			</input>
			<output>
				<port id="1" names="predict_conv_1/Conv2D/YoloRegion,predict_conv_1/Conv2D/YoloRegion:0" precision="FP32">
					<dim>1</dim>
					<dim>27</dim>
					<dim>30</dim>
					<dim>30</dim>
				</port>
			</output>
		</layer>
		<layer id="515" name="predict_conv_1/Conv2D/YoloRegion/sink_port_0" type="Result" version="opset1">
			<rt_info>
				<attribute name="fused_names" value="predict_conv_1/Conv2D/YoloRegion/sink_port_0" version="0"/>
			</rt_info>
			<input>
				<port id="0" precision="FP32">
					<dim>1</dim>
					<dim>27</dim>
					<dim>30</dim>
					<dim>30</dim>
				</port>
			</input>
		</layer>
		<layer id="505" name="predict_conv_2/Conv2D/YoloRegion/sink_port_0" type="Result" version="opset1">
			<rt_info>
				<attribute name="fused_names" value="predict_conv_2/Conv2D/YoloRegion/sink_port_0" version="0"/>
			</rt_info>
			<input>
				<port id="0" precision="FP32">
					<dim>1</dim>
					<dim>27</dim>
					<dim>60</dim>
					<dim>60</dim>
				</port>
			</input>
		</layer>
		<layer id="495" name="predict_conv_3/Conv2D/YoloRegion/sink_port_0" type="Result" version="opset1">
			<rt_info>
				<attribute name="fused_names" value="predict_conv_3/Conv2D/YoloRegion/sink_port_0" version="0"/>
			</rt_info>
			<input>
				<port id="0" precision="FP32">
					<dim>1</dim>
					<dim>27</dim>
					<dim>120</dim>
					<dim>120</dim>
				</port>
			</input>
		</layer>
	</layers>
	<edges>
		<edge from-layer="0" from-port="0" to-layer="2" to-port="0"/>
		<edge from-layer="1" from-port="0" to-layer="2" to-port="1"/>
		<edge from-layer="2" from-port="2" to-layer="4" to-port="0"/>
		<edge from-layer="3" from-port="0" to-layer="4" to-port="1"/>
		<edge from-layer="4" from-port="2" to-layer="6" to-port="0"/>
		<edge from-layer="5" from-port="0" to-layer="6" to-port="1"/>
		<edge from-layer="6" from-port="2" to-layer="7" to-port="0"/>
		<edge from-layer="7" from-port="1" to-layer="9" to-port="0"/>
		<edge from-layer="8" from-port="0" to-layer="9" to-port="1"/>
		<edge from-layer="9" from-port="2" to-layer="11" to-port="0"/>
		<edge from-layer="10" from-port="0" to-layer="11" to-port="1"/>
		<edge from-layer="11" from-port="2" to-layer="12" to-port="0"/>
		<edge from-layer="12" from-port="1" to-layer="14" to-port="0"/>
		<edge from-layer="12" from-port="1" to-layer="40" to-port="0"/>
		<edge from-layer="13" from-port="0" to-layer="14" to-port="1"/>
		<edge from-layer="14" from-port="2" to-layer="15" to-port="0"/>
		<edge from-layer="14" from-port="2" to-layer="27" to-port="0"/>
		<edge from-layer="15" from-port="1" to-layer="19" to-port="0"/>
		<edge from-layer="16" from-port="0" to-layer="19" to-port="1"/>
		<edge from-layer="17" from-port="0" to-layer="19" to-port="2"/>
		<edge from-layer="18" from-port="0" to-layer="19" to-port="3"/>
		<edge from-layer="19" from-port="4" to-layer="21" to-port="0"/>
		<edge from-layer="20" from-port="0" to-layer="21" to-port="1"/>
		<edge from-layer="21" from-port="2" to-layer="25" to-port="0"/>
		<edge from-layer="22" from-port="0" to-layer="25" to-port="1"/>
		<edge from-layer="23" from-port="0" to-layer="25" to-port="2"/>
		<edge from-layer="24" from-port="0" to-layer="25" to-port="3"/>
		<edge from-layer="25" from-port="4" to-layer="26" to-port="0"/>
		<edge from-layer="26" from-port="1" to-layer="27" to-port="1"/>
		<edge from-layer="27" from-port="2" to-layer="29" to-port="0"/>
		<edge from-layer="28" from-port="0" to-layer="29" to-port="1"/>
		<edge from-layer="29" from-port="2" to-layer="31" to-port="0"/>
		<edge from-layer="30" from-port="0" to-layer="31" to-port="1"/>
		<edge from-layer="31" from-port="2" to-layer="33" to-port="0"/>
		<edge from-layer="32" from-port="0" to-layer="33" to-port="1"/>
		<edge from-layer="33" from-port="2" to-layer="34" to-port="0"/>
		<edge from-layer="34" from-port="1" to-layer="36" to-port="0"/>
		<edge from-layer="35" from-port="0" to-layer="36" to-port="1"/>
		<edge from-layer="36" from-port="2" to-layer="38" to-port="0"/>
		<edge from-layer="37" from-port="0" to-layer="38" to-port="1"/>
		<edge from-layer="38" from-port="2" to-layer="39" to-port="0"/>
		<edge from-layer="39" from-port="1" to-layer="40" to-port="1"/>
		<edge from-layer="40" from-port="2" to-layer="42" to-port="0"/>
		<edge from-layer="41" from-port="0" to-layer="42" to-port="1"/>
		<edge from-layer="42" from-port="2" to-layer="44" to-port="0"/>
		<edge from-layer="43" from-port="0" to-layer="44" to-port="1"/>
		<edge from-layer="44" from-port="2" to-layer="46" to-port="0"/>
		<edge from-layer="45" from-port="0" to-layer="46" to-port="1"/>
		<edge from-layer="46" from-port="2" to-layer="48" to-port="0"/>
		<edge from-layer="47" from-port="0" to-layer="48" to-port="1"/>
		<edge from-layer="48" from-port="2" to-layer="49" to-port="0"/>
		<edge from-layer="49" from-port="1" to-layer="51" to-port="0"/>
		<edge from-layer="50" from-port="0" to-layer="51" to-port="1"/>
		<edge from-layer="51" from-port="2" to-layer="53" to-port="0"/>
		<edge from-layer="52" from-port="0" to-layer="53" to-port="1"/>
		<edge from-layer="53" from-port="2" to-layer="54" to-port="0"/>
		<edge from-layer="54" from-port="1" to-layer="56" to-port="0"/>
		<edge from-layer="55" from-port="0" to-layer="56" to-port="1"/>
		<edge from-layer="56" from-port="2" to-layer="58" to-port="0"/>
		<edge from-layer="57" from-port="0" to-layer="58" to-port="1"/>
		<edge from-layer="58" from-port="2" to-layer="60" to-port="0"/>
		<edge from-layer="58" from-port="2" to-layer="73" to-port="0"/>
		<edge from-layer="59" from-port="0" to-layer="60" to-port="1"/>
		<edge from-layer="60" from-port="2" to-layer="62" to-port="0"/>
		<edge from-layer="61" from-port="0" to-layer="62" to-port="1"/>
		<edge from-layer="62" from-port="2" to-layer="63" to-port="0"/>
		<edge from-layer="63" from-port="1" to-layer="65" to-port="0"/>
		<edge from-layer="64" from-port="0" to-layer="65" to-port="1"/>
		<edge from-layer="65" from-port="2" to-layer="67" to-port="0"/>
		<edge from-layer="66" from-port="0" to-layer="67" to-port="1"/>
		<edge from-layer="67" from-port="2" to-layer="68" to-port="0"/>
		<edge from-layer="68" from-port="1" to-layer="70" to-port="0"/>
		<edge from-layer="69" from-port="0" to-layer="70" to-port="1"/>
		<edge from-layer="70" from-port="2" to-layer="72" to-port="0"/>
		<edge from-layer="71" from-port="0" to-layer="72" to-port="1"/>
		<edge from-layer="72" from-port="2" to-layer="73" to-port="1"/>
		<edge from-layer="73" from-port="2" to-layer="75" to-port="0"/>
		<edge from-layer="74" from-port="0" to-layer="75" to-port="1"/>
		<edge from-layer="75" from-port="2" to-layer="77" to-port="0"/>
		<edge from-layer="76" from-port="0" to-layer="77" to-port="1"/>
		<edge from-layer="77" from-port="2" to-layer="78" to-port="0"/>
		<edge from-layer="78" from-port="1" to-layer="80" to-port="0"/>
		<edge from-layer="78" from-port="1" to-layer="462" to-port="0"/>
		<edge from-layer="78" from-port="1" to-layer="479" to-port="1"/>
		<edge from-layer="79" from-port="0" to-layer="80" to-port="1"/>
		<edge from-layer="80" from-port="2" to-layer="82" to-port="0"/>
		<edge from-layer="81" from-port="0" to-layer="82" to-port="1"/>
		<edge from-layer="82" from-port="2" to-layer="83" to-port="0"/>
		<edge from-layer="83" from-port="1" to-layer="85" to-port="0"/>
		<edge from-layer="83" from-port="1" to-layer="111" to-port="0"/>
		<edge from-layer="84" from-port="0" to-layer="85" to-port="1"/>
		<edge from-layer="85" from-port="2" to-layer="86" to-port="0"/>
		<edge from-layer="85" from-port="2" to-layer="98" to-port="0"/>
		<edge from-layer="86" from-port="1" to-layer="90" to-port="0"/>
		<edge from-layer="87" from-port="0" to-layer="90" to-port="1"/>
		<edge from-layer="88" from-port="0" to-layer="90" to-port="2"/>
		<edge from-layer="89" from-port="0" to-layer="90" to-port="3"/>
		<edge from-layer="90" from-port="4" to-layer="92" to-port="0"/>
		<edge from-layer="91" from-port="0" to-layer="92" to-port="1"/>
		<edge from-layer="92" from-port="2" to-layer="96" to-port="0"/>
		<edge from-layer="93" from-port="0" to-layer="96" to-port="1"/>
		<edge from-layer="94" from-port="0" to-layer="96" to-port="2"/>
		<edge from-layer="95" from-port="0" to-layer="96" to-port="3"/>
		<edge from-layer="96" from-port="4" to-layer="97" to-port="0"/>
		<edge from-layer="97" from-port="1" to-layer="98" to-port="1"/>
		<edge from-layer="98" from-port="2" to-layer="100" to-port="0"/>
		<edge from-layer="99" from-port="0" to-layer="100" to-port="1"/>
		<edge from-layer="100" from-port="2" to-layer="102" to-port="0"/>
		<edge from-layer="101" from-port="0" to-layer="102" to-port="1"/>
		<edge from-layer="102" from-port="2" to-layer="104" to-port="0"/>
		<edge from-layer="103" from-port="0" to-layer="104" to-port="1"/>
		<edge from-layer="104" from-port="2" to-layer="105" to-port="0"/>
		<edge from-layer="105" from-port="1" to-layer="107" to-port="0"/>
		<edge from-layer="106" from-port="0" to-layer="107" to-port="1"/>
		<edge from-layer="107" from-port="2" to-layer="109" to-port="0"/>
		<edge from-layer="108" from-port="0" to-layer="109" to-port="1"/>
		<edge from-layer="109" from-port="2" to-layer="110" to-port="0"/>
		<edge from-layer="110" from-port="1" to-layer="111" to-port="1"/>
		<edge from-layer="111" from-port="2" to-layer="113" to-port="0"/>
		<edge from-layer="112" from-port="0" to-layer="113" to-port="1"/>
		<edge from-layer="113" from-port="2" to-layer="115" to-port="0"/>
		<edge from-layer="114" from-port="0" to-layer="115" to-port="1"/>
		<edge from-layer="115" from-port="2" to-layer="158" to-port="0"/>
		<edge from-layer="115" from-port="2" to-layer="117" to-port="0"/>
		<edge from-layer="116" from-port="0" to-layer="117" to-port="1"/>
		<edge from-layer="117" from-port="2" to-layer="119" to-port="0"/>
		<edge from-layer="118" from-port="0" to-layer="119" to-port="1"/>
		<edge from-layer="119" from-port="2" to-layer="120" to-port="0"/>
		<edge from-layer="120" from-port="1" to-layer="122" to-port="0"/>
		<edge from-layer="121" from-port="0" to-layer="122" to-port="1"/>
		<edge from-layer="122" from-port="2" to-layer="124" to-port="0"/>
		<edge from-layer="123" from-port="0" to-layer="124" to-port="1"/>
		<edge from-layer="124" from-port="2" to-layer="125" to-port="0"/>
		<edge from-layer="125" from-port="1" to-layer="127" to-port="0"/>
		<edge from-layer="125" from-port="1" to-layer="153" to-port="0"/>
		<edge from-layer="126" from-port="0" to-layer="127" to-port="1"/>
		<edge from-layer="127" from-port="2" to-layer="128" to-port="0"/>
		<edge from-layer="127" from-port="2" to-layer="140" to-port="0"/>
		<edge from-layer="128" from-port="1" to-layer="132" to-port="0"/>
		<edge from-layer="129" from-port="0" to-layer="132" to-port="1"/>
		<edge from-layer="130" from-port="0" to-layer="132" to-port="2"/>
		<edge from-layer="131" from-port="0" to-layer="132" to-port="3"/>
		<edge from-layer="132" from-port="4" to-layer="134" to-port="0"/>
		<edge from-layer="133" from-port="0" to-layer="134" to-port="1"/>
		<edge from-layer="134" from-port="2" to-layer="138" to-port="0"/>
		<edge from-layer="135" from-port="0" to-layer="138" to-port="1"/>
		<edge from-layer="136" from-port="0" to-layer="138" to-port="2"/>
		<edge from-layer="137" from-port="0" to-layer="138" to-port="3"/>
		<edge from-layer="138" from-port="4" to-layer="139" to-port="0"/>
		<edge from-layer="139" from-port="1" to-layer="140" to-port="1"/>
		<edge from-layer="140" from-port="2" to-layer="142" to-port="0"/>
		<edge from-layer="141" from-port="0" to-layer="142" to-port="1"/>
		<edge from-layer="142" from-port="2" to-layer="144" to-port="0"/>
		<edge from-layer="143" from-port="0" to-layer="144" to-port="1"/>
		<edge from-layer="144" from-port="2" to-layer="146" to-port="0"/>
		<edge from-layer="145" from-port="0" to-layer="146" to-port="1"/>
		<edge from-layer="146" from-port="2" to-layer="147" to-port="0"/>
		<edge from-layer="147" from-port="1" to-layer="149" to-port="0"/>
		<edge from-layer="148" from-port="0" to-layer="149" to-port="1"/>
		<edge from-layer="149" from-port="2" to-layer="151" to-port="0"/>
		<edge from-layer="150" from-port="0" to-layer="151" to-port="1"/>
		<edge from-layer="151" from-port="2" to-layer="152" to-port="0"/>
		<edge from-layer="152" from-port="1" to-layer="153" to-port="1"/>
		<edge from-layer="153" from-port="2" to-layer="155" to-port="0"/>
		<edge from-layer="154" from-port="0" to-layer="155" to-port="1"/>
		<edge from-layer="155" from-port="2" to-layer="157" to-port="0"/>
		<edge from-layer="156" from-port="0" to-layer="157" to-port="1"/>
		<edge from-layer="157" from-port="2" to-layer="158" to-port="1"/>
		<edge from-layer="158" from-port="2" to-layer="160" to-port="0"/>
		<edge from-layer="158" from-port="2" to-layer="201" to-port="0"/>
		<edge from-layer="159" from-port="0" to-layer="160" to-port="1"/>
		<edge from-layer="160" from-port="2" to-layer="162" to-port="0"/>
		<edge from-layer="161" from-port="0" to-layer="162" to-port="1"/>
		<edge from-layer="162" from-port="2" to-layer="163" to-port="0"/>
		<edge from-layer="163" from-port="1" to-layer="165" to-port="0"/>
		<edge from-layer="164" from-port="0" to-layer="165" to-port="1"/>
		<edge from-layer="165" from-port="2" to-layer="167" to-port="0"/>
		<edge from-layer="166" from-port="0" to-layer="167" to-port="1"/>
		<edge from-layer="167" from-port="2" to-layer="168" to-port="0"/>
		<edge from-layer="168" from-port="1" to-layer="170" to-port="0"/>
		<edge from-layer="168" from-port="1" to-layer="196" to-port="0"/>
		<edge from-layer="169" from-port="0" to-layer="170" to-port="1"/>
		<edge from-layer="170" from-port="2" to-layer="171" to-port="0"/>
		<edge from-layer="170" from-port="2" to-layer="183" to-port="0"/>
		<edge from-layer="171" from-port="1" to-layer="175" to-port="0"/>
		<edge from-layer="172" from-port="0" to-layer="175" to-port="1"/>
		<edge from-layer="173" from-port="0" to-layer="175" to-port="2"/>
		<edge from-layer="174" from-port="0" to-layer="175" to-port="3"/>
		<edge from-layer="175" from-port="4" to-layer="177" to-port="0"/>
		<edge from-layer="176" from-port="0" to-layer="177" to-port="1"/>
		<edge from-layer="177" from-port="2" to-layer="181" to-port="0"/>
		<edge from-layer="178" from-port="0" to-layer="181" to-port="1"/>
		<edge from-layer="179" from-port="0" to-layer="181" to-port="2"/>
		<edge from-layer="180" from-port="0" to-layer="181" to-port="3"/>
		<edge from-layer="181" from-port="4" to-layer="182" to-port="0"/>
		<edge from-layer="182" from-port="1" to-layer="183" to-port="1"/>
		<edge from-layer="183" from-port="2" to-layer="185" to-port="0"/>
		<edge from-layer="184" from-port="0" to-layer="185" to-port="1"/>
		<edge from-layer="185" from-port="2" to-layer="187" to-port="0"/>
		<edge from-layer="186" from-port="0" to-layer="187" to-port="1"/>
		<edge from-layer="187" from-port="2" to-layer="189" to-port="0"/>
		<edge from-layer="188" from-port="0" to-layer="189" to-port="1"/>
		<edge from-layer="189" from-port="2" to-layer="190" to-port="0"/>
		<edge from-layer="190" from-port="1" to-layer="192" to-port="0"/>
		<edge from-layer="191" from-port="0" to-layer="192" to-port="1"/>
		<edge from-layer="192" from-port="2" to-layer="194" to-port="0"/>
		<edge from-layer="193" from-port="0" to-layer="194" to-port="1"/>
		<edge from-layer="194" from-port="2" to-layer="195" to-port="0"/>
		<edge from-layer="195" from-port="1" to-layer="196" to-port="1"/>
		<edge from-layer="196" from-port="2" to-layer="198" to-port="0"/>
		<edge from-layer="197" from-port="0" to-layer="198" to-port="1"/>
		<edge from-layer="198" from-port="2" to-layer="200" to-port="0"/>
		<edge from-layer="199" from-port="0" to-layer="200" to-port="1"/>
		<edge from-layer="200" from-port="2" to-layer="201" to-port="1"/>
		<edge from-layer="201" from-port="2" to-layer="203" to-port="0"/>
		<edge from-layer="202" from-port="0" to-layer="203" to-port="1"/>
		<edge from-layer="203" from-port="2" to-layer="205" to-port="0"/>
		<edge from-layer="204" from-port="0" to-layer="205" to-port="1"/>
		<edge from-layer="205" from-port="2" to-layer="206" to-port="0"/>
		<edge from-layer="206" from-port="1" to-layer="208" to-port="0"/>
		<edge from-layer="207" from-port="0" to-layer="208" to-port="1"/>
		<edge from-layer="208" from-port="2" to-layer="210" to-port="0"/>
		<edge from-layer="209" from-port="0" to-layer="210" to-port="1"/>
		<edge from-layer="210" from-port="2" to-layer="211" to-port="0"/>
		<edge from-layer="211" from-port="1" to-layer="213" to-port="0"/>
		<edge from-layer="211" from-port="1" to-layer="239" to-port="0"/>
		<edge from-layer="212" from-port="0" to-layer="213" to-port="1"/>
		<edge from-layer="213" from-port="2" to-layer="214" to-port="0"/>
		<edge from-layer="213" from-port="2" to-layer="226" to-port="0"/>
		<edge from-layer="214" from-port="1" to-layer="218" to-port="0"/>
		<edge from-layer="215" from-port="0" to-layer="218" to-port="1"/>
		<edge from-layer="216" from-port="0" to-layer="218" to-port="2"/>
		<edge from-layer="217" from-port="0" to-layer="218" to-port="3"/>
		<edge from-layer="218" from-port="4" to-layer="220" to-port="0"/>
		<edge from-layer="219" from-port="0" to-layer="220" to-port="1"/>
		<edge from-layer="220" from-port="2" to-layer="224" to-port="0"/>
		<edge from-layer="221" from-port="0" to-layer="224" to-port="1"/>
		<edge from-layer="222" from-port="0" to-layer="224" to-port="2"/>
		<edge from-layer="223" from-port="0" to-layer="224" to-port="3"/>
		<edge from-layer="224" from-port="4" to-layer="225" to-port="0"/>
		<edge from-layer="225" from-port="1" to-layer="226" to-port="1"/>
		<edge from-layer="226" from-port="2" to-layer="228" to-port="0"/>
		<edge from-layer="227" from-port="0" to-layer="228" to-port="1"/>
		<edge from-layer="228" from-port="2" to-layer="230" to-port="0"/>
		<edge from-layer="229" from-port="0" to-layer="230" to-port="1"/>
		<edge from-layer="230" from-port="2" to-layer="232" to-port="0"/>
		<edge from-layer="231" from-port="0" to-layer="232" to-port="1"/>
		<edge from-layer="232" from-port="2" to-layer="233" to-port="0"/>
		<edge from-layer="233" from-port="1" to-layer="235" to-port="0"/>
		<edge from-layer="234" from-port="0" to-layer="235" to-port="1"/>
		<edge from-layer="235" from-port="2" to-layer="237" to-port="0"/>
		<edge from-layer="236" from-port="0" to-layer="237" to-port="1"/>
		<edge from-layer="237" from-port="2" to-layer="238" to-port="0"/>
		<edge from-layer="238" from-port="1" to-layer="239" to-port="1"/>
		<edge from-layer="239" from-port="2" to-layer="241" to-port="0"/>
		<edge from-layer="240" from-port="0" to-layer="241" to-port="1"/>
		<edge from-layer="241" from-port="2" to-layer="243" to-port="0"/>
		<edge from-layer="242" from-port="0" to-layer="243" to-port="1"/>
		<edge from-layer="243" from-port="2" to-layer="245" to-port="0"/>
		<edge from-layer="243" from-port="2" to-layer="286" to-port="0"/>
		<edge from-layer="244" from-port="0" to-layer="245" to-port="1"/>
		<edge from-layer="245" from-port="2" to-layer="247" to-port="0"/>
		<edge from-layer="246" from-port="0" to-layer="247" to-port="1"/>
		<edge from-layer="247" from-port="2" to-layer="248" to-port="0"/>
		<edge from-layer="248" from-port="1" to-layer="250" to-port="0"/>
		<edge from-layer="249" from-port="0" to-layer="250" to-port="1"/>
		<edge from-layer="250" from-port="2" to-layer="252" to-port="0"/>
		<edge from-layer="251" from-port="0" to-layer="252" to-port="1"/>
		<edge from-layer="252" from-port="2" to-layer="253" to-port="0"/>
		<edge from-layer="253" from-port="1" to-layer="255" to-port="0"/>
		<edge from-layer="253" from-port="1" to-layer="281" to-port="0"/>
		<edge from-layer="254" from-port="0" to-layer="255" to-port="1"/>
		<edge from-layer="255" from-port="2" to-layer="256" to-port="0"/>
		<edge from-layer="255" from-port="2" to-layer="268" to-port="0"/>
		<edge from-layer="256" from-port="1" to-layer="260" to-port="0"/>
		<edge from-layer="257" from-port="0" to-layer="260" to-port="1"/>
		<edge from-layer="258" from-port="0" to-layer="260" to-port="2"/>
		<edge from-layer="259" from-port="0" to-layer="260" to-port="3"/>
		<edge from-layer="260" from-port="4" to-layer="262" to-port="0"/>
		<edge from-layer="261" from-port="0" to-layer="262" to-port="1"/>
		<edge from-layer="262" from-port="2" to-layer="266" to-port="0"/>
		<edge from-layer="263" from-port="0" to-layer="266" to-port="1"/>
		<edge from-layer="264" from-port="0" to-layer="266" to-port="2"/>
		<edge from-layer="265" from-port="0" to-layer="266" to-port="3"/>
		<edge from-layer="266" from-port="4" to-layer="267" to-port="0"/>
		<edge from-layer="267" from-port="1" to-layer="268" to-port="1"/>
		<edge from-layer="268" from-port="2" to-layer="270" to-port="0"/>
		<edge from-layer="269" from-port="0" to-layer="270" to-port="1"/>
		<edge from-layer="270" from-port="2" to-layer="272" to-port="0"/>
		<edge from-layer="271" from-port="0" to-layer="272" to-port="1"/>
		<edge from-layer="272" from-port="2" to-layer="274" to-port="0"/>
		<edge from-layer="273" from-port="0" to-layer="274" to-port="1"/>
		<edge from-layer="274" from-port="2" to-layer="275" to-port="0"/>
		<edge from-layer="275" from-port="1" to-layer="277" to-port="0"/>
		<edge from-layer="276" from-port="0" to-layer="277" to-port="1"/>
		<edge from-layer="277" from-port="2" to-layer="279" to-port="0"/>
		<edge from-layer="278" from-port="0" to-layer="279" to-port="1"/>
		<edge from-layer="279" from-port="2" to-layer="280" to-port="0"/>
		<edge from-layer="280" from-port="1" to-layer="281" to-port="1"/>
		<edge from-layer="281" from-port="2" to-layer="283" to-port="0"/>
		<edge from-layer="282" from-port="0" to-layer="283" to-port="1"/>
		<edge from-layer="283" from-port="2" to-layer="285" to-port="0"/>
		<edge from-layer="284" from-port="0" to-layer="285" to-port="1"/>
		<edge from-layer="285" from-port="2" to-layer="286" to-port="1"/>
		<edge from-layer="286" from-port="2" to-layer="288" to-port="0"/>
		<edge from-layer="287" from-port="0" to-layer="288" to-port="1"/>
		<edge from-layer="288" from-port="2" to-layer="290" to-port="0"/>
		<edge from-layer="289" from-port="0" to-layer="290" to-port="1"/>
		<edge from-layer="290" from-port="2" to-layer="291" to-port="0"/>
		<edge from-layer="291" from-port="1" to-layer="293" to-port="0"/>
		<edge from-layer="291" from-port="1" to-layer="449" to-port="1"/>
		<edge from-layer="291" from-port="1" to-layer="432" to-port="0"/>
		<edge from-layer="292" from-port="0" to-layer="293" to-port="1"/>
		<edge from-layer="293" from-port="2" to-layer="295" to-port="0"/>
		<edge from-layer="294" from-port="0" to-layer="295" to-port="1"/>
		<edge from-layer="295" from-port="2" to-layer="296" to-port="0"/>
		<edge from-layer="296" from-port="1" to-layer="298" to-port="0"/>
		<edge from-layer="296" from-port="1" to-layer="324" to-port="0"/>
		<edge from-layer="297" from-port="0" to-layer="298" to-port="1"/>
		<edge from-layer="298" from-port="2" to-layer="299" to-port="0"/>
		<edge from-layer="298" from-port="2" to-layer="311" to-port="0"/>
		<edge from-layer="299" from-port="1" to-layer="303" to-port="0"/>
		<edge from-layer="300" from-port="0" to-layer="303" to-port="1"/>
		<edge from-layer="301" from-port="0" to-layer="303" to-port="2"/>
		<edge from-layer="302" from-port="0" to-layer="303" to-port="3"/>
		<edge from-layer="303" from-port="4" to-layer="305" to-port="0"/>
		<edge from-layer="304" from-port="0" to-layer="305" to-port="1"/>
		<edge from-layer="305" from-port="2" to-layer="309" to-port="0"/>
		<edge from-layer="306" from-port="0" to-layer="309" to-port="1"/>
		<edge from-layer="307" from-port="0" to-layer="309" to-port="2"/>
		<edge from-layer="308" from-port="0" to-layer="309" to-port="3"/>
		<edge from-layer="309" from-port="4" to-layer="310" to-port="0"/>
		<edge from-layer="310" from-port="1" to-layer="311" to-port="1"/>
		<edge from-layer="311" from-port="2" to-layer="313" to-port="0"/>
		<edge from-layer="312" from-port="0" to-layer="313" to-port="1"/>
		<edge from-layer="313" from-port="2" to-layer="315" to-port="0"/>
		<edge from-layer="314" from-port="0" to-layer="315" to-port="1"/>
		<edge from-layer="315" from-port="2" to-layer="317" to-port="0"/>
		<edge from-layer="316" from-port="0" to-layer="317" to-port="1"/>
		<edge from-layer="317" from-port="2" to-layer="318" to-port="0"/>
		<edge from-layer="318" from-port="1" to-layer="320" to-port="0"/>
		<edge from-layer="319" from-port="0" to-layer="320" to-port="1"/>
		<edge from-layer="320" from-port="2" to-layer="322" to-port="0"/>
		<edge from-layer="321" from-port="0" to-layer="322" to-port="1"/>
		<edge from-layer="322" from-port="2" to-layer="323" to-port="0"/>
		<edge from-layer="323" from-port="1" to-layer="324" to-port="1"/>
		<edge from-layer="324" from-port="2" to-layer="326" to-port="0"/>
		<edge from-layer="325" from-port="0" to-layer="326" to-port="1"/>
		<edge from-layer="326" from-port="2" to-layer="328" to-port="0"/>
		<edge from-layer="327" from-port="0" to-layer="328" to-port="1"/>
		<edge from-layer="328" from-port="2" to-layer="330" to-port="0"/>
		<edge from-layer="328" from-port="2" to-layer="371" to-port="0"/>
		<edge from-layer="329" from-port="0" to-layer="330" to-port="1"/>
		<edge from-layer="330" from-port="2" to-layer="332" to-port="0"/>
		<edge from-layer="331" from-port="0" to-layer="332" to-port="1"/>
		<edge from-layer="332" from-port="2" to-layer="333" to-port="0"/>
		<edge from-layer="333" from-port="1" to-layer="335" to-port="0"/>
		<edge from-layer="334" from-port="0" to-layer="335" to-port="1"/>
		<edge from-layer="335" from-port="2" to-layer="337" to-port="0"/>
		<edge from-layer="336" from-port="0" to-layer="337" to-port="1"/>
		<edge from-layer="337" from-port="2" to-layer="338" to-port="0"/>
		<edge from-layer="338" from-port="1" to-layer="340" to-port="0"/>
		<edge from-layer="338" from-port="1" to-layer="366" to-port="0"/>
		<edge from-layer="339" from-port="0" to-layer="340" to-port="1"/>
		<edge from-layer="340" from-port="2" to-layer="341" to-port="0"/>
		<edge from-layer="340" from-port="2" to-layer="353" to-port="0"/>
		<edge from-layer="341" from-port="1" to-layer="345" to-port="0"/>
		<edge from-layer="342" from-port="0" to-layer="345" to-port="1"/>
		<edge from-layer="343" from-port="0" to-layer="345" to-port="2"/>
		<edge from-layer="344" from-port="0" to-layer="345" to-port="3"/>
		<edge from-layer="345" from-port="4" to-layer="347" to-port="0"/>
		<edge from-layer="346" from-port="0" to-layer="347" to-port="1"/>
		<edge from-layer="347" from-port="2" to-layer="351" to-port="0"/>
		<edge from-layer="348" from-port="0" to-layer="351" to-port="1"/>
		<edge from-layer="349" from-port="0" to-layer="351" to-port="2"/>
		<edge from-layer="350" from-port="0" to-layer="351" to-port="3"/>
		<edge from-layer="351" from-port="4" to-layer="352" to-port="0"/>
		<edge from-layer="352" from-port="1" to-layer="353" to-port="1"/>
		<edge from-layer="353" from-port="2" to-layer="355" to-port="0"/>
		<edge from-layer="354" from-port="0" to-layer="355" to-port="1"/>
		<edge from-layer="355" from-port="2" to-layer="357" to-port="0"/>
		<edge from-layer="356" from-port="0" to-layer="357" to-port="1"/>
		<edge from-layer="357" from-port="2" to-layer="359" to-port="0"/>
		<edge from-layer="358" from-port="0" to-layer="359" to-port="1"/>
		<edge from-layer="359" from-port="2" to-layer="360" to-port="0"/>
		<edge from-layer="360" from-port="1" to-layer="362" to-port="0"/>
		<edge from-layer="361" from-port="0" to-layer="362" to-port="1"/>
		<edge from-layer="362" from-port="2" to-layer="364" to-port="0"/>
		<edge from-layer="363" from-port="0" to-layer="364" to-port="1"/>
		<edge from-layer="364" from-port="2" to-layer="365" to-port="0"/>
		<edge from-layer="365" from-port="1" to-layer="366" to-port="1"/>
		<edge from-layer="366" from-port="2" to-layer="368" to-port="0"/>
		<edge from-layer="367" from-port="0" to-layer="368" to-port="1"/>
		<edge from-layer="368" from-port="2" to-layer="370" to-port="0"/>
		<edge from-layer="369" from-port="0" to-layer="370" to-port="1"/>
		<edge from-layer="370" from-port="2" to-layer="371" to-port="1"/>
		<edge from-layer="371" from-port="2" to-layer="373" to-port="0"/>
		<edge from-layer="371" from-port="2" to-layer="414" to-port="0"/>
		<edge from-layer="372" from-port="0" to-layer="373" to-port="1"/>
		<edge from-layer="373" from-port="2" to-layer="375" to-port="0"/>
		<edge from-layer="374" from-port="0" to-layer="375" to-port="1"/>
		<edge from-layer="375" from-port="2" to-layer="376" to-port="0"/>
		<edge from-layer="376" from-port="1" to-layer="378" to-port="0"/>
		<edge from-layer="377" from-port="0" to-layer="378" to-port="1"/>
		<edge from-layer="378" from-port="2" to-layer="380" to-port="0"/>
		<edge from-layer="379" from-port="0" to-layer="380" to-port="1"/>
		<edge from-layer="380" from-port="2" to-layer="381" to-port="0"/>
		<edge from-layer="381" from-port="1" to-layer="383" to-port="0"/>
		<edge from-layer="381" from-port="1" to-layer="409" to-port="0"/>
		<edge from-layer="382" from-port="0" to-layer="383" to-port="1"/>
		<edge from-layer="383" from-port="2" to-layer="384" to-port="0"/>
		<edge from-layer="383" from-port="2" to-layer="396" to-port="0"/>
		<edge from-layer="384" from-port="1" to-layer="388" to-port="0"/>
		<edge from-layer="385" from-port="0" to-layer="388" to-port="1"/>
		<edge from-layer="386" from-port="0" to-layer="388" to-port="2"/>
		<edge from-layer="387" from-port="0" to-layer="388" to-port="3"/>
		<edge from-layer="388" from-port="4" to-layer="390" to-port="0"/>
		<edge from-layer="389" from-port="0" to-layer="390" to-port="1"/>
		<edge from-layer="390" from-port="2" to-layer="394" to-port="0"/>
		<edge from-layer="391" from-port="0" to-layer="394" to-port="1"/>
		<edge from-layer="392" from-port="0" to-layer="394" to-port="2"/>
		<edge from-layer="393" from-port="0" to-layer="394" to-port="3"/>
		<edge from-layer="394" from-port="4" to-layer="395" to-port="0"/>
		<edge from-layer="395" from-port="1" to-layer="396" to-port="1"/>
		<edge from-layer="396" from-port="2" to-layer="398" to-port="0"/>
		<edge from-layer="397" from-port="0" to-layer="398" to-port="1"/>
		<edge from-layer="398" from-port="2" to-layer="400" to-port="0"/>
		<edge from-layer="399" from-port="0" to-layer="400" to-port="1"/>
		<edge from-layer="400" from-port="2" to-layer="402" to-port="0"/>
		<edge from-layer="401" from-port="0" to-layer="402" to-port="1"/>
		<edge from-layer="402" from-port="2" to-layer="403" to-port="0"/>
		<edge from-layer="403" from-port="1" to-layer="405" to-port="0"/>
		<edge from-layer="404" from-port="0" to-layer="405" to-port="1"/>
		<edge from-layer="405" from-port="2" to-layer="407" to-port="0"/>
		<edge from-layer="406" from-port="0" to-layer="407" to-port="1"/>
		<edge from-layer="407" from-port="2" to-layer="408" to-port="0"/>
		<edge from-layer="408" from-port="1" to-layer="409" to-port="1"/>
		<edge from-layer="409" from-port="2" to-layer="411" to-port="0"/>
		<edge from-layer="410" from-port="0" to-layer="411" to-port="1"/>
		<edge from-layer="411" from-port="2" to-layer="413" to-port="0"/>
		<edge from-layer="412" from-port="0" to-layer="413" to-port="1"/>
		<edge from-layer="413" from-port="2" to-layer="414" to-port="1"/>
		<edge from-layer="414" from-port="2" to-layer="416" to-port="0"/>
		<edge from-layer="415" from-port="0" to-layer="416" to-port="1"/>
		<edge from-layer="416" from-port="2" to-layer="418" to-port="0"/>
		<edge from-layer="417" from-port="0" to-layer="418" to-port="1"/>
		<edge from-layer="418" from-port="2" to-layer="419" to-port="0"/>
		<edge from-layer="419" from-port="1" to-layer="421" to-port="0"/>
		<edge from-layer="420" from-port="0" to-layer="421" to-port="1"/>
		<edge from-layer="421" from-port="2" to-layer="423" to-port="0"/>
		<edge from-layer="422" from-port="0" to-layer="423" to-port="1"/>
		<edge from-layer="423" from-port="2" to-layer="425" to-port="0"/>
		<edge from-layer="424" from-port="0" to-layer="425" to-port="1"/>
		<edge from-layer="425" from-port="2" to-layer="427" to-port="0"/>
		<edge from-layer="425" from-port="2" to-layer="507" to-port="0"/>
		<edge from-layer="426" from-port="0" to-layer="427" to-port="1"/>
		<edge from-layer="427" from-port="2" to-layer="429" to-port="0"/>
		<edge from-layer="428" from-port="0" to-layer="429" to-port="1"/>
		<edge from-layer="429" from-port="2" to-layer="431" to-port="0"/>
		<edge from-layer="430" from-port="0" to-layer="431" to-port="1"/>
		<edge from-layer="431" from-port="2" to-layer="437" to-port="0"/>
		<edge from-layer="431" from-port="2" to-layer="448" to-port="0"/>
		<edge from-layer="432" from-port="1" to-layer="435" to-port="0"/>
		<edge from-layer="433" from-port="0" to-layer="435" to-port="1"/>
		<edge from-layer="434" from-port="0" to-layer="435" to-port="2"/>
		<edge from-layer="435" from-port="3" to-layer="448" to-port="1"/>
		<edge from-layer="436" from-port="0" to-layer="446" to-port="0"/>
		<edge from-layer="437" from-port="1" to-layer="440" to-port="0"/>
		<edge from-layer="438" from-port="0" to-layer="440" to-port="1"/>
		<edge from-layer="439" from-port="0" to-layer="440" to-port="2"/>
		<edge from-layer="440" from-port="3" to-layer="444" to-port="0"/>
		<edge from-layer="441" from-port="0" to-layer="444" to-port="1"/>
		<edge from-layer="442" from-port="0" to-layer="444" to-port="2"/>
		<edge from-layer="443" from-port="0" to-layer="444" to-port="3"/>
		<edge from-layer="444" from-port="4" to-layer="445" to-port="0"/>
		<edge from-layer="445" from-port="1" to-layer="446" to-port="1"/>
		<edge from-layer="446" from-port="2" to-layer="448" to-port="2"/>
		<edge from-layer="447" from-port="0" to-layer="448" to-port="3"/>
		<edge from-layer="448" from-port="4" to-layer="449" to-port="0"/>
		<edge from-layer="449" from-port="2" to-layer="451" to-port="0"/>
		<edge from-layer="450" from-port="0" to-layer="451" to-port="1"/>
		<edge from-layer="451" from-port="2" to-layer="453" to-port="0"/>
		<edge from-layer="452" from-port="0" to-layer="453" to-port="1"/>
		<edge from-layer="453" from-port="2" to-layer="455" to-port="0"/>
		<edge from-layer="454" from-port="0" to-layer="455" to-port="1"/>
		<edge from-layer="455" from-port="2" to-layer="497" to-port="0"/>
		<edge from-layer="455" from-port="2" to-layer="457" to-port="0"/>
		<edge from-layer="456" from-port="0" to-layer="457" to-port="1"/>
		<edge from-layer="457" from-port="2" to-layer="459" to-port="0"/>
		<edge from-layer="458" from-port="0" to-layer="459" to-port="1"/>
		<edge from-layer="459" from-port="2" to-layer="461" to-port="0"/>
		<edge from-layer="460" from-port="0" to-layer="461" to-port="1"/>
		<edge from-layer="461" from-port="2" to-layer="467" to-port="0"/>
		<edge from-layer="461" from-port="2" to-layer="478" to-port="0"/>
		<edge from-layer="462" from-port="1" to-layer="465" to-port="0"/>
		<edge from-layer="463" from-port="0" to-layer="465" to-port="1"/>
		<edge from-layer="464" from-port="0" to-layer="465" to-port="2"/>
		<edge from-layer="465" from-port="3" to-layer="478" to-port="1"/>
		<edge from-layer="466" from-port="0" to-layer="476" to-port="0"/>
		<edge from-layer="467" from-port="1" to-layer="470" to-port="0"/>
		<edge from-layer="468" from-port="0" to-layer="470" to-port="1"/>
		<edge from-layer="469" from-port="0" to-layer="470" to-port="2"/>
		<edge from-layer="470" from-port="3" to-layer="474" to-port="0"/>
		<edge from-layer="471" from-port="0" to-layer="474" to-port="1"/>
		<edge from-layer="472" from-port="0" to-layer="474" to-port="2"/>
		<edge from-layer="473" from-port="0" to-layer="474" to-port="3"/>
		<edge from-layer="474" from-port="4" to-layer="475" to-port="0"/>
		<edge from-layer="475" from-port="1" to-layer="476" to-port="1"/>
		<edge from-layer="476" from-port="2" to-layer="478" to-port="2"/>
		<edge from-layer="477" from-port="0" to-layer="478" to-port="3"/>
		<edge from-layer="478" from-port="4" to-layer="479" to-port="0"/>
		<edge from-layer="479" from-port="2" to-layer="481" to-port="0"/>
		<edge from-layer="480" from-port="0" to-layer="481" to-port="1"/>
		<edge from-layer="481" from-port="2" to-layer="483" to-port="0"/>
		<edge from-layer="482" from-port="0" to-layer="483" to-port="1"/>
		<edge from-layer="483" from-port="2" to-layer="485" to-port="0"/>
		<edge from-layer="484" from-port="0" to-layer="485" to-port="1"/>
		<edge from-layer="485" from-port="2" to-layer="487" to-port="0"/>
		<edge from-layer="486" from-port="0" to-layer="487" to-port="1"/>
		<edge from-layer="487" from-port="2" to-layer="489" to-port="0"/>
		<edge from-layer="488" from-port="0" to-layer="489" to-port="1"/>
		<edge from-layer="489" from-port="2" to-layer="491" to-port="0"/>
		<edge from-layer="490" from-port="0" to-layer="491" to-port="1"/>
		<edge from-layer="491" from-port="2" to-layer="493" to-port="0"/>
		<edge from-layer="492" from-port="0" to-layer="493" to-port="1"/>
		<edge from-layer="493" from-port="2" to-layer="494" to-port="0"/>
		<edge from-layer="494" from-port="1" to-layer="495" to-port="0"/>
		<edge from-layer="496" from-port="0" to-layer="497" to-port="1"/>
		<edge from-layer="497" from-port="2" to-layer="499" to-port="0"/>
		<edge from-layer="498" from-port="0" to-layer="499" to-port="1"/>
		<edge from-layer="499" from-port="2" to-layer="501" to-port="0"/>
		<edge from-layer="500" from-port="0" to-layer="501" to-port="1"/>
		<edge from-layer="501" from-port="2" to-layer="503" to-port="0"/>
		<edge from-layer="502" from-port="0" to-layer="503" to-port="1"/>
		<edge from-layer="503" from-port="2" to-layer="504" to-port="0"/>
		<edge from-layer="504" from-port="1" to-layer="505" to-port="0"/>
		<edge from-layer="506" from-port="0" to-layer="507" to-port="1"/>
		<edge from-layer="507" from-port="2" to-layer="509" to-port="0"/>
		<edge from-layer="508" from-port="0" to-layer="509" to-port="1"/>
		<edge from-layer="509" from-port="2" to-layer="511" to-port="0"/>
		<edge from-layer="510" from-port="0" to-layer="511" to-port="1"/>
		<edge from-layer="511" from-port="2" to-layer="513" to-port="0"/>
		<edge from-layer="512" from-port="0" to-layer="513" to-port="1"/>
		<edge from-layer="513" from-port="2" to-layer="514" to-port="0"/>
		<edge from-layer="514" from-port="1" to-layer="515" to-port="0"/>
	</edges>
	<meta_data>
		<MO_version value="2022.2.0-7713-af16ea1d79a-releases/2022/2"/>
		<Runtime_version value="2022.2.0-7713-af16ea1d79a-releases/2022/2"/>
		<legacy_path value="True"/>
		<cli_parameters>
			<batch value="1"/>
			<caffe_parser_path value="DIR"/>
			<compress_fp16 value="False"/>
			<data_type value="float"/>
			<disable_nhwc_to_nchw value="False"/>
			<disable_omitting_optional value="False"/>
			<disable_resnet_optimization value="False"/>
			<disable_weights_compression value="False"/>
			<enable_concat_optimization value="False"/>
			<enable_flattening_nested_params value="False"/>
			<enable_ssd_gluoncv value="False"/>
			<extensions value="DIR"/>
			<framework value="tf"/>
			<freeze_placeholder_with_value value="{}"/>
			<input_model value="DIR\dacovadetection_20221214_145226_331380.pb"/>
			<input_model_is_text value="False"/>
			<k value="DIR\CustomLayersMapping.xml"/>
			<layout value="()"/>
			<layout_values value="{}"/>
			<legacy_mxnet_model value="False"/>
			<log_level value="ERROR"/>
			<mean_scale_values value="{}"/>
			<mean_values value="()"/>
			<model_name value="dacovadetection_20221214_145226_331380"/>
			<output_dir value="DIR"/>
			<placeholder_data_types value="{}"/>
			<progress value="False"/>
			<remove_memory value="False"/>
			<remove_output_softmax value="False"/>
			<reverse_input_channels value="False"/>
			<save_params_from_nd value="False"/>
			<scale_values value="()"/>
			<silent value="False"/>
			<source_layout value="()"/>
			<static_shape value="False"/>
			<stream_output value="False"/>
			<target_layout value="()"/>
			<transform value=""/>
			<transformations_config value="DIR\temp.json"/>
			<use_legacy_frontend value="False"/>
			<use_new_frontend value="False"/>
			<unset unset_cli_parameters="counts, disable_fusing, finegrain_fusing, input, input_checkpoint, input_meta_graph, input_proto, input_shape, input_symbol, mean_file, mean_file_offsets, nd_prefix_name, output, packed_user_shapes, placeholder_shapes, pretrained_model_name, saved_model_dir, saved_model_tags, scale, tensorboard_logdir, tensorflow_custom_layer_libraries, tensorflow_custom_operations_config_update, tensorflow_object_detection_api_pipeline_config, tensorflow_use_custom_operations_config"/>
		</cli_parameters>
	</meta_data>
</net>
