<?xml version="1.0" ?>
<net name="dacovadetection_20221129_13345_265666_infer" version="11">
	<layers>
		<layer id="0" name="image_input" type="Parameter" version="opset1">
			<data element_type="f32" shape="1,960,960,3"/>
			<rt_info>
				<attribute name="fused_names" value="image_input" version="0"/>
				<attribute name="old_api_map_order" value="0, 2, 3, 1" version="0"/>
			</rt_info>
			<output>
				<port id="0" names="image_input:0" precision="FP32">
					<dim>1</dim>
					<dim>960</dim>
					<dim>960</dim>
					<dim>3</dim>
				</port>
			</output>
		</layer>
		<layer id="1" name="image_input/Transpose([0 3 1 2])/value1360419655" type="Const" version="opset1">
			<data element_type="i64" offset="0" shape="4" size="32"/>
			<rt_info>
				<attribute name="fused_names" value="image_input/Transpose([0 3 1 2])/value1360419655" version="0"/>
			</rt_info>
			<output>
				<port id="0" precision="I64">
					<dim>4</dim>
				</port>
			</output>
		</layer>
		<layer id="2" name="image_input/Transpose([0 3 1 2])" type="Transpose" version="opset1">
			<rt_info>
				<attribute name="fused_names" value="image_input/Transpose([0 3 1 2])" version="0"/>
			</rt_info>
			<input>
				<port id="0" precision="FP32">
					<dim>1</dim>
					<dim>960</dim>
					<dim>960</dim>
					<dim>3</dim>
				</port>
				<port id="1" precision="I64">
					<dim>4</dim>
				</port>
			</input>
			<output>
				<port id="2" precision="FP32">
					<dim>1</dim>
					<dim>3</dim>
					<dim>960</dim>
					<dim>960</dim>
				</port>
			</output>
		</layer>
		<layer id="3" name="conv1_bn/batchnorm/mul_1_copy" type="Const" version="opset1">
			<data element_type="f32" offset="32" shape="32, 3, 3, 3" size="3456"/>
			<rt_info>
				<attribute name="fused_names" value="conv1_bn/batchnorm/mul_1_copy" version="0"/>
			</rt_info>
			<output>
				<port id="0" names="conv1/Conv2D/ReadVariableOp:0" precision="FP32">
					<dim>32</dim>
					<dim>3</dim>
					<dim>3</dim>
					<dim>3</dim>
				</port>
			</output>
		</layer>
		<layer id="4" name="conv1/Conv2D" type="Convolution" version="opset1">
			<data auto_pad="explicit" dilations="1, 1" pads_begin="0, 0" pads_end="1, 1" strides="2, 2"/>
			<rt_info>
				<attribute name="fused_names" value="conv1/Conv2D, conv1_pad/Pad" version="0"/>
			</rt_info>
			<input>
				<port id="0" precision="FP32">
					<dim>1</dim>
					<dim>3</dim>
					<dim>960</dim>
					<dim>960</dim>
				</port>
				<port id="1" precision="FP32">
					<dim>32</dim>
					<dim>3</dim>
					<dim>3</dim>
					<dim>3</dim>
				</port>
			</input>
			<output>
				<port id="2" names="conv1_bn/batchnorm/mul_1:0" precision="FP32">
					<dim>1</dim>
					<dim>32</dim>
					<dim>480</dim>
					<dim>480</dim>
				</port>
			</output>
		</layer>
		<layer id="5" name="conv1_bn/batchnorm/sub" type="Const" version="opset1">
			<data element_type="f32" offset="3488" shape="1, 32, 1, 1" size="128"/>
			<rt_info>
				<attribute name="fused_names" value="conv1_bn/batchnorm/sub" version="0"/>
			</rt_info>
			<output>
				<port id="0" names="conv1_bn/batchnorm/sub:0" precision="FP32">
					<dim>1</dim>
					<dim>32</dim>
					<dim>1</dim>
					<dim>1</dim>
				</port>
			</output>
		</layer>
		<layer id="6" name="conv1_bn/batchnorm/add_1" type="Add" version="opset1">
			<data auto_broadcast="numpy"/>
			<rt_info>
				<attribute name="fused_names" value="conv1_bn/batchnorm/add_1" version="0"/>
			</rt_info>
			<input>
				<port id="0" precision="FP32">
					<dim>1</dim>
					<dim>32</dim>
					<dim>480</dim>
					<dim>480</dim>
				</port>
				<port id="1" precision="FP32">
					<dim>1</dim>
					<dim>32</dim>
					<dim>1</dim>
					<dim>1</dim>
				</port>
			</input>
			<output>
				<port id="2" names="conv1_bn/batchnorm/add_1:0" precision="FP32">
					<dim>1</dim>
					<dim>32</dim>
					<dim>480</dim>
					<dim>480</dim>
				</port>
			</output>
		</layer>
		<layer id="7" name="conv1_relu/Relu6" type="Clamp" version="opset1">
			<data max="6" min="0"/>
			<rt_info>
				<attribute name="fused_names" value="conv1_relu/Relu6" version="0"/>
			</rt_info>
			<input>
				<port id="0" precision="FP32">
					<dim>1</dim>
					<dim>32</dim>
					<dim>480</dim>
					<dim>480</dim>
				</port>
			</input>
			<output>
				<port id="1" names="conv1_relu/Relu6:0" precision="FP32">
					<dim>1</dim>
					<dim>32</dim>
					<dim>480</dim>
					<dim>480</dim>
				</port>
			</output>
		</layer>
		<layer id="8" name="conv_dw_1_bn/batchnorm/mul_1_copy" type="Const" version="opset1">
			<data element_type="f32" offset="3616" shape="32, 1, 1, 3, 3" size="1152"/>
			<rt_info>
				<attribute name="fused_names" value="conv_dw_1_bn/batchnorm/mul_1_copy" version="0"/>
			</rt_info>
			<output>
				<port id="0" names="conv_dw_1/depthwise/ReadVariableOp:0" precision="FP32">
					<dim>32</dim>
					<dim>1</dim>
					<dim>1</dim>
					<dim>3</dim>
					<dim>3</dim>
				</port>
			</output>
		</layer>
		<layer id="9" name="conv_dw_1/depthwise" type="GroupConvolution" version="opset1">
			<data auto_pad="same_upper" dilations="1, 1" pads_begin="0, 0" pads_end="0, 0" strides="1, 1"/>
			<rt_info>
				<attribute name="fused_names" value="conv_dw_1/depthwise" version="0"/>
			</rt_info>
			<input>
				<port id="0" precision="FP32">
					<dim>1</dim>
					<dim>32</dim>
					<dim>480</dim>
					<dim>480</dim>
				</port>
				<port id="1" precision="FP32">
					<dim>32</dim>
					<dim>1</dim>
					<dim>1</dim>
					<dim>3</dim>
					<dim>3</dim>
				</port>
			</input>
			<output>
				<port id="2" names="conv_dw_1_bn/batchnorm/mul_1:0" precision="FP32">
					<dim>1</dim>
					<dim>32</dim>
					<dim>480</dim>
					<dim>480</dim>
				</port>
			</output>
		</layer>
		<layer id="10" name="conv_dw_1_bn/batchnorm/sub" type="Const" version="opset1">
			<data element_type="f32" offset="4768" shape="1, 32, 1, 1" size="128"/>
			<rt_info>
				<attribute name="fused_names" value="conv_dw_1_bn/batchnorm/sub" version="0"/>
			</rt_info>
			<output>
				<port id="0" names="conv_dw_1_bn/batchnorm/sub:0" precision="FP32">
					<dim>1</dim>
					<dim>32</dim>
					<dim>1</dim>
					<dim>1</dim>
				</port>
			</output>
		</layer>
		<layer id="11" name="conv_dw_1_bn/batchnorm/add_1" type="Add" version="opset1">
			<data auto_broadcast="numpy"/>
			<rt_info>
				<attribute name="fused_names" value="conv_dw_1_bn/batchnorm/add_1" version="0"/>
			</rt_info>
			<input>
				<port id="0" precision="FP32">
					<dim>1</dim>
					<dim>32</dim>
					<dim>480</dim>
					<dim>480</dim>
				</port>
				<port id="1" precision="FP32">
					<dim>1</dim>
					<dim>32</dim>
					<dim>1</dim>
					<dim>1</dim>
				</port>
			</input>
			<output>
				<port id="2" names="conv_dw_1_bn/batchnorm/add_1:0" precision="FP32">
					<dim>1</dim>
					<dim>32</dim>
					<dim>480</dim>
					<dim>480</dim>
				</port>
			</output>
		</layer>
		<layer id="12" name="conv_dw_1_relu/Relu6" type="Clamp" version="opset1">
			<data max="6" min="0"/>
			<rt_info>
				<attribute name="fused_names" value="conv_dw_1_relu/Relu6" version="0"/>
			</rt_info>
			<input>
				<port id="0" precision="FP32">
					<dim>1</dim>
					<dim>32</dim>
					<dim>480</dim>
					<dim>480</dim>
				</port>
			</input>
			<output>
				<port id="1" names="conv_dw_1_relu/Relu6:0" precision="FP32">
					<dim>1</dim>
					<dim>32</dim>
					<dim>480</dim>
					<dim>480</dim>
				</port>
			</output>
		</layer>
		<layer id="13" name="conv_pw_1_bn/batchnorm/mul_1_copy" type="Const" version="opset1">
			<data element_type="f32" offset="4896" shape="64, 32, 1, 1" size="8192"/>
			<rt_info>
				<attribute name="fused_names" value="conv_pw_1_bn/batchnorm/mul_1_copy" version="0"/>
			</rt_info>
			<output>
				<port id="0" names="conv_pw_1/Conv2D/ReadVariableOp:0" precision="FP32">
					<dim>64</dim>
					<dim>32</dim>
					<dim>1</dim>
					<dim>1</dim>
				</port>
			</output>
		</layer>
		<layer id="14" name="conv_pw_1/Conv2D" type="Convolution" version="opset1">
			<data auto_pad="same_upper" dilations="1, 1" pads_begin="0, 0" pads_end="0, 0" strides="1, 1"/>
			<rt_info>
				<attribute name="fused_names" value="conv_pw_1/Conv2D" version="0"/>
			</rt_info>
			<input>
				<port id="0" precision="FP32">
					<dim>1</dim>
					<dim>32</dim>
					<dim>480</dim>
					<dim>480</dim>
				</port>
				<port id="1" precision="FP32">
					<dim>64</dim>
					<dim>32</dim>
					<dim>1</dim>
					<dim>1</dim>
				</port>
			</input>
			<output>
				<port id="2" names="conv_pw_1_bn/batchnorm/mul_1:0" precision="FP32">
					<dim>1</dim>
					<dim>64</dim>
					<dim>480</dim>
					<dim>480</dim>
				</port>
			</output>
		</layer>
		<layer id="15" name="conv_pw_1_bn/batchnorm/sub" type="Const" version="opset1">
			<data element_type="f32" offset="13088" shape="1, 64, 1, 1" size="256"/>
			<rt_info>
				<attribute name="fused_names" value="conv_pw_1_bn/batchnorm/sub" version="0"/>
			</rt_info>
			<output>
				<port id="0" names="conv_pw_1_bn/batchnorm/sub:0" precision="FP32">
					<dim>1</dim>
					<dim>64</dim>
					<dim>1</dim>
					<dim>1</dim>
				</port>
			</output>
		</layer>
		<layer id="16" name="conv_pw_1_bn/batchnorm/add_1" type="Add" version="opset1">
			<data auto_broadcast="numpy"/>
			<rt_info>
				<attribute name="fused_names" value="conv_pw_1_bn/batchnorm/add_1" version="0"/>
			</rt_info>
			<input>
				<port id="0" precision="FP32">
					<dim>1</dim>
					<dim>64</dim>
					<dim>480</dim>
					<dim>480</dim>
				</port>
				<port id="1" precision="FP32">
					<dim>1</dim>
					<dim>64</dim>
					<dim>1</dim>
					<dim>1</dim>
				</port>
			</input>
			<output>
				<port id="2" names="conv_pw_1_bn/batchnorm/add_1:0" precision="FP32">
					<dim>1</dim>
					<dim>64</dim>
					<dim>480</dim>
					<dim>480</dim>
				</port>
			</output>
		</layer>
		<layer id="17" name="conv_pw_1_relu/Relu6" type="Clamp" version="opset1">
			<data max="6" min="0"/>
			<rt_info>
				<attribute name="fused_names" value="conv_pw_1_relu/Relu6" version="0"/>
			</rt_info>
			<input>
				<port id="0" precision="FP32">
					<dim>1</dim>
					<dim>64</dim>
					<dim>480</dim>
					<dim>480</dim>
				</port>
			</input>
			<output>
				<port id="1" names="conv_pw_1_relu/Relu6:0" precision="FP32">
					<dim>1</dim>
					<dim>64</dim>
					<dim>480</dim>
					<dim>480</dim>
				</port>
			</output>
		</layer>
		<layer id="18" name="conv_dw_2_bn/batchnorm/mul_1_copy" type="Const" version="opset1">
			<data element_type="f32" offset="13344" shape="64, 1, 1, 3, 3" size="2304"/>
			<rt_info>
				<attribute name="fused_names" value="conv_dw_2_bn/batchnorm/mul_1_copy" version="0"/>
			</rt_info>
			<output>
				<port id="0" names="conv_dw_2/depthwise/ReadVariableOp:0" precision="FP32">
					<dim>64</dim>
					<dim>1</dim>
					<dim>1</dim>
					<dim>3</dim>
					<dim>3</dim>
				</port>
			</output>
		</layer>
		<layer id="19" name="conv_dw_2/depthwise" type="GroupConvolution" version="opset1">
			<data auto_pad="explicit" dilations="1, 1" pads_begin="0, 0" pads_end="1, 1" strides="2, 2"/>
			<rt_info>
				<attribute name="fused_names" value="conv_dw_2/depthwise, conv_pad_2/Pad" version="0"/>
			</rt_info>
			<input>
				<port id="0" precision="FP32">
					<dim>1</dim>
					<dim>64</dim>
					<dim>480</dim>
					<dim>480</dim>
				</port>
				<port id="1" precision="FP32">
					<dim>64</dim>
					<dim>1</dim>
					<dim>1</dim>
					<dim>3</dim>
					<dim>3</dim>
				</port>
			</input>
			<output>
				<port id="2" names="conv_dw_2_bn/batchnorm/mul_1:0" precision="FP32">
					<dim>1</dim>
					<dim>64</dim>
					<dim>240</dim>
					<dim>240</dim>
				</port>
			</output>
		</layer>
		<layer id="20" name="conv_dw_2_bn/batchnorm/sub" type="Const" version="opset1">
			<data element_type="f32" offset="15648" shape="1, 64, 1, 1" size="256"/>
			<rt_info>
				<attribute name="fused_names" value="conv_dw_2_bn/batchnorm/sub" version="0"/>
			</rt_info>
			<output>
				<port id="0" names="conv_dw_2_bn/batchnorm/sub:0" precision="FP32">
					<dim>1</dim>
					<dim>64</dim>
					<dim>1</dim>
					<dim>1</dim>
				</port>
			</output>
		</layer>
		<layer id="21" name="conv_dw_2_bn/batchnorm/add_1" type="Add" version="opset1">
			<data auto_broadcast="numpy"/>
			<rt_info>
				<attribute name="fused_names" value="conv_dw_2_bn/batchnorm/add_1" version="0"/>
			</rt_info>
			<input>
				<port id="0" precision="FP32">
					<dim>1</dim>
					<dim>64</dim>
					<dim>240</dim>
					<dim>240</dim>
				</port>
				<port id="1" precision="FP32">
					<dim>1</dim>
					<dim>64</dim>
					<dim>1</dim>
					<dim>1</dim>
				</port>
			</input>
			<output>
				<port id="2" names="conv_dw_2_bn/batchnorm/add_1:0" precision="FP32">
					<dim>1</dim>
					<dim>64</dim>
					<dim>240</dim>
					<dim>240</dim>
				</port>
			</output>
		</layer>
		<layer id="22" name="conv_dw_2_relu/Relu6" type="Clamp" version="opset1">
			<data max="6" min="0"/>
			<rt_info>
				<attribute name="fused_names" value="conv_dw_2_relu/Relu6" version="0"/>
			</rt_info>
			<input>
				<port id="0" precision="FP32">
					<dim>1</dim>
					<dim>64</dim>
					<dim>240</dim>
					<dim>240</dim>
				</port>
			</input>
			<output>
				<port id="1" names="conv_dw_2_relu/Relu6:0" precision="FP32">
					<dim>1</dim>
					<dim>64</dim>
					<dim>240</dim>
					<dim>240</dim>
				</port>
			</output>
		</layer>
		<layer id="23" name="conv_pw_2_bn/batchnorm/mul_1_copy" type="Const" version="opset1">
			<data element_type="f32" offset="15904" shape="128, 64, 1, 1" size="32768"/>
			<rt_info>
				<attribute name="fused_names" value="conv_pw_2_bn/batchnorm/mul_1_copy" version="0"/>
			</rt_info>
			<output>
				<port id="0" names="conv_pw_2/Conv2D/ReadVariableOp:0" precision="FP32">
					<dim>128</dim>
					<dim>64</dim>
					<dim>1</dim>
					<dim>1</dim>
				</port>
			</output>
		</layer>
		<layer id="24" name="conv_pw_2/Conv2D" type="Convolution" version="opset1">
			<data auto_pad="same_upper" dilations="1, 1" pads_begin="0, 0" pads_end="0, 0" strides="1, 1"/>
			<rt_info>
				<attribute name="fused_names" value="conv_pw_2/Conv2D" version="0"/>
			</rt_info>
			<input>
				<port id="0" precision="FP32">
					<dim>1</dim>
					<dim>64</dim>
					<dim>240</dim>
					<dim>240</dim>
				</port>
				<port id="1" precision="FP32">
					<dim>128</dim>
					<dim>64</dim>
					<dim>1</dim>
					<dim>1</dim>
				</port>
			</input>
			<output>
				<port id="2" names="conv_pw_2_bn/batchnorm/mul_1:0" precision="FP32">
					<dim>1</dim>
					<dim>128</dim>
					<dim>240</dim>
					<dim>240</dim>
				</port>
			</output>
		</layer>
		<layer id="25" name="conv_pw_2_bn/batchnorm/sub" type="Const" version="opset1">
			<data element_type="f32" offset="48672" shape="1, 128, 1, 1" size="512"/>
			<rt_info>
				<attribute name="fused_names" value="conv_pw_2_bn/batchnorm/sub" version="0"/>
			</rt_info>
			<output>
				<port id="0" names="conv_pw_2_bn/batchnorm/sub:0" precision="FP32">
					<dim>1</dim>
					<dim>128</dim>
					<dim>1</dim>
					<dim>1</dim>
				</port>
			</output>
		</layer>
		<layer id="26" name="conv_pw_2_bn/batchnorm/add_1" type="Add" version="opset1">
			<data auto_broadcast="numpy"/>
			<rt_info>
				<attribute name="fused_names" value="conv_pw_2_bn/batchnorm/add_1" version="0"/>
			</rt_info>
			<input>
				<port id="0" precision="FP32">
					<dim>1</dim>
					<dim>128</dim>
					<dim>240</dim>
					<dim>240</dim>
				</port>
				<port id="1" precision="FP32">
					<dim>1</dim>
					<dim>128</dim>
					<dim>1</dim>
					<dim>1</dim>
				</port>
			</input>
			<output>
				<port id="2" names="conv_pw_2_bn/batchnorm/add_1:0" precision="FP32">
					<dim>1</dim>
					<dim>128</dim>
					<dim>240</dim>
					<dim>240</dim>
				</port>
			</output>
		</layer>
		<layer id="27" name="conv_pw_2_relu/Relu6" type="Clamp" version="opset1">
			<data max="6" min="0"/>
			<rt_info>
				<attribute name="fused_names" value="conv_pw_2_relu/Relu6" version="0"/>
			</rt_info>
			<input>
				<port id="0" precision="FP32">
					<dim>1</dim>
					<dim>128</dim>
					<dim>240</dim>
					<dim>240</dim>
				</port>
			</input>
			<output>
				<port id="1" names="conv_pw_2_relu/Relu6:0" precision="FP32">
					<dim>1</dim>
					<dim>128</dim>
					<dim>240</dim>
					<dim>240</dim>
				</port>
			</output>
		</layer>
		<layer id="28" name="conv_dw_3_bn/batchnorm/mul_1_copy" type="Const" version="opset1">
			<data element_type="f32" offset="49184" shape="128, 1, 1, 3, 3" size="4608"/>
			<rt_info>
				<attribute name="fused_names" value="conv_dw_3_bn/batchnorm/mul_1_copy" version="0"/>
			</rt_info>
			<output>
				<port id="0" names="conv_dw_3/depthwise/ReadVariableOp:0" precision="FP32">
					<dim>128</dim>
					<dim>1</dim>
					<dim>1</dim>
					<dim>3</dim>
					<dim>3</dim>
				</port>
			</output>
		</layer>
		<layer id="29" name="conv_dw_3/depthwise" type="GroupConvolution" version="opset1">
			<data auto_pad="same_upper" dilations="1, 1" pads_begin="0, 0" pads_end="0, 0" strides="1, 1"/>
			<rt_info>
				<attribute name="fused_names" value="conv_dw_3/depthwise" version="0"/>
			</rt_info>
			<input>
				<port id="0" precision="FP32">
					<dim>1</dim>
					<dim>128</dim>
					<dim>240</dim>
					<dim>240</dim>
				</port>
				<port id="1" precision="FP32">
					<dim>128</dim>
					<dim>1</dim>
					<dim>1</dim>
					<dim>3</dim>
					<dim>3</dim>
				</port>
			</input>
			<output>
				<port id="2" names="conv_dw_3_bn/batchnorm/mul_1:0" precision="FP32">
					<dim>1</dim>
					<dim>128</dim>
					<dim>240</dim>
					<dim>240</dim>
				</port>
			</output>
		</layer>
		<layer id="30" name="conv_dw_3_bn/batchnorm/sub" type="Const" version="opset1">
			<data element_type="f32" offset="53792" shape="1, 128, 1, 1" size="512"/>
			<rt_info>
				<attribute name="fused_names" value="conv_dw_3_bn/batchnorm/sub" version="0"/>
			</rt_info>
			<output>
				<port id="0" names="conv_dw_3_bn/batchnorm/sub:0" precision="FP32">
					<dim>1</dim>
					<dim>128</dim>
					<dim>1</dim>
					<dim>1</dim>
				</port>
			</output>
		</layer>
		<layer id="31" name="conv_dw_3_bn/batchnorm/add_1" type="Add" version="opset1">
			<data auto_broadcast="numpy"/>
			<rt_info>
				<attribute name="fused_names" value="conv_dw_3_bn/batchnorm/add_1" version="0"/>
			</rt_info>
			<input>
				<port id="0" precision="FP32">
					<dim>1</dim>
					<dim>128</dim>
					<dim>240</dim>
					<dim>240</dim>
				</port>
				<port id="1" precision="FP32">
					<dim>1</dim>
					<dim>128</dim>
					<dim>1</dim>
					<dim>1</dim>
				</port>
			</input>
			<output>
				<port id="2" names="conv_dw_3_bn/batchnorm/add_1:0" precision="FP32">
					<dim>1</dim>
					<dim>128</dim>
					<dim>240</dim>
					<dim>240</dim>
				</port>
			</output>
		</layer>
		<layer id="32" name="conv_dw_3_relu/Relu6" type="Clamp" version="opset1">
			<data max="6" min="0"/>
			<rt_info>
				<attribute name="fused_names" value="conv_dw_3_relu/Relu6" version="0"/>
			</rt_info>
			<input>
				<port id="0" precision="FP32">
					<dim>1</dim>
					<dim>128</dim>
					<dim>240</dim>
					<dim>240</dim>
				</port>
			</input>
			<output>
				<port id="1" names="conv_dw_3_relu/Relu6:0" precision="FP32">
					<dim>1</dim>
					<dim>128</dim>
					<dim>240</dim>
					<dim>240</dim>
				</port>
			</output>
		</layer>
		<layer id="33" name="conv_pw_3_bn/batchnorm/mul_1_copy" type="Const" version="opset1">
			<data element_type="f32" offset="54304" shape="128, 128, 1, 1" size="65536"/>
			<rt_info>
				<attribute name="fused_names" value="conv_pw_3_bn/batchnorm/mul_1_copy" version="0"/>
			</rt_info>
			<output>
				<port id="0" names="conv_pw_3/Conv2D/ReadVariableOp:0" precision="FP32">
					<dim>128</dim>
					<dim>128</dim>
					<dim>1</dim>
					<dim>1</dim>
				</port>
			</output>
		</layer>
		<layer id="34" name="conv_pw_3/Conv2D" type="Convolution" version="opset1">
			<data auto_pad="same_upper" dilations="1, 1" pads_begin="0, 0" pads_end="0, 0" strides="1, 1"/>
			<rt_info>
				<attribute name="fused_names" value="conv_pw_3/Conv2D" version="0"/>
			</rt_info>
			<input>
				<port id="0" precision="FP32">
					<dim>1</dim>
					<dim>128</dim>
					<dim>240</dim>
					<dim>240</dim>
				</port>
				<port id="1" precision="FP32">
					<dim>128</dim>
					<dim>128</dim>
					<dim>1</dim>
					<dim>1</dim>
				</port>
			</input>
			<output>
				<port id="2" names="conv_pw_3_bn/batchnorm/mul_1:0" precision="FP32">
					<dim>1</dim>
					<dim>128</dim>
					<dim>240</dim>
					<dim>240</dim>
				</port>
			</output>
		</layer>
		<layer id="35" name="conv_pw_3_bn/batchnorm/sub" type="Const" version="opset1">
			<data element_type="f32" offset="119840" shape="1, 128, 1, 1" size="512"/>
			<rt_info>
				<attribute name="fused_names" value="conv_pw_3_bn/batchnorm/sub" version="0"/>
			</rt_info>
			<output>
				<port id="0" names="conv_pw_3_bn/batchnorm/sub:0" precision="FP32">
					<dim>1</dim>
					<dim>128</dim>
					<dim>1</dim>
					<dim>1</dim>
				</port>
			</output>
		</layer>
		<layer id="36" name="conv_pw_3_bn/batchnorm/add_1" type="Add" version="opset1">
			<data auto_broadcast="numpy"/>
			<rt_info>
				<attribute name="fused_names" value="conv_pw_3_bn/batchnorm/add_1" version="0"/>
			</rt_info>
			<input>
				<port id="0" precision="FP32">
					<dim>1</dim>
					<dim>128</dim>
					<dim>240</dim>
					<dim>240</dim>
				</port>
				<port id="1" precision="FP32">
					<dim>1</dim>
					<dim>128</dim>
					<dim>1</dim>
					<dim>1</dim>
				</port>
			</input>
			<output>
				<port id="2" names="conv_pw_3_bn/batchnorm/add_1:0" precision="FP32">
					<dim>1</dim>
					<dim>128</dim>
					<dim>240</dim>
					<dim>240</dim>
				</port>
			</output>
		</layer>
		<layer id="37" name="conv_pw_3_relu/Relu6" type="Clamp" version="opset1">
			<data max="6" min="0"/>
			<rt_info>
				<attribute name="fused_names" value="conv_pw_3_relu/Relu6" version="0"/>
			</rt_info>
			<input>
				<port id="0" precision="FP32">
					<dim>1</dim>
					<dim>128</dim>
					<dim>240</dim>
					<dim>240</dim>
				</port>
			</input>
			<output>
				<port id="1" names="conv_pw_3_relu/Relu6:0" precision="FP32">
					<dim>1</dim>
					<dim>128</dim>
					<dim>240</dim>
					<dim>240</dim>
				</port>
			</output>
		</layer>
		<layer id="38" name="conv_dw_4_bn/batchnorm/mul_1_copy" type="Const" version="opset1">
			<data element_type="f32" offset="120352" shape="128, 1, 1, 3, 3" size="4608"/>
			<rt_info>
				<attribute name="fused_names" value="conv_dw_4_bn/batchnorm/mul_1_copy" version="0"/>
			</rt_info>
			<output>
				<port id="0" names="conv_dw_4/depthwise/ReadVariableOp:0" precision="FP32">
					<dim>128</dim>
					<dim>1</dim>
					<dim>1</dim>
					<dim>3</dim>
					<dim>3</dim>
				</port>
			</output>
		</layer>
		<layer id="39" name="conv_dw_4/depthwise" type="GroupConvolution" version="opset1">
			<data auto_pad="explicit" dilations="1, 1" pads_begin="0, 0" pads_end="1, 1" strides="2, 2"/>
			<rt_info>
				<attribute name="fused_names" value="conv_dw_4/depthwise, conv_pad_4/Pad" version="0"/>
			</rt_info>
			<input>
				<port id="0" precision="FP32">
					<dim>1</dim>
					<dim>128</dim>
					<dim>240</dim>
					<dim>240</dim>
				</port>
				<port id="1" precision="FP32">
					<dim>128</dim>
					<dim>1</dim>
					<dim>1</dim>
					<dim>3</dim>
					<dim>3</dim>
				</port>
			</input>
			<output>
				<port id="2" names="conv_dw_4_bn/batchnorm/mul_1:0" precision="FP32">
					<dim>1</dim>
					<dim>128</dim>
					<dim>120</dim>
					<dim>120</dim>
				</port>
			</output>
		</layer>
		<layer id="40" name="conv_dw_4_bn/batchnorm/sub" type="Const" version="opset1">
			<data element_type="f32" offset="124960" shape="1, 128, 1, 1" size="512"/>
			<rt_info>
				<attribute name="fused_names" value="conv_dw_4_bn/batchnorm/sub" version="0"/>
			</rt_info>
			<output>
				<port id="0" names="conv_dw_4_bn/batchnorm/sub:0" precision="FP32">
					<dim>1</dim>
					<dim>128</dim>
					<dim>1</dim>
					<dim>1</dim>
				</port>
			</output>
		</layer>
		<layer id="41" name="conv_dw_4_bn/batchnorm/add_1" type="Add" version="opset1">
			<data auto_broadcast="numpy"/>
			<rt_info>
				<attribute name="fused_names" value="conv_dw_4_bn/batchnorm/add_1" version="0"/>
			</rt_info>
			<input>
				<port id="0" precision="FP32">
					<dim>1</dim>
					<dim>128</dim>
					<dim>120</dim>
					<dim>120</dim>
				</port>
				<port id="1" precision="FP32">
					<dim>1</dim>
					<dim>128</dim>
					<dim>1</dim>
					<dim>1</dim>
				</port>
			</input>
			<output>
				<port id="2" names="conv_dw_4_bn/batchnorm/add_1:0" precision="FP32">
					<dim>1</dim>
					<dim>128</dim>
					<dim>120</dim>
					<dim>120</dim>
				</port>
			</output>
		</layer>
		<layer id="42" name="conv_dw_4_relu/Relu6" type="Clamp" version="opset1">
			<data max="6" min="0"/>
			<rt_info>
				<attribute name="fused_names" value="conv_dw_4_relu/Relu6" version="0"/>
			</rt_info>
			<input>
				<port id="0" precision="FP32">
					<dim>1</dim>
					<dim>128</dim>
					<dim>120</dim>
					<dim>120</dim>
				</port>
			</input>
			<output>
				<port id="1" names="conv_dw_4_relu/Relu6:0" precision="FP32">
					<dim>1</dim>
					<dim>128</dim>
					<dim>120</dim>
					<dim>120</dim>
				</port>
			</output>
		</layer>
		<layer id="43" name="conv_pw_4_bn/batchnorm/mul_1_copy" type="Const" version="opset1">
			<data element_type="f32" offset="125472" shape="256, 128, 1, 1" size="131072"/>
			<rt_info>
				<attribute name="fused_names" value="conv_pw_4_bn/batchnorm/mul_1_copy" version="0"/>
			</rt_info>
			<output>
				<port id="0" names="conv_pw_4/Conv2D/ReadVariableOp:0" precision="FP32">
					<dim>256</dim>
					<dim>128</dim>
					<dim>1</dim>
					<dim>1</dim>
				</port>
			</output>
		</layer>
		<layer id="44" name="conv_pw_4/Conv2D" type="Convolution" version="opset1">
			<data auto_pad="same_upper" dilations="1, 1" pads_begin="0, 0" pads_end="0, 0" strides="1, 1"/>
			<rt_info>
				<attribute name="fused_names" value="conv_pw_4/Conv2D" version="0"/>
			</rt_info>
			<input>
				<port id="0" precision="FP32">
					<dim>1</dim>
					<dim>128</dim>
					<dim>120</dim>
					<dim>120</dim>
				</port>
				<port id="1" precision="FP32">
					<dim>256</dim>
					<dim>128</dim>
					<dim>1</dim>
					<dim>1</dim>
				</port>
			</input>
			<output>
				<port id="2" names="conv_pw_4_bn/batchnorm/mul_1:0" precision="FP32">
					<dim>1</dim>
					<dim>256</dim>
					<dim>120</dim>
					<dim>120</dim>
				</port>
			</output>
		</layer>
		<layer id="45" name="conv_pw_4_bn/batchnorm/sub" type="Const" version="opset1">
			<data element_type="f32" offset="256544" shape="1, 256, 1, 1" size="1024"/>
			<rt_info>
				<attribute name="fused_names" value="conv_pw_4_bn/batchnorm/sub" version="0"/>
			</rt_info>
			<output>
				<port id="0" names="conv_pw_4_bn/batchnorm/sub:0" precision="FP32">
					<dim>1</dim>
					<dim>256</dim>
					<dim>1</dim>
					<dim>1</dim>
				</port>
			</output>
		</layer>
		<layer id="46" name="conv_pw_4_bn/batchnorm/add_1" type="Add" version="opset1">
			<data auto_broadcast="numpy"/>
			<rt_info>
				<attribute name="fused_names" value="conv_pw_4_bn/batchnorm/add_1" version="0"/>
			</rt_info>
			<input>
				<port id="0" precision="FP32">
					<dim>1</dim>
					<dim>256</dim>
					<dim>120</dim>
					<dim>120</dim>
				</port>
				<port id="1" precision="FP32">
					<dim>1</dim>
					<dim>256</dim>
					<dim>1</dim>
					<dim>1</dim>
				</port>
			</input>
			<output>
				<port id="2" names="conv_pw_4_bn/batchnorm/add_1:0" precision="FP32">
					<dim>1</dim>
					<dim>256</dim>
					<dim>120</dim>
					<dim>120</dim>
				</port>
			</output>
		</layer>
		<layer id="47" name="conv_pw_4_relu/Relu6" type="Clamp" version="opset1">
			<data max="6" min="0"/>
			<rt_info>
				<attribute name="fused_names" value="conv_pw_4_relu/Relu6" version="0"/>
			</rt_info>
			<input>
				<port id="0" precision="FP32">
					<dim>1</dim>
					<dim>256</dim>
					<dim>120</dim>
					<dim>120</dim>
				</port>
			</input>
			<output>
				<port id="1" names="conv_pw_4_relu/Relu6:0" precision="FP32">
					<dim>1</dim>
					<dim>256</dim>
					<dim>120</dim>
					<dim>120</dim>
				</port>
			</output>
		</layer>
		<layer id="48" name="conv_dw_5_bn/batchnorm/mul_1_copy" type="Const" version="opset1">
			<data element_type="f32" offset="257568" shape="256, 1, 1, 3, 3" size="9216"/>
			<rt_info>
				<attribute name="fused_names" value="conv_dw_5_bn/batchnorm/mul_1_copy" version="0"/>
			</rt_info>
			<output>
				<port id="0" names="conv_dw_5/depthwise/ReadVariableOp:0" precision="FP32">
					<dim>256</dim>
					<dim>1</dim>
					<dim>1</dim>
					<dim>3</dim>
					<dim>3</dim>
				</port>
			</output>
		</layer>
		<layer id="49" name="conv_dw_5/depthwise" type="GroupConvolution" version="opset1">
			<data auto_pad="same_upper" dilations="1, 1" pads_begin="0, 0" pads_end="0, 0" strides="1, 1"/>
			<rt_info>
				<attribute name="fused_names" value="conv_dw_5/depthwise" version="0"/>
			</rt_info>
			<input>
				<port id="0" precision="FP32">
					<dim>1</dim>
					<dim>256</dim>
					<dim>120</dim>
					<dim>120</dim>
				</port>
				<port id="1" precision="FP32">
					<dim>256</dim>
					<dim>1</dim>
					<dim>1</dim>
					<dim>3</dim>
					<dim>3</dim>
				</port>
			</input>
			<output>
				<port id="2" names="conv_dw_5_bn/batchnorm/mul_1:0" precision="FP32">
					<dim>1</dim>
					<dim>256</dim>
					<dim>120</dim>
					<dim>120</dim>
				</port>
			</output>
		</layer>
		<layer id="50" name="conv_dw_5_bn/batchnorm/sub" type="Const" version="opset1">
			<data element_type="f32" offset="266784" shape="1, 256, 1, 1" size="1024"/>
			<rt_info>
				<attribute name="fused_names" value="conv_dw_5_bn/batchnorm/sub" version="0"/>
			</rt_info>
			<output>
				<port id="0" names="conv_dw_5_bn/batchnorm/sub:0" precision="FP32">
					<dim>1</dim>
					<dim>256</dim>
					<dim>1</dim>
					<dim>1</dim>
				</port>
			</output>
		</layer>
		<layer id="51" name="conv_dw_5_bn/batchnorm/add_1" type="Add" version="opset1">
			<data auto_broadcast="numpy"/>
			<rt_info>
				<attribute name="fused_names" value="conv_dw_5_bn/batchnorm/add_1" version="0"/>
			</rt_info>
			<input>
				<port id="0" precision="FP32">
					<dim>1</dim>
					<dim>256</dim>
					<dim>120</dim>
					<dim>120</dim>
				</port>
				<port id="1" precision="FP32">
					<dim>1</dim>
					<dim>256</dim>
					<dim>1</dim>
					<dim>1</dim>
				</port>
			</input>
			<output>
				<port id="2" names="conv_dw_5_bn/batchnorm/add_1:0" precision="FP32">
					<dim>1</dim>
					<dim>256</dim>
					<dim>120</dim>
					<dim>120</dim>
				</port>
			</output>
		</layer>
		<layer id="52" name="conv_dw_5_relu/Relu6" type="Clamp" version="opset1">
			<data max="6" min="0"/>
			<rt_info>
				<attribute name="fused_names" value="conv_dw_5_relu/Relu6" version="0"/>
			</rt_info>
			<input>
				<port id="0" precision="FP32">
					<dim>1</dim>
					<dim>256</dim>
					<dim>120</dim>
					<dim>120</dim>
				</port>
			</input>
			<output>
				<port id="1" names="conv_dw_5_relu/Relu6:0" precision="FP32">
					<dim>1</dim>
					<dim>256</dim>
					<dim>120</dim>
					<dim>120</dim>
				</port>
			</output>
		</layer>
		<layer id="53" name="conv_pw_5_bn/batchnorm/mul_1_copy" type="Const" version="opset1">
			<data element_type="f32" offset="267808" shape="256, 256, 1, 1" size="262144"/>
			<rt_info>
				<attribute name="fused_names" value="conv_pw_5_bn/batchnorm/mul_1_copy" version="0"/>
			</rt_info>
			<output>
				<port id="0" names="conv_pw_5/Conv2D/ReadVariableOp:0" precision="FP32">
					<dim>256</dim>
					<dim>256</dim>
					<dim>1</dim>
					<dim>1</dim>
				</port>
			</output>
		</layer>
		<layer id="54" name="conv_pw_5/Conv2D" type="Convolution" version="opset1">
			<data auto_pad="same_upper" dilations="1, 1" pads_begin="0, 0" pads_end="0, 0" strides="1, 1"/>
			<rt_info>
				<attribute name="fused_names" value="conv_pw_5/Conv2D" version="0"/>
			</rt_info>
			<input>
				<port id="0" precision="FP32">
					<dim>1</dim>
					<dim>256</dim>
					<dim>120</dim>
					<dim>120</dim>
				</port>
				<port id="1" precision="FP32">
					<dim>256</dim>
					<dim>256</dim>
					<dim>1</dim>
					<dim>1</dim>
				</port>
			</input>
			<output>
				<port id="2" names="conv_pw_5_bn/batchnorm/mul_1:0" precision="FP32">
					<dim>1</dim>
					<dim>256</dim>
					<dim>120</dim>
					<dim>120</dim>
				</port>
			</output>
		</layer>
		<layer id="55" name="conv_pw_5_bn/batchnorm/sub" type="Const" version="opset1">
			<data element_type="f32" offset="529952" shape="1, 256, 1, 1" size="1024"/>
			<rt_info>
				<attribute name="fused_names" value="conv_pw_5_bn/batchnorm/sub" version="0"/>
			</rt_info>
			<output>
				<port id="0" names="conv_pw_5_bn/batchnorm/sub:0" precision="FP32">
					<dim>1</dim>
					<dim>256</dim>
					<dim>1</dim>
					<dim>1</dim>
				</port>
			</output>
		</layer>
		<layer id="56" name="conv_pw_5_bn/batchnorm/add_1" type="Add" version="opset1">
			<data auto_broadcast="numpy"/>
			<rt_info>
				<attribute name="fused_names" value="conv_pw_5_bn/batchnorm/add_1" version="0"/>
			</rt_info>
			<input>
				<port id="0" precision="FP32">
					<dim>1</dim>
					<dim>256</dim>
					<dim>120</dim>
					<dim>120</dim>
				</port>
				<port id="1" precision="FP32">
					<dim>1</dim>
					<dim>256</dim>
					<dim>1</dim>
					<dim>1</dim>
				</port>
			</input>
			<output>
				<port id="2" names="conv_pw_5_bn/batchnorm/add_1:0" precision="FP32">
					<dim>1</dim>
					<dim>256</dim>
					<dim>120</dim>
					<dim>120</dim>
				</port>
			</output>
		</layer>
		<layer id="57" name="conv_pw_5_relu/Relu6" type="Clamp" version="opset1">
			<data max="6" min="0"/>
			<rt_info>
				<attribute name="fused_names" value="conv_pw_5_relu/Relu6" version="0"/>
			</rt_info>
			<input>
				<port id="0" precision="FP32">
					<dim>1</dim>
					<dim>256</dim>
					<dim>120</dim>
					<dim>120</dim>
				</port>
			</input>
			<output>
				<port id="1" names="conv_pw_5_relu/Relu6:0" precision="FP32">
					<dim>1</dim>
					<dim>256</dim>
					<dim>120</dim>
					<dim>120</dim>
				</port>
			</output>
		</layer>
		<layer id="58" name="conv_dw_6_bn/batchnorm/mul_1_copy" type="Const" version="opset1">
			<data element_type="f32" offset="530976" shape="256, 1, 1, 3, 3" size="9216"/>
			<rt_info>
				<attribute name="fused_names" value="conv_dw_6_bn/batchnorm/mul_1_copy" version="0"/>
			</rt_info>
			<output>
				<port id="0" names="conv_dw_6/depthwise/ReadVariableOp:0" precision="FP32">
					<dim>256</dim>
					<dim>1</dim>
					<dim>1</dim>
					<dim>3</dim>
					<dim>3</dim>
				</port>
			</output>
		</layer>
		<layer id="59" name="conv_dw_6/depthwise" type="GroupConvolution" version="opset1">
			<data auto_pad="explicit" dilations="1, 1" pads_begin="0, 0" pads_end="1, 1" strides="2, 2"/>
			<rt_info>
				<attribute name="fused_names" value="conv_dw_6/depthwise, conv_pad_6/Pad" version="0"/>
			</rt_info>
			<input>
				<port id="0" precision="FP32">
					<dim>1</dim>
					<dim>256</dim>
					<dim>120</dim>
					<dim>120</dim>
				</port>
				<port id="1" precision="FP32">
					<dim>256</dim>
					<dim>1</dim>
					<dim>1</dim>
					<dim>3</dim>
					<dim>3</dim>
				</port>
			</input>
			<output>
				<port id="2" names="conv_dw_6_bn/batchnorm/mul_1:0" precision="FP32">
					<dim>1</dim>
					<dim>256</dim>
					<dim>60</dim>
					<dim>60</dim>
				</port>
			</output>
		</layer>
		<layer id="60" name="conv_dw_6_bn/batchnorm/sub" type="Const" version="opset1">
			<data element_type="f32" offset="540192" shape="1, 256, 1, 1" size="1024"/>
			<rt_info>
				<attribute name="fused_names" value="conv_dw_6_bn/batchnorm/sub" version="0"/>
			</rt_info>
			<output>
				<port id="0" names="conv_dw_6_bn/batchnorm/sub:0" precision="FP32">
					<dim>1</dim>
					<dim>256</dim>
					<dim>1</dim>
					<dim>1</dim>
				</port>
			</output>
		</layer>
		<layer id="61" name="conv_dw_6_bn/batchnorm/add_1" type="Add" version="opset1">
			<data auto_broadcast="numpy"/>
			<rt_info>
				<attribute name="fused_names" value="conv_dw_6_bn/batchnorm/add_1" version="0"/>
			</rt_info>
			<input>
				<port id="0" precision="FP32">
					<dim>1</dim>
					<dim>256</dim>
					<dim>60</dim>
					<dim>60</dim>
				</port>
				<port id="1" precision="FP32">
					<dim>1</dim>
					<dim>256</dim>
					<dim>1</dim>
					<dim>1</dim>
				</port>
			</input>
			<output>
				<port id="2" names="conv_dw_6_bn/batchnorm/add_1:0" precision="FP32">
					<dim>1</dim>
					<dim>256</dim>
					<dim>60</dim>
					<dim>60</dim>
				</port>
			</output>
		</layer>
		<layer id="62" name="conv_dw_6_relu/Relu6" type="Clamp" version="opset1">
			<data max="6" min="0"/>
			<rt_info>
				<attribute name="fused_names" value="conv_dw_6_relu/Relu6" version="0"/>
			</rt_info>
			<input>
				<port id="0" precision="FP32">
					<dim>1</dim>
					<dim>256</dim>
					<dim>60</dim>
					<dim>60</dim>
				</port>
			</input>
			<output>
				<port id="1" names="conv_dw_6_relu/Relu6:0" precision="FP32">
					<dim>1</dim>
					<dim>256</dim>
					<dim>60</dim>
					<dim>60</dim>
				</port>
			</output>
		</layer>
		<layer id="63" name="conv_pw_6_bn/batchnorm/mul_1_copy" type="Const" version="opset1">
			<data element_type="f32" offset="541216" shape="512, 256, 1, 1" size="524288"/>
			<rt_info>
				<attribute name="fused_names" value="conv_pw_6_bn/batchnorm/mul_1_copy" version="0"/>
			</rt_info>
			<output>
				<port id="0" names="conv_pw_6/Conv2D/ReadVariableOp:0" precision="FP32">
					<dim>512</dim>
					<dim>256</dim>
					<dim>1</dim>
					<dim>1</dim>
				</port>
			</output>
		</layer>
		<layer id="64" name="conv_pw_6/Conv2D" type="Convolution" version="opset1">
			<data auto_pad="same_upper" dilations="1, 1" pads_begin="0, 0" pads_end="0, 0" strides="1, 1"/>
			<rt_info>
				<attribute name="fused_names" value="conv_pw_6/Conv2D" version="0"/>
			</rt_info>
			<input>
				<port id="0" precision="FP32">
					<dim>1</dim>
					<dim>256</dim>
					<dim>60</dim>
					<dim>60</dim>
				</port>
				<port id="1" precision="FP32">
					<dim>512</dim>
					<dim>256</dim>
					<dim>1</dim>
					<dim>1</dim>
				</port>
			</input>
			<output>
				<port id="2" names="conv_pw_6_bn/batchnorm/mul_1:0" precision="FP32">
					<dim>1</dim>
					<dim>512</dim>
					<dim>60</dim>
					<dim>60</dim>
				</port>
			</output>
		</layer>
		<layer id="65" name="conv_pw_6_bn/batchnorm/sub" type="Const" version="opset1">
			<data element_type="f32" offset="1065504" shape="1, 512, 1, 1" size="2048"/>
			<rt_info>
				<attribute name="fused_names" value="conv_pw_6_bn/batchnorm/sub" version="0"/>
			</rt_info>
			<output>
				<port id="0" names="conv_pw_6_bn/batchnorm/sub:0" precision="FP32">
					<dim>1</dim>
					<dim>512</dim>
					<dim>1</dim>
					<dim>1</dim>
				</port>
			</output>
		</layer>
		<layer id="66" name="conv_pw_6_bn/batchnorm/add_1" type="Add" version="opset1">
			<data auto_broadcast="numpy"/>
			<rt_info>
				<attribute name="fused_names" value="conv_pw_6_bn/batchnorm/add_1" version="0"/>
			</rt_info>
			<input>
				<port id="0" precision="FP32">
					<dim>1</dim>
					<dim>512</dim>
					<dim>60</dim>
					<dim>60</dim>
				</port>
				<port id="1" precision="FP32">
					<dim>1</dim>
					<dim>512</dim>
					<dim>1</dim>
					<dim>1</dim>
				</port>
			</input>
			<output>
				<port id="2" names="conv_pw_6_bn/batchnorm/add_1:0" precision="FP32">
					<dim>1</dim>
					<dim>512</dim>
					<dim>60</dim>
					<dim>60</dim>
				</port>
			</output>
		</layer>
		<layer id="67" name="conv_pw_6_relu/Relu6" type="Clamp" version="opset1">
			<data max="6" min="0"/>
			<rt_info>
				<attribute name="fused_names" value="conv_pw_6_relu/Relu6" version="0"/>
			</rt_info>
			<input>
				<port id="0" precision="FP32">
					<dim>1</dim>
					<dim>512</dim>
					<dim>60</dim>
					<dim>60</dim>
				</port>
			</input>
			<output>
				<port id="1" names="conv_pw_6_relu/Relu6:0" precision="FP32">
					<dim>1</dim>
					<dim>512</dim>
					<dim>60</dim>
					<dim>60</dim>
				</port>
			</output>
		</layer>
		<layer id="68" name="conv_dw_7_bn/batchnorm/mul_1_copy" type="Const" version="opset1">
			<data element_type="f32" offset="1067552" shape="512, 1, 1, 3, 3" size="18432"/>
			<rt_info>
				<attribute name="fused_names" value="conv_dw_7_bn/batchnorm/mul_1_copy" version="0"/>
			</rt_info>
			<output>
				<port id="0" names="conv_dw_7/depthwise/ReadVariableOp:0" precision="FP32">
					<dim>512</dim>
					<dim>1</dim>
					<dim>1</dim>
					<dim>3</dim>
					<dim>3</dim>
				</port>
			</output>
		</layer>
		<layer id="69" name="conv_dw_7/depthwise" type="GroupConvolution" version="opset1">
			<data auto_pad="same_upper" dilations="1, 1" pads_begin="0, 0" pads_end="0, 0" strides="1, 1"/>
			<rt_info>
				<attribute name="fused_names" value="conv_dw_7/depthwise" version="0"/>
			</rt_info>
			<input>
				<port id="0" precision="FP32">
					<dim>1</dim>
					<dim>512</dim>
					<dim>60</dim>
					<dim>60</dim>
				</port>
				<port id="1" precision="FP32">
					<dim>512</dim>
					<dim>1</dim>
					<dim>1</dim>
					<dim>3</dim>
					<dim>3</dim>
				</port>
			</input>
			<output>
				<port id="2" names="conv_dw_7_bn/batchnorm/mul_1:0" precision="FP32">
					<dim>1</dim>
					<dim>512</dim>
					<dim>60</dim>
					<dim>60</dim>
				</port>
			</output>
		</layer>
		<layer id="70" name="conv_dw_7_bn/batchnorm/sub" type="Const" version="opset1">
			<data element_type="f32" offset="1085984" shape="1, 512, 1, 1" size="2048"/>
			<rt_info>
				<attribute name="fused_names" value="conv_dw_7_bn/batchnorm/sub" version="0"/>
			</rt_info>
			<output>
				<port id="0" names="conv_dw_7_bn/batchnorm/sub:0" precision="FP32">
					<dim>1</dim>
					<dim>512</dim>
					<dim>1</dim>
					<dim>1</dim>
				</port>
			</output>
		</layer>
		<layer id="71" name="conv_dw_7_bn/batchnorm/add_1" type="Add" version="opset1">
			<data auto_broadcast="numpy"/>
			<rt_info>
				<attribute name="fused_names" value="conv_dw_7_bn/batchnorm/add_1" version="0"/>
			</rt_info>
			<input>
				<port id="0" precision="FP32">
					<dim>1</dim>
					<dim>512</dim>
					<dim>60</dim>
					<dim>60</dim>
				</port>
				<port id="1" precision="FP32">
					<dim>1</dim>
					<dim>512</dim>
					<dim>1</dim>
					<dim>1</dim>
				</port>
			</input>
			<output>
				<port id="2" names="conv_dw_7_bn/batchnorm/add_1:0" precision="FP32">
					<dim>1</dim>
					<dim>512</dim>
					<dim>60</dim>
					<dim>60</dim>
				</port>
			</output>
		</layer>
		<layer id="72" name="conv_dw_7_relu/Relu6" type="Clamp" version="opset1">
			<data max="6" min="0"/>
			<rt_info>
				<attribute name="fused_names" value="conv_dw_7_relu/Relu6" version="0"/>
			</rt_info>
			<input>
				<port id="0" precision="FP32">
					<dim>1</dim>
					<dim>512</dim>
					<dim>60</dim>
					<dim>60</dim>
				</port>
			</input>
			<output>
				<port id="1" names="conv_dw_7_relu/Relu6:0" precision="FP32">
					<dim>1</dim>
					<dim>512</dim>
					<dim>60</dim>
					<dim>60</dim>
				</port>
			</output>
		</layer>
		<layer id="73" name="conv_pw_7_bn/batchnorm/mul_1_copy" type="Const" version="opset1">
			<data element_type="f32" offset="1088032" shape="512, 512, 1, 1" size="1048576"/>
			<rt_info>
				<attribute name="fused_names" value="conv_pw_7_bn/batchnorm/mul_1_copy" version="0"/>
			</rt_info>
			<output>
				<port id="0" names="conv_pw_7/Conv2D/ReadVariableOp:0" precision="FP32">
					<dim>512</dim>
					<dim>512</dim>
					<dim>1</dim>
					<dim>1</dim>
				</port>
			</output>
		</layer>
		<layer id="74" name="conv_pw_7/Conv2D" type="Convolution" version="opset1">
			<data auto_pad="same_upper" dilations="1, 1" pads_begin="0, 0" pads_end="0, 0" strides="1, 1"/>
			<rt_info>
				<attribute name="fused_names" value="conv_pw_7/Conv2D" version="0"/>
			</rt_info>
			<input>
				<port id="0" precision="FP32">
					<dim>1</dim>
					<dim>512</dim>
					<dim>60</dim>
					<dim>60</dim>
				</port>
				<port id="1" precision="FP32">
					<dim>512</dim>
					<dim>512</dim>
					<dim>1</dim>
					<dim>1</dim>
				</port>
			</input>
			<output>
				<port id="2" names="conv_pw_7_bn/batchnorm/mul_1:0" precision="FP32">
					<dim>1</dim>
					<dim>512</dim>
					<dim>60</dim>
					<dim>60</dim>
				</port>
			</output>
		</layer>
		<layer id="75" name="conv_pw_7_bn/batchnorm/sub" type="Const" version="opset1">
			<data element_type="f32" offset="2136608" shape="1, 512, 1, 1" size="2048"/>
			<rt_info>
				<attribute name="fused_names" value="conv_pw_7_bn/batchnorm/sub" version="0"/>
			</rt_info>
			<output>
				<port id="0" names="conv_pw_7_bn/batchnorm/sub:0" precision="FP32">
					<dim>1</dim>
					<dim>512</dim>
					<dim>1</dim>
					<dim>1</dim>
				</port>
			</output>
		</layer>
		<layer id="76" name="conv_pw_7_bn/batchnorm/add_1" type="Add" version="opset1">
			<data auto_broadcast="numpy"/>
			<rt_info>
				<attribute name="fused_names" value="conv_pw_7_bn/batchnorm/add_1" version="0"/>
			</rt_info>
			<input>
				<port id="0" precision="FP32">
					<dim>1</dim>
					<dim>512</dim>
					<dim>60</dim>
					<dim>60</dim>
				</port>
				<port id="1" precision="FP32">
					<dim>1</dim>
					<dim>512</dim>
					<dim>1</dim>
					<dim>1</dim>
				</port>
			</input>
			<output>
				<port id="2" names="conv_pw_7_bn/batchnorm/add_1:0" precision="FP32">
					<dim>1</dim>
					<dim>512</dim>
					<dim>60</dim>
					<dim>60</dim>
				</port>
			</output>
		</layer>
		<layer id="77" name="conv_pw_7_relu/Relu6" type="Clamp" version="opset1">
			<data max="6" min="0"/>
			<rt_info>
				<attribute name="fused_names" value="conv_pw_7_relu/Relu6" version="0"/>
			</rt_info>
			<input>
				<port id="0" precision="FP32">
					<dim>1</dim>
					<dim>512</dim>
					<dim>60</dim>
					<dim>60</dim>
				</port>
			</input>
			<output>
				<port id="1" names="conv_pw_7_relu/Relu6:0" precision="FP32">
					<dim>1</dim>
					<dim>512</dim>
					<dim>60</dim>
					<dim>60</dim>
				</port>
			</output>
		</layer>
		<layer id="78" name="conv_dw_8_bn/batchnorm/mul_1_copy" type="Const" version="opset1">
			<data element_type="f32" offset="2138656" shape="512, 1, 1, 3, 3" size="18432"/>
			<rt_info>
				<attribute name="fused_names" value="conv_dw_8_bn/batchnorm/mul_1_copy" version="0"/>
			</rt_info>
			<output>
				<port id="0" names="conv_dw_8/depthwise/ReadVariableOp:0" precision="FP32">
					<dim>512</dim>
					<dim>1</dim>
					<dim>1</dim>
					<dim>3</dim>
					<dim>3</dim>
				</port>
			</output>
		</layer>
		<layer id="79" name="conv_dw_8/depthwise" type="GroupConvolution" version="opset1">
			<data auto_pad="same_upper" dilations="1, 1" pads_begin="0, 0" pads_end="0, 0" strides="1, 1"/>
			<rt_info>
				<attribute name="fused_names" value="conv_dw_8/depthwise" version="0"/>
			</rt_info>
			<input>
				<port id="0" precision="FP32">
					<dim>1</dim>
					<dim>512</dim>
					<dim>60</dim>
					<dim>60</dim>
				</port>
				<port id="1" precision="FP32">
					<dim>512</dim>
					<dim>1</dim>
					<dim>1</dim>
					<dim>3</dim>
					<dim>3</dim>
				</port>
			</input>
			<output>
				<port id="2" names="conv_dw_8_bn/batchnorm/mul_1:0" precision="FP32">
					<dim>1</dim>
					<dim>512</dim>
					<dim>60</dim>
					<dim>60</dim>
				</port>
			</output>
		</layer>
		<layer id="80" name="conv_dw_8_bn/batchnorm/sub" type="Const" version="opset1">
			<data element_type="f32" offset="2157088" shape="1, 512, 1, 1" size="2048"/>
			<rt_info>
				<attribute name="fused_names" value="conv_dw_8_bn/batchnorm/sub" version="0"/>
			</rt_info>
			<output>
				<port id="0" names="conv_dw_8_bn/batchnorm/sub:0" precision="FP32">
					<dim>1</dim>
					<dim>512</dim>
					<dim>1</dim>
					<dim>1</dim>
				</port>
			</output>
		</layer>
		<layer id="81" name="conv_dw_8_bn/batchnorm/add_1" type="Add" version="opset1">
			<data auto_broadcast="numpy"/>
			<rt_info>
				<attribute name="fused_names" value="conv_dw_8_bn/batchnorm/add_1" version="0"/>
			</rt_info>
			<input>
				<port id="0" precision="FP32">
					<dim>1</dim>
					<dim>512</dim>
					<dim>60</dim>
					<dim>60</dim>
				</port>
				<port id="1" precision="FP32">
					<dim>1</dim>
					<dim>512</dim>
					<dim>1</dim>
					<dim>1</dim>
				</port>
			</input>
			<output>
				<port id="2" names="conv_dw_8_bn/batchnorm/add_1:0" precision="FP32">
					<dim>1</dim>
					<dim>512</dim>
					<dim>60</dim>
					<dim>60</dim>
				</port>
			</output>
		</layer>
		<layer id="82" name="conv_dw_8_relu/Relu6" type="Clamp" version="opset1">
			<data max="6" min="0"/>
			<rt_info>
				<attribute name="fused_names" value="conv_dw_8_relu/Relu6" version="0"/>
			</rt_info>
			<input>
				<port id="0" precision="FP32">
					<dim>1</dim>
					<dim>512</dim>
					<dim>60</dim>
					<dim>60</dim>
				</port>
			</input>
			<output>
				<port id="1" names="conv_dw_8_relu/Relu6:0" precision="FP32">
					<dim>1</dim>
					<dim>512</dim>
					<dim>60</dim>
					<dim>60</dim>
				</port>
			</output>
		</layer>
		<layer id="83" name="conv_pw_8_bn/batchnorm/mul_1_copy" type="Const" version="opset1">
			<data element_type="f32" offset="2159136" shape="512, 512, 1, 1" size="1048576"/>
			<rt_info>
				<attribute name="fused_names" value="conv_pw_8_bn/batchnorm/mul_1_copy" version="0"/>
			</rt_info>
			<output>
				<port id="0" names="conv_pw_8/Conv2D/ReadVariableOp:0" precision="FP32">
					<dim>512</dim>
					<dim>512</dim>
					<dim>1</dim>
					<dim>1</dim>
				</port>
			</output>
		</layer>
		<layer id="84" name="conv_pw_8/Conv2D" type="Convolution" version="opset1">
			<data auto_pad="same_upper" dilations="1, 1" pads_begin="0, 0" pads_end="0, 0" strides="1, 1"/>
			<rt_info>
				<attribute name="fused_names" value="conv_pw_8/Conv2D" version="0"/>
			</rt_info>
			<input>
				<port id="0" precision="FP32">
					<dim>1</dim>
					<dim>512</dim>
					<dim>60</dim>
					<dim>60</dim>
				</port>
				<port id="1" precision="FP32">
					<dim>512</dim>
					<dim>512</dim>
					<dim>1</dim>
					<dim>1</dim>
				</port>
			</input>
			<output>
				<port id="2" names="conv_pw_8_bn/batchnorm/mul_1:0" precision="FP32">
					<dim>1</dim>
					<dim>512</dim>
					<dim>60</dim>
					<dim>60</dim>
				</port>
			</output>
		</layer>
		<layer id="85" name="conv_pw_8_bn/batchnorm/sub" type="Const" version="opset1">
			<data element_type="f32" offset="3207712" shape="1, 512, 1, 1" size="2048"/>
			<rt_info>
				<attribute name="fused_names" value="conv_pw_8_bn/batchnorm/sub" version="0"/>
			</rt_info>
			<output>
				<port id="0" names="conv_pw_8_bn/batchnorm/sub:0" precision="FP32">
					<dim>1</dim>
					<dim>512</dim>
					<dim>1</dim>
					<dim>1</dim>
				</port>
			</output>
		</layer>
		<layer id="86" name="conv_pw_8_bn/batchnorm/add_1" type="Add" version="opset1">
			<data auto_broadcast="numpy"/>
			<rt_info>
				<attribute name="fused_names" value="conv_pw_8_bn/batchnorm/add_1" version="0"/>
			</rt_info>
			<input>
				<port id="0" precision="FP32">
					<dim>1</dim>
					<dim>512</dim>
					<dim>60</dim>
					<dim>60</dim>
				</port>
				<port id="1" precision="FP32">
					<dim>1</dim>
					<dim>512</dim>
					<dim>1</dim>
					<dim>1</dim>
				</port>
			</input>
			<output>
				<port id="2" names="conv_pw_8_bn/batchnorm/add_1:0" precision="FP32">
					<dim>1</dim>
					<dim>512</dim>
					<dim>60</dim>
					<dim>60</dim>
				</port>
			</output>
		</layer>
		<layer id="87" name="conv_pw_8_relu/Relu6" type="Clamp" version="opset1">
			<data max="6" min="0"/>
			<rt_info>
				<attribute name="fused_names" value="conv_pw_8_relu/Relu6" version="0"/>
			</rt_info>
			<input>
				<port id="0" precision="FP32">
					<dim>1</dim>
					<dim>512</dim>
					<dim>60</dim>
					<dim>60</dim>
				</port>
			</input>
			<output>
				<port id="1" names="conv_pw_8_relu/Relu6:0" precision="FP32">
					<dim>1</dim>
					<dim>512</dim>
					<dim>60</dim>
					<dim>60</dim>
				</port>
			</output>
		</layer>
		<layer id="88" name="conv_dw_9_bn/batchnorm/mul_1_copy" type="Const" version="opset1">
			<data element_type="f32" offset="3209760" shape="512, 1, 1, 3, 3" size="18432"/>
			<rt_info>
				<attribute name="fused_names" value="conv_dw_9_bn/batchnorm/mul_1_copy" version="0"/>
			</rt_info>
			<output>
				<port id="0" names="conv_dw_9/depthwise/ReadVariableOp:0" precision="FP32">
					<dim>512</dim>
					<dim>1</dim>
					<dim>1</dim>
					<dim>3</dim>
					<dim>3</dim>
				</port>
			</output>
		</layer>
		<layer id="89" name="conv_dw_9/depthwise" type="GroupConvolution" version="opset1">
			<data auto_pad="same_upper" dilations="1, 1" pads_begin="0, 0" pads_end="0, 0" strides="1, 1"/>
			<rt_info>
				<attribute name="fused_names" value="conv_dw_9/depthwise" version="0"/>
			</rt_info>
			<input>
				<port id="0" precision="FP32">
					<dim>1</dim>
					<dim>512</dim>
					<dim>60</dim>
					<dim>60</dim>
				</port>
				<port id="1" precision="FP32">
					<dim>512</dim>
					<dim>1</dim>
					<dim>1</dim>
					<dim>3</dim>
					<dim>3</dim>
				</port>
			</input>
			<output>
				<port id="2" names="conv_dw_9_bn/batchnorm/mul_1:0" precision="FP32">
					<dim>1</dim>
					<dim>512</dim>
					<dim>60</dim>
					<dim>60</dim>
				</port>
			</output>
		</layer>
		<layer id="90" name="conv_dw_9_bn/batchnorm/sub" type="Const" version="opset1">
			<data element_type="f32" offset="3228192" shape="1, 512, 1, 1" size="2048"/>
			<rt_info>
				<attribute name="fused_names" value="conv_dw_9_bn/batchnorm/sub" version="0"/>
			</rt_info>
			<output>
				<port id="0" names="conv_dw_9_bn/batchnorm/sub:0" precision="FP32">
					<dim>1</dim>
					<dim>512</dim>
					<dim>1</dim>
					<dim>1</dim>
				</port>
			</output>
		</layer>
		<layer id="91" name="conv_dw_9_bn/batchnorm/add_1" type="Add" version="opset1">
			<data auto_broadcast="numpy"/>
			<rt_info>
				<attribute name="fused_names" value="conv_dw_9_bn/batchnorm/add_1" version="0"/>
			</rt_info>
			<input>
				<port id="0" precision="FP32">
					<dim>1</dim>
					<dim>512</dim>
					<dim>60</dim>
					<dim>60</dim>
				</port>
				<port id="1" precision="FP32">
					<dim>1</dim>
					<dim>512</dim>
					<dim>1</dim>
					<dim>1</dim>
				</port>
			</input>
			<output>
				<port id="2" names="conv_dw_9_bn/batchnorm/add_1:0" precision="FP32">
					<dim>1</dim>
					<dim>512</dim>
					<dim>60</dim>
					<dim>60</dim>
				</port>
			</output>
		</layer>
		<layer id="92" name="conv_dw_9_relu/Relu6" type="Clamp" version="opset1">
			<data max="6" min="0"/>
			<rt_info>
				<attribute name="fused_names" value="conv_dw_9_relu/Relu6" version="0"/>
			</rt_info>
			<input>
				<port id="0" precision="FP32">
					<dim>1</dim>
					<dim>512</dim>
					<dim>60</dim>
					<dim>60</dim>
				</port>
			</input>
			<output>
				<port id="1" names="conv_dw_9_relu/Relu6:0" precision="FP32">
					<dim>1</dim>
					<dim>512</dim>
					<dim>60</dim>
					<dim>60</dim>
				</port>
			</output>
		</layer>
		<layer id="93" name="conv_pw_9_bn/batchnorm/mul_1_copy" type="Const" version="opset1">
			<data element_type="f32" offset="3230240" shape="512, 512, 1, 1" size="1048576"/>
			<rt_info>
				<attribute name="fused_names" value="conv_pw_9_bn/batchnorm/mul_1_copy" version="0"/>
			</rt_info>
			<output>
				<port id="0" names="conv_pw_9/Conv2D/ReadVariableOp:0" precision="FP32">
					<dim>512</dim>
					<dim>512</dim>
					<dim>1</dim>
					<dim>1</dim>
				</port>
			</output>
		</layer>
		<layer id="94" name="conv_pw_9/Conv2D" type="Convolution" version="opset1">
			<data auto_pad="same_upper" dilations="1, 1" pads_begin="0, 0" pads_end="0, 0" strides="1, 1"/>
			<rt_info>
				<attribute name="fused_names" value="conv_pw_9/Conv2D" version="0"/>
			</rt_info>
			<input>
				<port id="0" precision="FP32">
					<dim>1</dim>
					<dim>512</dim>
					<dim>60</dim>
					<dim>60</dim>
				</port>
				<port id="1" precision="FP32">
					<dim>512</dim>
					<dim>512</dim>
					<dim>1</dim>
					<dim>1</dim>
				</port>
			</input>
			<output>
				<port id="2" names="conv_pw_9_bn/batchnorm/mul_1:0" precision="FP32">
					<dim>1</dim>
					<dim>512</dim>
					<dim>60</dim>
					<dim>60</dim>
				</port>
			</output>
		</layer>
		<layer id="95" name="conv_pw_9_bn/batchnorm/sub" type="Const" version="opset1">
			<data element_type="f32" offset="4278816" shape="1, 512, 1, 1" size="2048"/>
			<rt_info>
				<attribute name="fused_names" value="conv_pw_9_bn/batchnorm/sub" version="0"/>
			</rt_info>
			<output>
				<port id="0" names="conv_pw_9_bn/batchnorm/sub:0" precision="FP32">
					<dim>1</dim>
					<dim>512</dim>
					<dim>1</dim>
					<dim>1</dim>
				</port>
			</output>
		</layer>
		<layer id="96" name="conv_pw_9_bn/batchnorm/add_1" type="Add" version="opset1">
			<data auto_broadcast="numpy"/>
			<rt_info>
				<attribute name="fused_names" value="conv_pw_9_bn/batchnorm/add_1" version="0"/>
			</rt_info>
			<input>
				<port id="0" precision="FP32">
					<dim>1</dim>
					<dim>512</dim>
					<dim>60</dim>
					<dim>60</dim>
				</port>
				<port id="1" precision="FP32">
					<dim>1</dim>
					<dim>512</dim>
					<dim>1</dim>
					<dim>1</dim>
				</port>
			</input>
			<output>
				<port id="2" names="conv_pw_9_bn/batchnorm/add_1:0" precision="FP32">
					<dim>1</dim>
					<dim>512</dim>
					<dim>60</dim>
					<dim>60</dim>
				</port>
			</output>
		</layer>
		<layer id="97" name="conv_pw_9_relu/Relu6" type="Clamp" version="opset1">
			<data max="6" min="0"/>
			<rt_info>
				<attribute name="fused_names" value="conv_pw_9_relu/Relu6" version="0"/>
			</rt_info>
			<input>
				<port id="0" precision="FP32">
					<dim>1</dim>
					<dim>512</dim>
					<dim>60</dim>
					<dim>60</dim>
				</port>
			</input>
			<output>
				<port id="1" names="conv_pw_9_relu/Relu6:0" precision="FP32">
					<dim>1</dim>
					<dim>512</dim>
					<dim>60</dim>
					<dim>60</dim>
				</port>
			</output>
		</layer>
		<layer id="98" name="conv_dw_10_bn/batchnorm/mul_1_copy" type="Const" version="opset1">
			<data element_type="f32" offset="4280864" shape="512, 1, 1, 3, 3" size="18432"/>
			<rt_info>
				<attribute name="fused_names" value="conv_dw_10_bn/batchnorm/mul_1_copy" version="0"/>
			</rt_info>
			<output>
				<port id="0" names="conv_dw_10/depthwise/ReadVariableOp:0" precision="FP32">
					<dim>512</dim>
					<dim>1</dim>
					<dim>1</dim>
					<dim>3</dim>
					<dim>3</dim>
				</port>
			</output>
		</layer>
		<layer id="99" name="conv_dw_10/depthwise" type="GroupConvolution" version="opset1">
			<data auto_pad="same_upper" dilations="1, 1" pads_begin="0, 0" pads_end="0, 0" strides="1, 1"/>
			<rt_info>
				<attribute name="fused_names" value="conv_dw_10/depthwise" version="0"/>
			</rt_info>
			<input>
				<port id="0" precision="FP32">
					<dim>1</dim>
					<dim>512</dim>
					<dim>60</dim>
					<dim>60</dim>
				</port>
				<port id="1" precision="FP32">
					<dim>512</dim>
					<dim>1</dim>
					<dim>1</dim>
					<dim>3</dim>
					<dim>3</dim>
				</port>
			</input>
			<output>
				<port id="2" names="conv_dw_10_bn/batchnorm/mul_1:0" precision="FP32">
					<dim>1</dim>
					<dim>512</dim>
					<dim>60</dim>
					<dim>60</dim>
				</port>
			</output>
		</layer>
		<layer id="100" name="conv_dw_10_bn/batchnorm/sub" type="Const" version="opset1">
			<data element_type="f32" offset="4299296" shape="1, 512, 1, 1" size="2048"/>
			<rt_info>
				<attribute name="fused_names" value="conv_dw_10_bn/batchnorm/sub" version="0"/>
			</rt_info>
			<output>
				<port id="0" names="conv_dw_10_bn/batchnorm/sub:0" precision="FP32">
					<dim>1</dim>
					<dim>512</dim>
					<dim>1</dim>
					<dim>1</dim>
				</port>
			</output>
		</layer>
		<layer id="101" name="conv_dw_10_bn/batchnorm/add_1" type="Add" version="opset1">
			<data auto_broadcast="numpy"/>
			<rt_info>
				<attribute name="fused_names" value="conv_dw_10_bn/batchnorm/add_1" version="0"/>
			</rt_info>
			<input>
				<port id="0" precision="FP32">
					<dim>1</dim>
					<dim>512</dim>
					<dim>60</dim>
					<dim>60</dim>
				</port>
				<port id="1" precision="FP32">
					<dim>1</dim>
					<dim>512</dim>
					<dim>1</dim>
					<dim>1</dim>
				</port>
			</input>
			<output>
				<port id="2" names="conv_dw_10_bn/batchnorm/add_1:0" precision="FP32">
					<dim>1</dim>
					<dim>512</dim>
					<dim>60</dim>
					<dim>60</dim>
				</port>
			</output>
		</layer>
		<layer id="102" name="conv_dw_10_relu/Relu6" type="Clamp" version="opset1">
			<data max="6" min="0"/>
			<rt_info>
				<attribute name="fused_names" value="conv_dw_10_relu/Relu6" version="0"/>
			</rt_info>
			<input>
				<port id="0" precision="FP32">
					<dim>1</dim>
					<dim>512</dim>
					<dim>60</dim>
					<dim>60</dim>
				</port>
			</input>
			<output>
				<port id="1" names="conv_dw_10_relu/Relu6:0" precision="FP32">
					<dim>1</dim>
					<dim>512</dim>
					<dim>60</dim>
					<dim>60</dim>
				</port>
			</output>
		</layer>
		<layer id="103" name="conv_pw_10_bn/batchnorm/mul_1_copy" type="Const" version="opset1">
			<data element_type="f32" offset="4301344" shape="512, 512, 1, 1" size="1048576"/>
			<rt_info>
				<attribute name="fused_names" value="conv_pw_10_bn/batchnorm/mul_1_copy" version="0"/>
			</rt_info>
			<output>
				<port id="0" names="conv_pw_10/Conv2D/ReadVariableOp:0" precision="FP32">
					<dim>512</dim>
					<dim>512</dim>
					<dim>1</dim>
					<dim>1</dim>
				</port>
			</output>
		</layer>
		<layer id="104" name="conv_pw_10/Conv2D" type="Convolution" version="opset1">
			<data auto_pad="same_upper" dilations="1, 1" pads_begin="0, 0" pads_end="0, 0" strides="1, 1"/>
			<rt_info>
				<attribute name="fused_names" value="conv_pw_10/Conv2D" version="0"/>
			</rt_info>
			<input>
				<port id="0" precision="FP32">
					<dim>1</dim>
					<dim>512</dim>
					<dim>60</dim>
					<dim>60</dim>
				</port>
				<port id="1" precision="FP32">
					<dim>512</dim>
					<dim>512</dim>
					<dim>1</dim>
					<dim>1</dim>
				</port>
			</input>
			<output>
				<port id="2" names="conv_pw_10_bn/batchnorm/mul_1:0" precision="FP32">
					<dim>1</dim>
					<dim>512</dim>
					<dim>60</dim>
					<dim>60</dim>
				</port>
			</output>
		</layer>
		<layer id="105" name="conv_pw_10_bn/batchnorm/sub" type="Const" version="opset1">
			<data element_type="f32" offset="5349920" shape="1, 512, 1, 1" size="2048"/>
			<rt_info>
				<attribute name="fused_names" value="conv_pw_10_bn/batchnorm/sub" version="0"/>
			</rt_info>
			<output>
				<port id="0" names="conv_pw_10_bn/batchnorm/sub:0" precision="FP32">
					<dim>1</dim>
					<dim>512</dim>
					<dim>1</dim>
					<dim>1</dim>
				</port>
			</output>
		</layer>
		<layer id="106" name="conv_pw_10_bn/batchnorm/add_1" type="Add" version="opset1">
			<data auto_broadcast="numpy"/>
			<rt_info>
				<attribute name="fused_names" value="conv_pw_10_bn/batchnorm/add_1" version="0"/>
			</rt_info>
			<input>
				<port id="0" precision="FP32">
					<dim>1</dim>
					<dim>512</dim>
					<dim>60</dim>
					<dim>60</dim>
				</port>
				<port id="1" precision="FP32">
					<dim>1</dim>
					<dim>512</dim>
					<dim>1</dim>
					<dim>1</dim>
				</port>
			</input>
			<output>
				<port id="2" names="conv_pw_10_bn/batchnorm/add_1:0" precision="FP32">
					<dim>1</dim>
					<dim>512</dim>
					<dim>60</dim>
					<dim>60</dim>
				</port>
			</output>
		</layer>
		<layer id="107" name="conv_pw_10_relu/Relu6" type="Clamp" version="opset1">
			<data max="6" min="0"/>
			<rt_info>
				<attribute name="fused_names" value="conv_pw_10_relu/Relu6" version="0"/>
			</rt_info>
			<input>
				<port id="0" precision="FP32">
					<dim>1</dim>
					<dim>512</dim>
					<dim>60</dim>
					<dim>60</dim>
				</port>
			</input>
			<output>
				<port id="1" names="conv_pw_10_relu/Relu6:0" precision="FP32">
					<dim>1</dim>
					<dim>512</dim>
					<dim>60</dim>
					<dim>60</dim>
				</port>
			</output>
		</layer>
		<layer id="108" name="conv_dw_11_bn/batchnorm/mul_1_copy" type="Const" version="opset1">
			<data element_type="f32" offset="5351968" shape="512, 1, 1, 3, 3" size="18432"/>
			<rt_info>
				<attribute name="fused_names" value="conv_dw_11_bn/batchnorm/mul_1_copy" version="0"/>
			</rt_info>
			<output>
				<port id="0" names="conv_dw_11/depthwise/ReadVariableOp:0" precision="FP32">
					<dim>512</dim>
					<dim>1</dim>
					<dim>1</dim>
					<dim>3</dim>
					<dim>3</dim>
				</port>
			</output>
		</layer>
		<layer id="109" name="conv_dw_11/depthwise" type="GroupConvolution" version="opset1">
			<data auto_pad="same_upper" dilations="1, 1" pads_begin="0, 0" pads_end="0, 0" strides="1, 1"/>
			<rt_info>
				<attribute name="fused_names" value="conv_dw_11/depthwise" version="0"/>
			</rt_info>
			<input>
				<port id="0" precision="FP32">
					<dim>1</dim>
					<dim>512</dim>
					<dim>60</dim>
					<dim>60</dim>
				</port>
				<port id="1" precision="FP32">
					<dim>512</dim>
					<dim>1</dim>
					<dim>1</dim>
					<dim>3</dim>
					<dim>3</dim>
				</port>
			</input>
			<output>
				<port id="2" names="conv_dw_11_bn/batchnorm/mul_1:0" precision="FP32">
					<dim>1</dim>
					<dim>512</dim>
					<dim>60</dim>
					<dim>60</dim>
				</port>
			</output>
		</layer>
		<layer id="110" name="conv_dw_11_bn/batchnorm/sub" type="Const" version="opset1">
			<data element_type="f32" offset="5370400" shape="1, 512, 1, 1" size="2048"/>
			<rt_info>
				<attribute name="fused_names" value="conv_dw_11_bn/batchnorm/sub" version="0"/>
			</rt_info>
			<output>
				<port id="0" names="conv_dw_11_bn/batchnorm/sub:0" precision="FP32">
					<dim>1</dim>
					<dim>512</dim>
					<dim>1</dim>
					<dim>1</dim>
				</port>
			</output>
		</layer>
		<layer id="111" name="conv_dw_11_bn/batchnorm/add_1" type="Add" version="opset1">
			<data auto_broadcast="numpy"/>
			<rt_info>
				<attribute name="fused_names" value="conv_dw_11_bn/batchnorm/add_1" version="0"/>
			</rt_info>
			<input>
				<port id="0" precision="FP32">
					<dim>1</dim>
					<dim>512</dim>
					<dim>60</dim>
					<dim>60</dim>
				</port>
				<port id="1" precision="FP32">
					<dim>1</dim>
					<dim>512</dim>
					<dim>1</dim>
					<dim>1</dim>
				</port>
			</input>
			<output>
				<port id="2" names="conv_dw_11_bn/batchnorm/add_1:0" precision="FP32">
					<dim>1</dim>
					<dim>512</dim>
					<dim>60</dim>
					<dim>60</dim>
				</port>
			</output>
		</layer>
		<layer id="112" name="conv_dw_11_relu/Relu6" type="Clamp" version="opset1">
			<data max="6" min="0"/>
			<rt_info>
				<attribute name="fused_names" value="conv_dw_11_relu/Relu6" version="0"/>
			</rt_info>
			<input>
				<port id="0" precision="FP32">
					<dim>1</dim>
					<dim>512</dim>
					<dim>60</dim>
					<dim>60</dim>
				</port>
			</input>
			<output>
				<port id="1" names="conv_dw_11_relu/Relu6:0" precision="FP32">
					<dim>1</dim>
					<dim>512</dim>
					<dim>60</dim>
					<dim>60</dim>
				</port>
			</output>
		</layer>
		<layer id="113" name="conv_pw_11_bn/batchnorm/mul_1_copy" type="Const" version="opset1">
			<data element_type="f32" offset="5372448" shape="512, 512, 1, 1" size="1048576"/>
			<rt_info>
				<attribute name="fused_names" value="conv_pw_11_bn/batchnorm/mul_1_copy" version="0"/>
			</rt_info>
			<output>
				<port id="0" names="conv_pw_11/Conv2D/ReadVariableOp:0" precision="FP32">
					<dim>512</dim>
					<dim>512</dim>
					<dim>1</dim>
					<dim>1</dim>
				</port>
			</output>
		</layer>
		<layer id="114" name="conv_pw_11/Conv2D" type="Convolution" version="opset1">
			<data auto_pad="same_upper" dilations="1, 1" pads_begin="0, 0" pads_end="0, 0" strides="1, 1"/>
			<rt_info>
				<attribute name="fused_names" value="conv_pw_11/Conv2D" version="0"/>
			</rt_info>
			<input>
				<port id="0" precision="FP32">
					<dim>1</dim>
					<dim>512</dim>
					<dim>60</dim>
					<dim>60</dim>
				</port>
				<port id="1" precision="FP32">
					<dim>512</dim>
					<dim>512</dim>
					<dim>1</dim>
					<dim>1</dim>
				</port>
			</input>
			<output>
				<port id="2" names="conv_pw_11_bn/batchnorm/mul_1:0" precision="FP32">
					<dim>1</dim>
					<dim>512</dim>
					<dim>60</dim>
					<dim>60</dim>
				</port>
			</output>
		</layer>
		<layer id="115" name="conv_pw_11_bn/batchnorm/sub" type="Const" version="opset1">
			<data element_type="f32" offset="6421024" shape="1, 512, 1, 1" size="2048"/>
			<rt_info>
				<attribute name="fused_names" value="conv_pw_11_bn/batchnorm/sub" version="0"/>
			</rt_info>
			<output>
				<port id="0" names="conv_pw_11_bn/batchnorm/sub:0" precision="FP32">
					<dim>1</dim>
					<dim>512</dim>
					<dim>1</dim>
					<dim>1</dim>
				</port>
			</output>
		</layer>
		<layer id="116" name="conv_pw_11_bn/batchnorm/add_1" type="Add" version="opset1">
			<data auto_broadcast="numpy"/>
			<rt_info>
				<attribute name="fused_names" value="conv_pw_11_bn/batchnorm/add_1" version="0"/>
			</rt_info>
			<input>
				<port id="0" precision="FP32">
					<dim>1</dim>
					<dim>512</dim>
					<dim>60</dim>
					<dim>60</dim>
				</port>
				<port id="1" precision="FP32">
					<dim>1</dim>
					<dim>512</dim>
					<dim>1</dim>
					<dim>1</dim>
				</port>
			</input>
			<output>
				<port id="2" names="conv_pw_11_bn/batchnorm/add_1:0" precision="FP32">
					<dim>1</dim>
					<dim>512</dim>
					<dim>60</dim>
					<dim>60</dim>
				</port>
			</output>
		</layer>
		<layer id="117" name="conv_pw_11_relu/Relu6" type="Clamp" version="opset1">
			<data max="6" min="0"/>
			<rt_info>
				<attribute name="fused_names" value="conv_pw_11_relu/Relu6" version="0"/>
			</rt_info>
			<input>
				<port id="0" precision="FP32">
					<dim>1</dim>
					<dim>512</dim>
					<dim>60</dim>
					<dim>60</dim>
				</port>
			</input>
			<output>
				<port id="1" names="conv_pw_11_relu/Relu6:0" precision="FP32">
					<dim>1</dim>
					<dim>512</dim>
					<dim>60</dim>
					<dim>60</dim>
				</port>
			</output>
		</layer>
		<layer id="118" name="conv_dw_12_bn/batchnorm/mul_1_copy" type="Const" version="opset1">
			<data element_type="f32" offset="6423072" shape="512, 1, 1, 3, 3" size="18432"/>
			<rt_info>
				<attribute name="fused_names" value="conv_dw_12_bn/batchnorm/mul_1_copy" version="0"/>
			</rt_info>
			<output>
				<port id="0" names="conv_dw_12/depthwise/ReadVariableOp:0" precision="FP32">
					<dim>512</dim>
					<dim>1</dim>
					<dim>1</dim>
					<dim>3</dim>
					<dim>3</dim>
				</port>
			</output>
		</layer>
		<layer id="119" name="conv_dw_12/depthwise" type="GroupConvolution" version="opset1">
			<data auto_pad="explicit" dilations="1, 1" pads_begin="0, 0" pads_end="1, 1" strides="2, 2"/>
			<rt_info>
				<attribute name="fused_names" value="conv_dw_12/depthwise, conv_pad_12/Pad" version="0"/>
			</rt_info>
			<input>
				<port id="0" precision="FP32">
					<dim>1</dim>
					<dim>512</dim>
					<dim>60</dim>
					<dim>60</dim>
				</port>
				<port id="1" precision="FP32">
					<dim>512</dim>
					<dim>1</dim>
					<dim>1</dim>
					<dim>3</dim>
					<dim>3</dim>
				</port>
			</input>
			<output>
				<port id="2" names="conv_dw_12_bn/batchnorm/mul_1:0" precision="FP32">
					<dim>1</dim>
					<dim>512</dim>
					<dim>30</dim>
					<dim>30</dim>
				</port>
			</output>
		</layer>
		<layer id="120" name="conv_dw_12_bn/batchnorm/sub" type="Const" version="opset1">
			<data element_type="f32" offset="6441504" shape="1, 512, 1, 1" size="2048"/>
			<rt_info>
				<attribute name="fused_names" value="conv_dw_12_bn/batchnorm/sub" version="0"/>
			</rt_info>
			<output>
				<port id="0" names="conv_dw_12_bn/batchnorm/sub:0" precision="FP32">
					<dim>1</dim>
					<dim>512</dim>
					<dim>1</dim>
					<dim>1</dim>
				</port>
			</output>
		</layer>
		<layer id="121" name="conv_dw_12_bn/batchnorm/add_1" type="Add" version="opset1">
			<data auto_broadcast="numpy"/>
			<rt_info>
				<attribute name="fused_names" value="conv_dw_12_bn/batchnorm/add_1" version="0"/>
			</rt_info>
			<input>
				<port id="0" precision="FP32">
					<dim>1</dim>
					<dim>512</dim>
					<dim>30</dim>
					<dim>30</dim>
				</port>
				<port id="1" precision="FP32">
					<dim>1</dim>
					<dim>512</dim>
					<dim>1</dim>
					<dim>1</dim>
				</port>
			</input>
			<output>
				<port id="2" names="conv_dw_12_bn/batchnorm/add_1:0" precision="FP32">
					<dim>1</dim>
					<dim>512</dim>
					<dim>30</dim>
					<dim>30</dim>
				</port>
			</output>
		</layer>
		<layer id="122" name="conv_dw_12_relu/Relu6" type="Clamp" version="opset1">
			<data max="6" min="0"/>
			<rt_info>
				<attribute name="fused_names" value="conv_dw_12_relu/Relu6" version="0"/>
			</rt_info>
			<input>
				<port id="0" precision="FP32">
					<dim>1</dim>
					<dim>512</dim>
					<dim>30</dim>
					<dim>30</dim>
				</port>
			</input>
			<output>
				<port id="1" names="conv_dw_12_relu/Relu6:0" precision="FP32">
					<dim>1</dim>
					<dim>512</dim>
					<dim>30</dim>
					<dim>30</dim>
				</port>
			</output>
		</layer>
		<layer id="123" name="conv_pw_12_bn/batchnorm/mul_1_copy" type="Const" version="opset1">
			<data element_type="f32" offset="6443552" shape="1024, 512, 1, 1" size="2097152"/>
			<rt_info>
				<attribute name="fused_names" value="conv_pw_12_bn/batchnorm/mul_1_copy" version="0"/>
			</rt_info>
			<output>
				<port id="0" names="conv_pw_12/Conv2D/ReadVariableOp:0" precision="FP32">
					<dim>1024</dim>
					<dim>512</dim>
					<dim>1</dim>
					<dim>1</dim>
				</port>
			</output>
		</layer>
		<layer id="124" name="conv_pw_12/Conv2D" type="Convolution" version="opset1">
			<data auto_pad="same_upper" dilations="1, 1" pads_begin="0, 0" pads_end="0, 0" strides="1, 1"/>
			<rt_info>
				<attribute name="fused_names" value="conv_pw_12/Conv2D" version="0"/>
			</rt_info>
			<input>
				<port id="0" precision="FP32">
					<dim>1</dim>
					<dim>512</dim>
					<dim>30</dim>
					<dim>30</dim>
				</port>
				<port id="1" precision="FP32">
					<dim>1024</dim>
					<dim>512</dim>
					<dim>1</dim>
					<dim>1</dim>
				</port>
			</input>
			<output>
				<port id="2" names="conv_pw_12_bn/batchnorm/mul_1:0" precision="FP32">
					<dim>1</dim>
					<dim>1024</dim>
					<dim>30</dim>
					<dim>30</dim>
				</port>
			</output>
		</layer>
		<layer id="125" name="conv_pw_12_bn/batchnorm/sub" type="Const" version="opset1">
			<data element_type="f32" offset="8540704" shape="1, 1024, 1, 1" size="4096"/>
			<rt_info>
				<attribute name="fused_names" value="conv_pw_12_bn/batchnorm/sub" version="0"/>
			</rt_info>
			<output>
				<port id="0" names="conv_pw_12_bn/batchnorm/sub:0" precision="FP32">
					<dim>1</dim>
					<dim>1024</dim>
					<dim>1</dim>
					<dim>1</dim>
				</port>
			</output>
		</layer>
		<layer id="126" name="conv_pw_12_bn/batchnorm/add_1" type="Add" version="opset1">
			<data auto_broadcast="numpy"/>
			<rt_info>
				<attribute name="fused_names" value="conv_pw_12_bn/batchnorm/add_1" version="0"/>
			</rt_info>
			<input>
				<port id="0" precision="FP32">
					<dim>1</dim>
					<dim>1024</dim>
					<dim>30</dim>
					<dim>30</dim>
				</port>
				<port id="1" precision="FP32">
					<dim>1</dim>
					<dim>1024</dim>
					<dim>1</dim>
					<dim>1</dim>
				</port>
			</input>
			<output>
				<port id="2" names="conv_pw_12_bn/batchnorm/add_1:0" precision="FP32">
					<dim>1</dim>
					<dim>1024</dim>
					<dim>30</dim>
					<dim>30</dim>
				</port>
			</output>
		</layer>
		<layer id="127" name="conv_pw_12_relu/Relu6" type="Clamp" version="opset1">
			<data max="6" min="0"/>
			<rt_info>
				<attribute name="fused_names" value="conv_pw_12_relu/Relu6" version="0"/>
			</rt_info>
			<input>
				<port id="0" precision="FP32">
					<dim>1</dim>
					<dim>1024</dim>
					<dim>30</dim>
					<dim>30</dim>
				</port>
			</input>
			<output>
				<port id="1" names="conv_pw_12_relu/Relu6:0" precision="FP32">
					<dim>1</dim>
					<dim>1024</dim>
					<dim>30</dim>
					<dim>30</dim>
				</port>
			</output>
		</layer>
		<layer id="128" name="conv_dw_13_bn/batchnorm/mul_1_copy" type="Const" version="opset1">
			<data element_type="f32" offset="8544800" shape="1024, 1, 1, 3, 3" size="36864"/>
			<rt_info>
				<attribute name="fused_names" value="conv_dw_13_bn/batchnorm/mul_1_copy" version="0"/>
			</rt_info>
			<output>
				<port id="0" names="conv_dw_13/depthwise/ReadVariableOp:0" precision="FP32">
					<dim>1024</dim>
					<dim>1</dim>
					<dim>1</dim>
					<dim>3</dim>
					<dim>3</dim>
				</port>
			</output>
		</layer>
		<layer id="129" name="conv_dw_13/depthwise" type="GroupConvolution" version="opset1">
			<data auto_pad="same_upper" dilations="1, 1" pads_begin="0, 0" pads_end="0, 0" strides="1, 1"/>
			<rt_info>
				<attribute name="fused_names" value="conv_dw_13/depthwise" version="0"/>
			</rt_info>
			<input>
				<port id="0" precision="FP32">
					<dim>1</dim>
					<dim>1024</dim>
					<dim>30</dim>
					<dim>30</dim>
				</port>
				<port id="1" precision="FP32">
					<dim>1024</dim>
					<dim>1</dim>
					<dim>1</dim>
					<dim>3</dim>
					<dim>3</dim>
				</port>
			</input>
			<output>
				<port id="2" names="conv_dw_13_bn/batchnorm/mul_1:0" precision="FP32">
					<dim>1</dim>
					<dim>1024</dim>
					<dim>30</dim>
					<dim>30</dim>
				</port>
			</output>
		</layer>
		<layer id="130" name="conv_dw_13_bn/batchnorm/sub" type="Const" version="opset1">
			<data element_type="f32" offset="8581664" shape="1, 1024, 1, 1" size="4096"/>
			<rt_info>
				<attribute name="fused_names" value="conv_dw_13_bn/batchnorm/sub" version="0"/>
			</rt_info>
			<output>
				<port id="0" names="conv_dw_13_bn/batchnorm/sub:0" precision="FP32">
					<dim>1</dim>
					<dim>1024</dim>
					<dim>1</dim>
					<dim>1</dim>
				</port>
			</output>
		</layer>
		<layer id="131" name="conv_dw_13_bn/batchnorm/add_1" type="Add" version="opset1">
			<data auto_broadcast="numpy"/>
			<rt_info>
				<attribute name="fused_names" value="conv_dw_13_bn/batchnorm/add_1" version="0"/>
			</rt_info>
			<input>
				<port id="0" precision="FP32">
					<dim>1</dim>
					<dim>1024</dim>
					<dim>30</dim>
					<dim>30</dim>
				</port>
				<port id="1" precision="FP32">
					<dim>1</dim>
					<dim>1024</dim>
					<dim>1</dim>
					<dim>1</dim>
				</port>
			</input>
			<output>
				<port id="2" names="conv_dw_13_bn/batchnorm/add_1:0" precision="FP32">
					<dim>1</dim>
					<dim>1024</dim>
					<dim>30</dim>
					<dim>30</dim>
				</port>
			</output>
		</layer>
		<layer id="132" name="conv_dw_13_relu/Relu6" type="Clamp" version="opset1">
			<data max="6" min="0"/>
			<rt_info>
				<attribute name="fused_names" value="conv_dw_13_relu/Relu6" version="0"/>
			</rt_info>
			<input>
				<port id="0" precision="FP32">
					<dim>1</dim>
					<dim>1024</dim>
					<dim>30</dim>
					<dim>30</dim>
				</port>
			</input>
			<output>
				<port id="1" names="conv_dw_13_relu/Relu6:0" precision="FP32">
					<dim>1</dim>
					<dim>1024</dim>
					<dim>30</dim>
					<dim>30</dim>
				</port>
			</output>
		</layer>
		<layer id="133" name="conv_pw_13_bn/batchnorm/mul_1_copy" type="Const" version="opset1">
			<data element_type="f32" offset="8585760" shape="1024, 1024, 1, 1" size="4194304"/>
			<rt_info>
				<attribute name="fused_names" value="conv_pw_13_bn/batchnorm/mul_1_copy" version="0"/>
			</rt_info>
			<output>
				<port id="0" names="conv_pw_13/Conv2D/ReadVariableOp:0" precision="FP32">
					<dim>1024</dim>
					<dim>1024</dim>
					<dim>1</dim>
					<dim>1</dim>
				</port>
			</output>
		</layer>
		<layer id="134" name="conv_pw_13/Conv2D" type="Convolution" version="opset1">
			<data auto_pad="same_upper" dilations="1, 1" pads_begin="0, 0" pads_end="0, 0" strides="1, 1"/>
			<rt_info>
				<attribute name="fused_names" value="conv_pw_13/Conv2D" version="0"/>
			</rt_info>
			<input>
				<port id="0" precision="FP32">
					<dim>1</dim>
					<dim>1024</dim>
					<dim>30</dim>
					<dim>30</dim>
				</port>
				<port id="1" precision="FP32">
					<dim>1024</dim>
					<dim>1024</dim>
					<dim>1</dim>
					<dim>1</dim>
				</port>
			</input>
			<output>
				<port id="2" names="conv_pw_13_bn/batchnorm/mul_1:0" precision="FP32">
					<dim>1</dim>
					<dim>1024</dim>
					<dim>30</dim>
					<dim>30</dim>
				</port>
			</output>
		</layer>
		<layer id="135" name="conv_pw_13_bn/batchnorm/sub" type="Const" version="opset1">
			<data element_type="f32" offset="12780064" shape="1, 1024, 1, 1" size="4096"/>
			<rt_info>
				<attribute name="fused_names" value="conv_pw_13_bn/batchnorm/sub" version="0"/>
			</rt_info>
			<output>
				<port id="0" names="conv_pw_13_bn/batchnorm/sub:0" precision="FP32">
					<dim>1</dim>
					<dim>1024</dim>
					<dim>1</dim>
					<dim>1</dim>
				</port>
			</output>
		</layer>
		<layer id="136" name="conv_pw_13_bn/batchnorm/add_1" type="Add" version="opset1">
			<data auto_broadcast="numpy"/>
			<rt_info>
				<attribute name="fused_names" value="conv_pw_13_bn/batchnorm/add_1" version="0"/>
			</rt_info>
			<input>
				<port id="0" precision="FP32">
					<dim>1</dim>
					<dim>1024</dim>
					<dim>30</dim>
					<dim>30</dim>
				</port>
				<port id="1" precision="FP32">
					<dim>1</dim>
					<dim>1024</dim>
					<dim>1</dim>
					<dim>1</dim>
				</port>
			</input>
			<output>
				<port id="2" names="conv_pw_13_bn/batchnorm/add_1:0" precision="FP32">
					<dim>1</dim>
					<dim>1024</dim>
					<dim>30</dim>
					<dim>30</dim>
				</port>
			</output>
		</layer>
		<layer id="137" name="conv_pw_13_relu/Relu6" type="Clamp" version="opset1">
			<data max="6" min="0"/>
			<rt_info>
				<attribute name="fused_names" value="conv_pw_13_relu/Relu6" version="0"/>
			</rt_info>
			<input>
				<port id="0" precision="FP32">
					<dim>1</dim>
					<dim>1024</dim>
					<dim>30</dim>
					<dim>30</dim>
				</port>
			</input>
			<output>
				<port id="1" names="conv_pw_13_relu/Relu6:0" precision="FP32">
					<dim>1</dim>
					<dim>1024</dim>
					<dim>30</dim>
					<dim>30</dim>
				</port>
			</output>
		</layer>
		<layer id="138" name="sync_batch_normalization/batchnorm/mul_1_copy" type="Const" version="opset1">
			<data element_type="f32" offset="12784160" shape="512, 1024, 1, 1" size="2097152"/>
			<rt_info>
				<attribute name="fused_names" value="sync_batch_normalization/batchnorm/mul_1_copy" version="0"/>
			</rt_info>
			<output>
				<port id="0" names="conv2d/Conv2D/ReadVariableOp:0" precision="FP32">
					<dim>512</dim>
					<dim>1024</dim>
					<dim>1</dim>
					<dim>1</dim>
				</port>
			</output>
		</layer>
		<layer id="139" name="conv2d/Conv2D" type="Convolution" version="opset1">
			<data auto_pad="same_upper" dilations="1, 1" pads_begin="0, 0" pads_end="0, 0" strides="1, 1"/>
			<rt_info>
				<attribute name="fused_names" value="conv2d/Conv2D" version="0"/>
			</rt_info>
			<input>
				<port id="0" precision="FP32">
					<dim>1</dim>
					<dim>1024</dim>
					<dim>30</dim>
					<dim>30</dim>
				</port>
				<port id="1" precision="FP32">
					<dim>512</dim>
					<dim>1024</dim>
					<dim>1</dim>
					<dim>1</dim>
				</port>
			</input>
			<output>
				<port id="2" names="sync_batch_normalization/batchnorm/mul_1:0" precision="FP32">
					<dim>1</dim>
					<dim>512</dim>
					<dim>30</dim>
					<dim>30</dim>
				</port>
			</output>
		</layer>
		<layer id="140" name="sync_batch_normalization/batchnorm/sub" type="Const" version="opset1">
			<data element_type="f32" offset="14881312" shape="1, 512, 1, 1" size="2048"/>
			<rt_info>
				<attribute name="fused_names" value="sync_batch_normalization/batchnorm/sub" version="0"/>
			</rt_info>
			<output>
				<port id="0" names="sync_batch_normalization/batchnorm/sub:0" precision="FP32">
					<dim>1</dim>
					<dim>512</dim>
					<dim>1</dim>
					<dim>1</dim>
				</port>
			</output>
		</layer>
		<layer id="141" name="sync_batch_normalization/batchnorm/add_1" type="Add" version="opset1">
			<data auto_broadcast="numpy"/>
			<rt_info>
				<attribute name="fused_names" value="sync_batch_normalization/batchnorm/add_1" version="0"/>
			</rt_info>
			<input>
				<port id="0" precision="FP32">
					<dim>1</dim>
					<dim>512</dim>
					<dim>30</dim>
					<dim>30</dim>
				</port>
				<port id="1" precision="FP32">
					<dim>1</dim>
					<dim>512</dim>
					<dim>1</dim>
					<dim>1</dim>
				</port>
			</input>
			<output>
				<port id="2" names="sync_batch_normalization/batchnorm/add_1:0" precision="FP32">
					<dim>1</dim>
					<dim>512</dim>
					<dim>30</dim>
					<dim>30</dim>
				</port>
			</output>
		</layer>
		<layer id="142" name="leaky_re_lu/LeakyRelu/weights1458019931" type="Const" version="opset1">
			<data element_type="f32" offset="14883360" shape="1" size="4"/>
			<rt_info>
				<attribute name="fused_names" value="leaky_re_lu/LeakyRelu/weights1458019931" version="0"/>
			</rt_info>
			<output>
				<port id="0" precision="FP32">
					<dim>1</dim>
				</port>
			</output>
		</layer>
		<layer id="143" name="leaky_re_lu/LeakyRelu" type="PReLU" version="opset1">
			<rt_info>
				<attribute name="fused_names" value="leaky_re_lu/LeakyRelu" version="0"/>
			</rt_info>
			<input>
				<port id="0" precision="FP32">
					<dim>1</dim>
					<dim>512</dim>
					<dim>30</dim>
					<dim>30</dim>
				</port>
				<port id="1" precision="FP32">
					<dim>1</dim>
				</port>
			</input>
			<output>
				<port id="2" names="leaky_re_lu/LeakyRelu:0" precision="FP32">
					<dim>1</dim>
					<dim>512</dim>
					<dim>30</dim>
					<dim>30</dim>
				</port>
			</output>
		</layer>
		<layer id="144" name="conv_dw_pred_1_1_bn/batchnorm/mul_1/Fused_Mul__copy" type="Const" version="opset1">
			<data element_type="f32" offset="14883364" shape="512, 1, 1, 3, 3" size="18432"/>
			<rt_info>
				<attribute name="fused_names" value="conv_dw_pred_1_1_bn/batchnorm/mul_1/Fused_Mul__copy" version="0"/>
			</rt_info>
			<output>
				<port id="0" names="conv_dw_pred_1_1/depthwise/ReadVariableOp:0" precision="FP32">
					<dim>512</dim>
					<dim>1</dim>
					<dim>1</dim>
					<dim>3</dim>
					<dim>3</dim>
				</port>
			</output>
		</layer>
		<layer id="145" name="conv_dw_pred_1_1/depthwise" type="GroupConvolution" version="opset1">
			<data auto_pad="same_upper" dilations="1, 1" pads_begin="0, 0" pads_end="0, 0" strides="1, 1"/>
			<rt_info>
				<attribute name="fused_names" value="conv_dw_pred_1_1/depthwise" version="0"/>
			</rt_info>
			<input>
				<port id="0" precision="FP32">
					<dim>1</dim>
					<dim>512</dim>
					<dim>30</dim>
					<dim>30</dim>
				</port>
				<port id="1" precision="FP32">
					<dim>512</dim>
					<dim>1</dim>
					<dim>1</dim>
					<dim>3</dim>
					<dim>3</dim>
				</port>
			</input>
			<output>
				<port id="2" precision="FP32">
					<dim>1</dim>
					<dim>512</dim>
					<dim>30</dim>
					<dim>30</dim>
				</port>
			</output>
		</layer>
		<layer id="146" name="data_add_10006" type="Const" version="opset1">
			<data element_type="f32" offset="14901796" shape="1, 512, 1, 1" size="2048"/>
			<rt_info>
				<attribute name="fused_names" value="data_add_10006" version="0"/>
			</rt_info>
			<output>
				<port id="0" precision="FP32">
					<dim>1</dim>
					<dim>512</dim>
					<dim>1</dim>
					<dim>1</dim>
				</port>
			</output>
		</layer>
		<layer id="147" name="conv_dw_pred_1_1/BiasAdd/Add/Fused_Add_" type="Add" version="opset1">
			<data auto_broadcast="numpy"/>
			<rt_info>
				<attribute name="fused_names" value="conv_dw_pred_1_1/BiasAdd/Add/Fused_Add_" version="0"/>
			</rt_info>
			<input>
				<port id="0" precision="FP32">
					<dim>1</dim>
					<dim>512</dim>
					<dim>30</dim>
					<dim>30</dim>
				</port>
				<port id="1" precision="FP32">
					<dim>1</dim>
					<dim>512</dim>
					<dim>1</dim>
					<dim>1</dim>
				</port>
			</input>
			<output>
				<port id="2" names="conv_dw_pred_1_1_bn/batchnorm/add_1:0" precision="FP32">
					<dim>1</dim>
					<dim>512</dim>
					<dim>30</dim>
					<dim>30</dim>
				</port>
			</output>
		</layer>
		<layer id="148" name="conv_dw_pred_1_1_leaky_relu/LeakyRelu/weights1456019790" type="Const" version="opset1">
			<data element_type="f32" offset="14883360" shape="1" size="4"/>
			<rt_info>
				<attribute name="fused_names" value="conv_dw_pred_1_1_leaky_relu/LeakyRelu/weights1456019790" version="0"/>
			</rt_info>
			<output>
				<port id="0" precision="FP32">
					<dim>1</dim>
				</port>
			</output>
		</layer>
		<layer id="149" name="conv_dw_pred_1_1_leaky_relu/LeakyRelu" type="PReLU" version="opset1">
			<rt_info>
				<attribute name="fused_names" value="conv_dw_pred_1_1_leaky_relu/LeakyRelu" version="0"/>
			</rt_info>
			<input>
				<port id="0" precision="FP32">
					<dim>1</dim>
					<dim>512</dim>
					<dim>30</dim>
					<dim>30</dim>
				</port>
				<port id="1" precision="FP32">
					<dim>1</dim>
				</port>
			</input>
			<output>
				<port id="2" names="conv_dw_pred_1_1_leaky_relu/LeakyRelu:0" precision="FP32">
					<dim>1</dim>
					<dim>512</dim>
					<dim>30</dim>
					<dim>30</dim>
				</port>
			</output>
		</layer>
		<layer id="150" name="conv_pw_pred_1_1_bn/batchnorm/mul_1_copy" type="Const" version="opset1">
			<data element_type="f32" offset="14903844" shape="1024, 512, 1, 1" size="2097152"/>
			<rt_info>
				<attribute name="fused_names" value="conv_pw_pred_1_1_bn/batchnorm/mul_1_copy" version="0"/>
			</rt_info>
			<output>
				<port id="0" names="conv_pw_pred_1_1/Conv2D/ReadVariableOp:0" precision="FP32">
					<dim>1024</dim>
					<dim>512</dim>
					<dim>1</dim>
					<dim>1</dim>
				</port>
			</output>
		</layer>
		<layer id="151" name="conv_pw_pred_1_1/Conv2D" type="Convolution" version="opset1">
			<data auto_pad="same_upper" dilations="1, 1" pads_begin="0, 0" pads_end="0, 0" strides="1, 1"/>
			<rt_info>
				<attribute name="fused_names" value="conv_pw_pred_1_1/Conv2D" version="0"/>
			</rt_info>
			<input>
				<port id="0" precision="FP32">
					<dim>1</dim>
					<dim>512</dim>
					<dim>30</dim>
					<dim>30</dim>
				</port>
				<port id="1" precision="FP32">
					<dim>1024</dim>
					<dim>512</dim>
					<dim>1</dim>
					<dim>1</dim>
				</port>
			</input>
			<output>
				<port id="2" names="conv_pw_pred_1_1_bn/batchnorm/mul_1:0" precision="FP32">
					<dim>1</dim>
					<dim>1024</dim>
					<dim>30</dim>
					<dim>30</dim>
				</port>
			</output>
		</layer>
		<layer id="152" name="conv_pw_pred_1_1_bn/batchnorm/sub" type="Const" version="opset1">
			<data element_type="f32" offset="17000996" shape="1, 1024, 1, 1" size="4096"/>
			<rt_info>
				<attribute name="fused_names" value="conv_pw_pred_1_1_bn/batchnorm/sub" version="0"/>
			</rt_info>
			<output>
				<port id="0" names="conv_pw_pred_1_1_bn/batchnorm/sub:0" precision="FP32">
					<dim>1</dim>
					<dim>1024</dim>
					<dim>1</dim>
					<dim>1</dim>
				</port>
			</output>
		</layer>
		<layer id="153" name="conv_pw_pred_1_1_bn/batchnorm/add_1" type="Add" version="opset1">
			<data auto_broadcast="numpy"/>
			<rt_info>
				<attribute name="fused_names" value="conv_pw_pred_1_1_bn/batchnorm/add_1" version="0"/>
			</rt_info>
			<input>
				<port id="0" precision="FP32">
					<dim>1</dim>
					<dim>1024</dim>
					<dim>30</dim>
					<dim>30</dim>
				</port>
				<port id="1" precision="FP32">
					<dim>1</dim>
					<dim>1024</dim>
					<dim>1</dim>
					<dim>1</dim>
				</port>
			</input>
			<output>
				<port id="2" names="conv_pw_pred_1_1_bn/batchnorm/add_1:0" precision="FP32">
					<dim>1</dim>
					<dim>1024</dim>
					<dim>30</dim>
					<dim>30</dim>
				</port>
			</output>
		</layer>
		<layer id="154" name="conv_pw_pred_1_1_leaky_relu/LeakyRelu/weights1459219538" type="Const" version="opset1">
			<data element_type="f32" offset="14883360" shape="1" size="4"/>
			<rt_info>
				<attribute name="fused_names" value="conv_pw_pred_1_1_leaky_relu/LeakyRelu/weights1459219538" version="0"/>
			</rt_info>
			<output>
				<port id="0" precision="FP32">
					<dim>1</dim>
				</port>
			</output>
		</layer>
		<layer id="155" name="conv_pw_pred_1_1_leaky_relu/LeakyRelu" type="PReLU" version="opset1">
			<rt_info>
				<attribute name="fused_names" value="conv_pw_pred_1_1_leaky_relu/LeakyRelu" version="0"/>
			</rt_info>
			<input>
				<port id="0" precision="FP32">
					<dim>1</dim>
					<dim>1024</dim>
					<dim>30</dim>
					<dim>30</dim>
				</port>
				<port id="1" precision="FP32">
					<dim>1</dim>
				</port>
			</input>
			<output>
				<port id="2" names="conv_pw_pred_1_1_leaky_relu/LeakyRelu:0" precision="FP32">
					<dim>1</dim>
					<dim>1024</dim>
					<dim>30</dim>
					<dim>30</dim>
				</port>
			</output>
		</layer>
		<layer id="156" name="sync_batch_normalization_1/batchnorm/mul_1_copy" type="Const" version="opset1">
			<data element_type="f32" offset="17005092" shape="512, 1024, 1, 1" size="2097152"/>
			<rt_info>
				<attribute name="fused_names" value="sync_batch_normalization_1/batchnorm/mul_1_copy" version="0"/>
			</rt_info>
			<output>
				<port id="0" names="conv2d_1/Conv2D/ReadVariableOp:0" precision="FP32">
					<dim>512</dim>
					<dim>1024</dim>
					<dim>1</dim>
					<dim>1</dim>
				</port>
			</output>
		</layer>
		<layer id="157" name="conv2d_1/Conv2D" type="Convolution" version="opset1">
			<data auto_pad="same_upper" dilations="1, 1" pads_begin="0, 0" pads_end="0, 0" strides="1, 1"/>
			<rt_info>
				<attribute name="fused_names" value="conv2d_1/Conv2D" version="0"/>
			</rt_info>
			<input>
				<port id="0" precision="FP32">
					<dim>1</dim>
					<dim>1024</dim>
					<dim>30</dim>
					<dim>30</dim>
				</port>
				<port id="1" precision="FP32">
					<dim>512</dim>
					<dim>1024</dim>
					<dim>1</dim>
					<dim>1</dim>
				</port>
			</input>
			<output>
				<port id="2" names="sync_batch_normalization_1/batchnorm/mul_1:0" precision="FP32">
					<dim>1</dim>
					<dim>512</dim>
					<dim>30</dim>
					<dim>30</dim>
				</port>
			</output>
		</layer>
		<layer id="158" name="sync_batch_normalization_1/batchnorm/sub" type="Const" version="opset1">
			<data element_type="f32" offset="19102244" shape="1, 512, 1, 1" size="2048"/>
			<rt_info>
				<attribute name="fused_names" value="sync_batch_normalization_1/batchnorm/sub" version="0"/>
			</rt_info>
			<output>
				<port id="0" names="sync_batch_normalization_1/batchnorm/sub:0" precision="FP32">
					<dim>1</dim>
					<dim>512</dim>
					<dim>1</dim>
					<dim>1</dim>
				</port>
			</output>
		</layer>
		<layer id="159" name="sync_batch_normalization_1/batchnorm/add_1" type="Add" version="opset1">
			<data auto_broadcast="numpy"/>
			<rt_info>
				<attribute name="fused_names" value="sync_batch_normalization_1/batchnorm/add_1" version="0"/>
			</rt_info>
			<input>
				<port id="0" precision="FP32">
					<dim>1</dim>
					<dim>512</dim>
					<dim>30</dim>
					<dim>30</dim>
				</port>
				<port id="1" precision="FP32">
					<dim>1</dim>
					<dim>512</dim>
					<dim>1</dim>
					<dim>1</dim>
				</port>
			</input>
			<output>
				<port id="2" names="sync_batch_normalization_1/batchnorm/add_1:0" precision="FP32">
					<dim>1</dim>
					<dim>512</dim>
					<dim>30</dim>
					<dim>30</dim>
				</port>
			</output>
		</layer>
		<layer id="160" name="leaky_re_lu_1/LeakyRelu/weights1457219664" type="Const" version="opset1">
			<data element_type="f32" offset="14883360" shape="1" size="4"/>
			<rt_info>
				<attribute name="fused_names" value="leaky_re_lu_1/LeakyRelu/weights1457219664" version="0"/>
			</rt_info>
			<output>
				<port id="0" precision="FP32">
					<dim>1</dim>
				</port>
			</output>
		</layer>
		<layer id="161" name="leaky_re_lu_1/LeakyRelu" type="PReLU" version="opset1">
			<rt_info>
				<attribute name="fused_names" value="leaky_re_lu_1/LeakyRelu" version="0"/>
			</rt_info>
			<input>
				<port id="0" precision="FP32">
					<dim>1</dim>
					<dim>512</dim>
					<dim>30</dim>
					<dim>30</dim>
				</port>
				<port id="1" precision="FP32">
					<dim>1</dim>
				</port>
			</input>
			<output>
				<port id="2" names="leaky_re_lu_1/LeakyRelu:0" precision="FP32">
					<dim>1</dim>
					<dim>512</dim>
					<dim>30</dim>
					<dim>30</dim>
				</port>
			</output>
		</layer>
		<layer id="162" name="conv_dw_pred_1_2_bn/batchnorm/mul_1/Fused_Mul__copy" type="Const" version="opset1">
			<data element_type="f32" offset="19104292" shape="512, 1, 1, 3, 3" size="18432"/>
			<rt_info>
				<attribute name="fused_names" value="conv_dw_pred_1_2_bn/batchnorm/mul_1/Fused_Mul__copy" version="0"/>
			</rt_info>
			<output>
				<port id="0" names="conv_dw_pred_1_2/depthwise/ReadVariableOp:0" precision="FP32">
					<dim>512</dim>
					<dim>1</dim>
					<dim>1</dim>
					<dim>3</dim>
					<dim>3</dim>
				</port>
			</output>
		</layer>
		<layer id="163" name="conv_dw_pred_1_2/depthwise" type="GroupConvolution" version="opset1">
			<data auto_pad="same_upper" dilations="1, 1" pads_begin="0, 0" pads_end="0, 0" strides="1, 1"/>
			<rt_info>
				<attribute name="fused_names" value="conv_dw_pred_1_2/depthwise" version="0"/>
			</rt_info>
			<input>
				<port id="0" precision="FP32">
					<dim>1</dim>
					<dim>512</dim>
					<dim>30</dim>
					<dim>30</dim>
				</port>
				<port id="1" precision="FP32">
					<dim>512</dim>
					<dim>1</dim>
					<dim>1</dim>
					<dim>3</dim>
					<dim>3</dim>
				</port>
			</input>
			<output>
				<port id="2" precision="FP32">
					<dim>1</dim>
					<dim>512</dim>
					<dim>30</dim>
					<dim>30</dim>
				</port>
			</output>
		</layer>
		<layer id="164" name="data_add_1000910014" type="Const" version="opset1">
			<data element_type="f32" offset="19122724" shape="1, 512, 1, 1" size="2048"/>
			<rt_info>
				<attribute name="fused_names" value="data_add_1000910014" version="0"/>
			</rt_info>
			<output>
				<port id="0" precision="FP32">
					<dim>1</dim>
					<dim>512</dim>
					<dim>1</dim>
					<dim>1</dim>
				</port>
			</output>
		</layer>
		<layer id="165" name="conv_dw_pred_1_2/BiasAdd/Add/Fused_Add_" type="Add" version="opset1">
			<data auto_broadcast="numpy"/>
			<rt_info>
				<attribute name="fused_names" value="conv_dw_pred_1_2/BiasAdd/Add/Fused_Add_" version="0"/>
			</rt_info>
			<input>
				<port id="0" precision="FP32">
					<dim>1</dim>
					<dim>512</dim>
					<dim>30</dim>
					<dim>30</dim>
				</port>
				<port id="1" precision="FP32">
					<dim>1</dim>
					<dim>512</dim>
					<dim>1</dim>
					<dim>1</dim>
				</port>
			</input>
			<output>
				<port id="2" names="conv_dw_pred_1_2_bn/batchnorm/add_1:0" precision="FP32">
					<dim>1</dim>
					<dim>512</dim>
					<dim>30</dim>
					<dim>30</dim>
				</port>
			</output>
		</layer>
		<layer id="166" name="conv_dw_pred_1_2_leaky_relu/LeakyRelu/weights1456419724" type="Const" version="opset1">
			<data element_type="f32" offset="14883360" shape="1" size="4"/>
			<rt_info>
				<attribute name="fused_names" value="conv_dw_pred_1_2_leaky_relu/LeakyRelu/weights1456419724" version="0"/>
			</rt_info>
			<output>
				<port id="0" precision="FP32">
					<dim>1</dim>
				</port>
			</output>
		</layer>
		<layer id="167" name="conv_dw_pred_1_2_leaky_relu/LeakyRelu" type="PReLU" version="opset1">
			<rt_info>
				<attribute name="fused_names" value="conv_dw_pred_1_2_leaky_relu/LeakyRelu" version="0"/>
			</rt_info>
			<input>
				<port id="0" precision="FP32">
					<dim>1</dim>
					<dim>512</dim>
					<dim>30</dim>
					<dim>30</dim>
				</port>
				<port id="1" precision="FP32">
					<dim>1</dim>
				</port>
			</input>
			<output>
				<port id="2" names="conv_dw_pred_1_2_leaky_relu/LeakyRelu:0" precision="FP32">
					<dim>1</dim>
					<dim>512</dim>
					<dim>30</dim>
					<dim>30</dim>
				</port>
			</output>
		</layer>
		<layer id="168" name="conv_pw_pred_1_2_bn/batchnorm/mul_1_copy" type="Const" version="opset1">
			<data element_type="f32" offset="19124772" shape="1024, 512, 1, 1" size="2097152"/>
			<rt_info>
				<attribute name="fused_names" value="conv_pw_pred_1_2_bn/batchnorm/mul_1_copy" version="0"/>
			</rt_info>
			<output>
				<port id="0" names="conv_pw_pred_1_2/Conv2D/ReadVariableOp:0" precision="FP32">
					<dim>1024</dim>
					<dim>512</dim>
					<dim>1</dim>
					<dim>1</dim>
				</port>
			</output>
		</layer>
		<layer id="169" name="conv_pw_pred_1_2/Conv2D" type="Convolution" version="opset1">
			<data auto_pad="same_upper" dilations="1, 1" pads_begin="0, 0" pads_end="0, 0" strides="1, 1"/>
			<rt_info>
				<attribute name="fused_names" value="conv_pw_pred_1_2/Conv2D" version="0"/>
			</rt_info>
			<input>
				<port id="0" precision="FP32">
					<dim>1</dim>
					<dim>512</dim>
					<dim>30</dim>
					<dim>30</dim>
				</port>
				<port id="1" precision="FP32">
					<dim>1024</dim>
					<dim>512</dim>
					<dim>1</dim>
					<dim>1</dim>
				</port>
			</input>
			<output>
				<port id="2" names="conv_pw_pred_1_2_bn/batchnorm/mul_1:0" precision="FP32">
					<dim>1</dim>
					<dim>1024</dim>
					<dim>30</dim>
					<dim>30</dim>
				</port>
			</output>
		</layer>
		<layer id="170" name="conv_pw_pred_1_2_bn/batchnorm/sub" type="Const" version="opset1">
			<data element_type="f32" offset="21221924" shape="1, 1024, 1, 1" size="4096"/>
			<rt_info>
				<attribute name="fused_names" value="conv_pw_pred_1_2_bn/batchnorm/sub" version="0"/>
			</rt_info>
			<output>
				<port id="0" names="conv_pw_pred_1_2_bn/batchnorm/sub:0" precision="FP32">
					<dim>1</dim>
					<dim>1024</dim>
					<dim>1</dim>
					<dim>1</dim>
				</port>
			</output>
		</layer>
		<layer id="171" name="conv_pw_pred_1_2_bn/batchnorm/add_1" type="Add" version="opset1">
			<data auto_broadcast="numpy"/>
			<rt_info>
				<attribute name="fused_names" value="conv_pw_pred_1_2_bn/batchnorm/add_1" version="0"/>
			</rt_info>
			<input>
				<port id="0" precision="FP32">
					<dim>1</dim>
					<dim>1024</dim>
					<dim>30</dim>
					<dim>30</dim>
				</port>
				<port id="1" precision="FP32">
					<dim>1</dim>
					<dim>1024</dim>
					<dim>1</dim>
					<dim>1</dim>
				</port>
			</input>
			<output>
				<port id="2" names="conv_pw_pred_1_2_bn/batchnorm/add_1:0" precision="FP32">
					<dim>1</dim>
					<dim>1024</dim>
					<dim>30</dim>
					<dim>30</dim>
				</port>
			</output>
		</layer>
		<layer id="172" name="conv_pw_pred_1_2_leaky_relu/LeakyRelu/weights1460819469" type="Const" version="opset1">
			<data element_type="f32" offset="14883360" shape="1" size="4"/>
			<rt_info>
				<attribute name="fused_names" value="conv_pw_pred_1_2_leaky_relu/LeakyRelu/weights1460819469" version="0"/>
			</rt_info>
			<output>
				<port id="0" precision="FP32">
					<dim>1</dim>
				</port>
			</output>
		</layer>
		<layer id="173" name="conv_pw_pred_1_2_leaky_relu/LeakyRelu" type="PReLU" version="opset1">
			<rt_info>
				<attribute name="fused_names" value="conv_pw_pred_1_2_leaky_relu/LeakyRelu" version="0"/>
			</rt_info>
			<input>
				<port id="0" precision="FP32">
					<dim>1</dim>
					<dim>1024</dim>
					<dim>30</dim>
					<dim>30</dim>
				</port>
				<port id="1" precision="FP32">
					<dim>1</dim>
				</port>
			</input>
			<output>
				<port id="2" names="conv_pw_pred_1_2_leaky_relu/LeakyRelu:0" precision="FP32">
					<dim>1</dim>
					<dim>1024</dim>
					<dim>30</dim>
					<dim>30</dim>
				</port>
			</output>
		</layer>
		<layer id="174" name="sync_batch_normalization_2/batchnorm/mul_1_copy" type="Const" version="opset1">
			<data element_type="f32" offset="21226020" shape="512, 1024, 1, 1" size="2097152"/>
			<rt_info>
				<attribute name="fused_names" value="sync_batch_normalization_2/batchnorm/mul_1_copy" version="0"/>
			</rt_info>
			<output>
				<port id="0" names="conv2d_2/Conv2D/ReadVariableOp:0" precision="FP32">
					<dim>512</dim>
					<dim>1024</dim>
					<dim>1</dim>
					<dim>1</dim>
				</port>
			</output>
		</layer>
		<layer id="175" name="conv2d_2/Conv2D" type="Convolution" version="opset1">
			<data auto_pad="same_upper" dilations="1, 1" pads_begin="0, 0" pads_end="0, 0" strides="1, 1"/>
			<rt_info>
				<attribute name="fused_names" value="conv2d_2/Conv2D" version="0"/>
			</rt_info>
			<input>
				<port id="0" precision="FP32">
					<dim>1</dim>
					<dim>1024</dim>
					<dim>30</dim>
					<dim>30</dim>
				</port>
				<port id="1" precision="FP32">
					<dim>512</dim>
					<dim>1024</dim>
					<dim>1</dim>
					<dim>1</dim>
				</port>
			</input>
			<output>
				<port id="2" names="sync_batch_normalization_2/batchnorm/mul_1:0" precision="FP32">
					<dim>1</dim>
					<dim>512</dim>
					<dim>30</dim>
					<dim>30</dim>
				</port>
			</output>
		</layer>
		<layer id="176" name="sync_batch_normalization_2/batchnorm/sub" type="Const" version="opset1">
			<data element_type="f32" offset="23323172" shape="1, 512, 1, 1" size="2048"/>
			<rt_info>
				<attribute name="fused_names" value="sync_batch_normalization_2/batchnorm/sub" version="0"/>
			</rt_info>
			<output>
				<port id="0" names="sync_batch_normalization_2/batchnorm/sub:0" precision="FP32">
					<dim>1</dim>
					<dim>512</dim>
					<dim>1</dim>
					<dim>1</dim>
				</port>
			</output>
		</layer>
		<layer id="177" name="sync_batch_normalization_2/batchnorm/add_1" type="Add" version="opset1">
			<data auto_broadcast="numpy"/>
			<rt_info>
				<attribute name="fused_names" value="sync_batch_normalization_2/batchnorm/add_1" version="0"/>
			</rt_info>
			<input>
				<port id="0" precision="FP32">
					<dim>1</dim>
					<dim>512</dim>
					<dim>30</dim>
					<dim>30</dim>
				</port>
				<port id="1" precision="FP32">
					<dim>1</dim>
					<dim>512</dim>
					<dim>1</dim>
					<dim>1</dim>
				</port>
			</input>
			<output>
				<port id="2" names="sync_batch_normalization_2/batchnorm/add_1:0" precision="FP32">
					<dim>1</dim>
					<dim>512</dim>
					<dim>30</dim>
					<dim>30</dim>
				</port>
			</output>
		</layer>
		<layer id="178" name="leaky_re_lu_2/LeakyRelu/weights1453219556" type="Const" version="opset1">
			<data element_type="f32" offset="14883360" shape="1" size="4"/>
			<rt_info>
				<attribute name="fused_names" value="leaky_re_lu_2/LeakyRelu/weights1453219556" version="0"/>
			</rt_info>
			<output>
				<port id="0" precision="FP32">
					<dim>1</dim>
				</port>
			</output>
		</layer>
		<layer id="179" name="leaky_re_lu_2/LeakyRelu" type="PReLU" version="opset1">
			<rt_info>
				<attribute name="fused_names" value="leaky_re_lu_2/LeakyRelu" version="0"/>
			</rt_info>
			<input>
				<port id="0" precision="FP32">
					<dim>1</dim>
					<dim>512</dim>
					<dim>30</dim>
					<dim>30</dim>
				</port>
				<port id="1" precision="FP32">
					<dim>1</dim>
				</port>
			</input>
			<output>
				<port id="2" names="leaky_re_lu_2/LeakyRelu:0" precision="FP32">
					<dim>1</dim>
					<dim>512</dim>
					<dim>30</dim>
					<dim>30</dim>
				</port>
			</output>
		</layer>
		<layer id="180" name="sync_batch_normalization_3/batchnorm/mul_1_copy" type="Const" version="opset1">
			<data element_type="f32" offset="23325220" shape="256, 512, 1, 1" size="524288"/>
			<rt_info>
				<attribute name="fused_names" value="sync_batch_normalization_3/batchnorm/mul_1_copy" version="0"/>
			</rt_info>
			<output>
				<port id="0" names="conv2d_3/Conv2D/ReadVariableOp:0" precision="FP32">
					<dim>256</dim>
					<dim>512</dim>
					<dim>1</dim>
					<dim>1</dim>
				</port>
			</output>
		</layer>
		<layer id="181" name="conv2d_3/Conv2D" type="Convolution" version="opset1">
			<data auto_pad="same_upper" dilations="1, 1" pads_begin="0, 0" pads_end="0, 0" strides="1, 1"/>
			<rt_info>
				<attribute name="fused_names" value="conv2d_3/Conv2D" version="0"/>
			</rt_info>
			<input>
				<port id="0" precision="FP32">
					<dim>1</dim>
					<dim>512</dim>
					<dim>30</dim>
					<dim>30</dim>
				</port>
				<port id="1" precision="FP32">
					<dim>256</dim>
					<dim>512</dim>
					<dim>1</dim>
					<dim>1</dim>
				</port>
			</input>
			<output>
				<port id="2" names="sync_batch_normalization_3/batchnorm/mul_1:0" precision="FP32">
					<dim>1</dim>
					<dim>256</dim>
					<dim>30</dim>
					<dim>30</dim>
				</port>
			</output>
		</layer>
		<layer id="182" name="sync_batch_normalization_3/batchnorm/sub" type="Const" version="opset1">
			<data element_type="f32" offset="23849508" shape="1, 256, 1, 1" size="1024"/>
			<rt_info>
				<attribute name="fused_names" value="sync_batch_normalization_3/batchnorm/sub" version="0"/>
			</rt_info>
			<output>
				<port id="0" names="sync_batch_normalization_3/batchnorm/sub:0" precision="FP32">
					<dim>1</dim>
					<dim>256</dim>
					<dim>1</dim>
					<dim>1</dim>
				</port>
			</output>
		</layer>
		<layer id="183" name="sync_batch_normalization_3/batchnorm/add_1" type="Add" version="opset1">
			<data auto_broadcast="numpy"/>
			<rt_info>
				<attribute name="fused_names" value="sync_batch_normalization_3/batchnorm/add_1" version="0"/>
			</rt_info>
			<input>
				<port id="0" precision="FP32">
					<dim>1</dim>
					<dim>256</dim>
					<dim>30</dim>
					<dim>30</dim>
				</port>
				<port id="1" precision="FP32">
					<dim>1</dim>
					<dim>256</dim>
					<dim>1</dim>
					<dim>1</dim>
				</port>
			</input>
			<output>
				<port id="2" names="sync_batch_normalization_3/batchnorm/add_1:0" precision="FP32">
					<dim>1</dim>
					<dim>256</dim>
					<dim>30</dim>
					<dim>30</dim>
				</port>
			</output>
		</layer>
		<layer id="184" name="leaky_re_lu_3/LeakyRelu/weights1458819529" type="Const" version="opset1">
			<data element_type="f32" offset="14883360" shape="1" size="4"/>
			<rt_info>
				<attribute name="fused_names" value="leaky_re_lu_3/LeakyRelu/weights1458819529" version="0"/>
			</rt_info>
			<output>
				<port id="0" precision="FP32">
					<dim>1</dim>
				</port>
			</output>
		</layer>
		<layer id="185" name="leaky_re_lu_3/LeakyRelu" type="PReLU" version="opset1">
			<rt_info>
				<attribute name="fused_names" value="leaky_re_lu_3/LeakyRelu" version="0"/>
			</rt_info>
			<input>
				<port id="0" precision="FP32">
					<dim>1</dim>
					<dim>256</dim>
					<dim>30</dim>
					<dim>30</dim>
				</port>
				<port id="1" precision="FP32">
					<dim>1</dim>
				</port>
			</input>
			<output>
				<port id="2" names="leaky_re_lu_3/LeakyRelu:0" precision="FP32">
					<dim>1</dim>
					<dim>256</dim>
					<dim>30</dim>
					<dim>30</dim>
				</port>
			</output>
		</layer>
		<layer id="186" name="conv_pw_11_relu/Relu6/Shape" type="ShapeOf" version="opset3">
			<data output_type="i64"/>
			<rt_info>
				<attribute name="fused_names" value="conv_pw_11_relu/Relu6/Shape" version="0"/>
			</rt_info>
			<input>
				<port id="0" precision="FP32">
					<dim>1</dim>
					<dim>512</dim>
					<dim>60</dim>
					<dim>60</dim>
				</port>
			</input>
			<output>
				<port id="1" precision="I64">
					<dim>4</dim>
				</port>
			</output>
		</layer>
		<layer id="187" name="conv_pw_11_relu/Relu6/Shape/Gathered_input_port_1/value1484719448" type="Const" version="opset1">
			<data element_type="i32" offset="23850532" shape="2" size="8"/>
			<rt_info>
				<attribute name="fused_names" value="conv_pw_11_relu/Relu6/Shape/Gathered_input_port_1/value1484719448" version="0"/>
			</rt_info>
			<output>
				<port id="0" precision="I32">
					<dim>2</dim>
				</port>
			</output>
		</layer>
		<layer id="188" name="conv_pw_11_relu/Relu6/Shape/Gathered_input_port_2/value1484919544" type="Const" version="opset1">
			<data element_type="i64" offset="23850540" shape="" size="8"/>
			<rt_info>
				<attribute name="fused_names" value="conv_pw_11_relu/Relu6/Shape/Gathered_input_port_2/value1484919544" version="0"/>
			</rt_info>
			<output>
				<port id="0" precision="I64"/>
			</output>
		</layer>
		<layer id="189" name="conv_pw_11_relu/Relu6/Shape/Gathered" type="Gather" version="opset8">
			<data batch_dims="0"/>
			<rt_info>
				<attribute name="fused_names" value="conv_pw_11_relu/Relu6/Shape/Gathered, conv_pw_11_relu/Relu6/Shape/Gathered_input_port_1/value1484719448, conv_pw_11_relu/Relu6/Shape/Gathered_input_port_2/value1484919544" version="0"/>
			</rt_info>
			<input>
				<port id="0" precision="I64">
					<dim>4</dim>
				</port>
				<port id="1" precision="I32">
					<dim>2</dim>
				</port>
				<port id="2" precision="I64"/>
			</input>
			<output>
				<port id="3" names="up_sampling2d/mul:0" precision="I64">
					<dim>2</dim>
				</port>
			</output>
		</layer>
		<layer id="190" name="1320" type="Const" version="opset1">
			<data element_type="f32" offset="23850548" shape="2" size="8"/>
			<rt_info>
				<attribute name="fused_names" value="1320" version="0"/>
			</rt_info>
			<output>
				<port id="0" precision="FP32">
					<dim>2</dim>
				</port>
			</output>
		</layer>
		<layer id="191" name="up_sampling2d/resize/ResizeNearestNeighbor/shapeof" type="ShapeOf" version="opset3">
			<data output_type="i64"/>
			<rt_info>
				<attribute name="fused_names" value="up_sampling2d/resize/ResizeNearestNeighbor/shapeof" version="0"/>
			</rt_info>
			<input>
				<port id="0" precision="FP32">
					<dim>1</dim>
					<dim>256</dim>
					<dim>30</dim>
					<dim>30</dim>
				</port>
			</input>
			<output>
				<port id="1" precision="I64">
					<dim>4</dim>
				</port>
			</output>
		</layer>
		<layer id="192" name="up_sampling2d/resize/ResizeNearestNeighbor/shapeof/GatherNCHWtoNHWC_input_port_1/value1339719739" type="Const" version="opset1">
			<data element_type="i32" offset="23850556" shape="4" size="16"/>
			<rt_info>
				<attribute name="fused_names" value="up_sampling2d/resize/ResizeNearestNeighbor/shapeof/GatherNCHWtoNHWC_input_port_1/value1339719739" version="0"/>
			</rt_info>
			<output>
				<port id="0" precision="I32">
					<dim>4</dim>
				</port>
			</output>
		</layer>
		<layer id="193" name="up_sampling2d/resize/ResizeNearestNeighbor/shapeof/GatherNCHWtoNHWC_input_port_2/value1339919649" type="Const" version="opset1">
			<data element_type="i64" offset="23850540" shape="" size="8"/>
			<rt_info>
				<attribute name="fused_names" value="up_sampling2d/resize/ResizeNearestNeighbor/shapeof/GatherNCHWtoNHWC_input_port_2/value1339919649" version="0"/>
			</rt_info>
			<output>
				<port id="0" precision="I64"/>
			</output>
		</layer>
		<layer id="194" name="up_sampling2d/resize/ResizeNearestNeighbor/shapeof/GatherNCHWtoNHWC" type="Gather" version="opset8">
			<data batch_dims="0"/>
			<rt_info>
				<attribute name="fused_names" value="up_sampling2d/resize/ResizeNearestNeighbor/shapeof/GatherNCHWtoNHWC" version="0"/>
			</rt_info>
			<input>
				<port id="0" precision="I64">
					<dim>4</dim>
				</port>
				<port id="1" precision="I32">
					<dim>4</dim>
				</port>
				<port id="2" precision="I64"/>
			</input>
			<output>
				<port id="3" precision="I64">
					<dim>4</dim>
				</port>
			</output>
		</layer>
		<layer id="195" name="up_sampling2d/resize/ResizeNearestNeighbor/StridedSlice_input_port_1/value" type="Const" version="opset1">
			<data element_type="i64" offset="23850572" shape="1" size="8"/>
			<rt_info>
				<attribute name="fused_names" value="up_sampling2d/resize/ResizeNearestNeighbor/StridedSlice_input_port_1/value" version="0"/>
			</rt_info>
			<output>
				<port id="0" precision="I64">
					<dim>1</dim>
				</port>
			</output>
		</layer>
		<layer id="196" name="up_sampling2d/resize/ResizeNearestNeighbor/StridedSlice_input_port_2/value" type="Const" version="opset1">
			<data element_type="i64" offset="23850580" shape="1" size="8"/>
			<rt_info>
				<attribute name="fused_names" value="up_sampling2d/resize/ResizeNearestNeighbor/StridedSlice_input_port_2/value" version="0"/>
			</rt_info>
			<output>
				<port id="0" precision="I64">
					<dim>1</dim>
				</port>
			</output>
		</layer>
		<layer id="197" name="up_sampling2d/resize/ResizeNearestNeighbor/StridedSlice_input_port_3/value" type="Const" version="opset1">
			<data element_type="i64" offset="23850572" shape="1" size="8"/>
			<rt_info>
				<attribute name="fused_names" value="up_sampling2d/resize/ResizeNearestNeighbor/StridedSlice_input_port_3/value" version="0"/>
			</rt_info>
			<output>
				<port id="0" precision="I64">
					<dim>1</dim>
				</port>
			</output>
		</layer>
		<layer id="198" name="up_sampling2d/resize/ResizeNearestNeighbor/StridedSlice" type="StridedSlice" version="opset1">
			<data begin_mask="0" ellipsis_mask="0" end_mask="0" new_axis_mask="0" shrink_axis_mask="0"/>
			<rt_info>
				<attribute name="fused_names" value="up_sampling2d/resize/ResizeNearestNeighbor/StridedSlice" version="0"/>
			</rt_info>
			<input>
				<port id="0" precision="I64">
					<dim>4</dim>
				</port>
				<port id="1" precision="I64">
					<dim>1</dim>
				</port>
				<port id="2" precision="I64">
					<dim>1</dim>
				</port>
				<port id="3" precision="I64">
					<dim>1</dim>
				</port>
			</input>
			<output>
				<port id="4" precision="I64">
					<dim>2</dim>
				</port>
			</output>
		</layer>
		<layer id="199" name="1319" type="Convert" version="opset1">
			<data destination_type="f32"/>
			<rt_info>
				<attribute name="fused_names" value="1319" version="0"/>
			</rt_info>
			<input>
				<port id="0" precision="I64">
					<dim>2</dim>
				</port>
			</input>
			<output>
				<port id="1" precision="FP32">
					<dim>2</dim>
				</port>
			</output>
		</layer>
		<layer id="200" name="up_sampling2d/resize/ResizeNearestNeighbor/Div" type="Divide" version="opset1">
			<data auto_broadcast="numpy" m_pythondiv="true"/>
			<rt_info>
				<attribute name="fused_names" value="up_sampling2d/resize/ResizeNearestNeighbor/Div" version="0"/>
			</rt_info>
			<input>
				<port id="0" precision="FP32">
					<dim>2</dim>
				</port>
				<port id="1" precision="FP32">
					<dim>2</dim>
				</port>
			</input>
			<output>
				<port id="2" precision="FP32">
					<dim>2</dim>
				</port>
			</output>
		</layer>
		<layer id="201" name="1384719682" type="Const" version="opset1">
			<data element_type="i64" offset="23850588" shape="2" size="16"/>
			<rt_info>
				<attribute name="fused_names" value="1384719682" version="0"/>
			</rt_info>
			<output>
				<port id="0" precision="I64">
					<dim>2</dim>
				</port>
			</output>
		</layer>
		<layer id="202" name="up_sampling2d/resize/ResizeNearestNeighbor" type="Interpolate" version="opset4">
			<data antialias="false" coordinate_transformation_mode="tf_half_pixel_for_nn" cube_coeff="-0.75" mode="nearest" nearest_mode="floor" pads_begin="0, 0, 0, 0" pads_end="0, 0, 0, 0" shape_calculation_mode="sizes"/>
			<rt_info>
				<attribute name="fused_names" value="up_sampling2d/resize/ResizeNearestNeighbor" version="0"/>
			</rt_info>
			<input>
				<port id="0" precision="FP32">
					<dim>1</dim>
					<dim>256</dim>
					<dim>30</dim>
					<dim>30</dim>
				</port>
				<port id="1" precision="I64">
					<dim>2</dim>
				</port>
				<port id="2" precision="FP32">
					<dim>2</dim>
				</port>
				<port id="3" precision="I64">
					<dim>2</dim>
				</port>
			</input>
			<output>
				<port id="4" names="up_sampling2d/resize/ResizeNearestNeighbor:0" precision="FP32">
					<dim>1</dim>
					<dim>256</dim>
					<dim>60</dim>
					<dim>60</dim>
				</port>
			</output>
		</layer>
		<layer id="203" name="concatenate/concat" type="Concat" version="opset1">
			<data axis="1"/>
			<rt_info>
				<attribute name="fused_names" value="concatenate/concat" version="0"/>
			</rt_info>
			<input>
				<port id="0" precision="FP32">
					<dim>1</dim>
					<dim>256</dim>
					<dim>60</dim>
					<dim>60</dim>
				</port>
				<port id="1" precision="FP32">
					<dim>1</dim>
					<dim>512</dim>
					<dim>60</dim>
					<dim>60</dim>
				</port>
			</input>
			<output>
				<port id="2" names="concatenate/concat:0" precision="FP32">
					<dim>1</dim>
					<dim>768</dim>
					<dim>60</dim>
					<dim>60</dim>
				</port>
			</output>
		</layer>
		<layer id="204" name="sync_batch_normalization_4/batchnorm/mul_1_copy" type="Const" version="opset1">
			<data element_type="f32" offset="23850604" shape="256, 768, 1, 1" size="786432"/>
			<rt_info>
				<attribute name="fused_names" value="sync_batch_normalization_4/batchnorm/mul_1_copy" version="0"/>
			</rt_info>
			<output>
				<port id="0" names="conv2d_4/Conv2D/ReadVariableOp:0" precision="FP32">
					<dim>256</dim>
					<dim>768</dim>
					<dim>1</dim>
					<dim>1</dim>
				</port>
			</output>
		</layer>
		<layer id="205" name="conv2d_4/Conv2D" type="Convolution" version="opset1">
			<data auto_pad="same_upper" dilations="1, 1" pads_begin="0, 0" pads_end="0, 0" strides="1, 1"/>
			<rt_info>
				<attribute name="fused_names" value="conv2d_4/Conv2D" version="0"/>
			</rt_info>
			<input>
				<port id="0" precision="FP32">
					<dim>1</dim>
					<dim>768</dim>
					<dim>60</dim>
					<dim>60</dim>
				</port>
				<port id="1" precision="FP32">
					<dim>256</dim>
					<dim>768</dim>
					<dim>1</dim>
					<dim>1</dim>
				</port>
			</input>
			<output>
				<port id="2" names="sync_batch_normalization_4/batchnorm/mul_1:0" precision="FP32">
					<dim>1</dim>
					<dim>256</dim>
					<dim>60</dim>
					<dim>60</dim>
				</port>
			</output>
		</layer>
		<layer id="206" name="sync_batch_normalization_4/batchnorm/sub" type="Const" version="opset1">
			<data element_type="f32" offset="24637036" shape="1, 256, 1, 1" size="1024"/>
			<rt_info>
				<attribute name="fused_names" value="sync_batch_normalization_4/batchnorm/sub" version="0"/>
			</rt_info>
			<output>
				<port id="0" names="sync_batch_normalization_4/batchnorm/sub:0" precision="FP32">
					<dim>1</dim>
					<dim>256</dim>
					<dim>1</dim>
					<dim>1</dim>
				</port>
			</output>
		</layer>
		<layer id="207" name="sync_batch_normalization_4/batchnorm/add_1" type="Add" version="opset1">
			<data auto_broadcast="numpy"/>
			<rt_info>
				<attribute name="fused_names" value="sync_batch_normalization_4/batchnorm/add_1" version="0"/>
			</rt_info>
			<input>
				<port id="0" precision="FP32">
					<dim>1</dim>
					<dim>256</dim>
					<dim>60</dim>
					<dim>60</dim>
				</port>
				<port id="1" precision="FP32">
					<dim>1</dim>
					<dim>256</dim>
					<dim>1</dim>
					<dim>1</dim>
				</port>
			</input>
			<output>
				<port id="2" names="sync_batch_normalization_4/batchnorm/add_1:0" precision="FP32">
					<dim>1</dim>
					<dim>256</dim>
					<dim>60</dim>
					<dim>60</dim>
				</port>
			</output>
		</layer>
		<layer id="208" name="leaky_re_lu_4/LeakyRelu/weights1454419694" type="Const" version="opset1">
			<data element_type="f32" offset="14883360" shape="1" size="4"/>
			<rt_info>
				<attribute name="fused_names" value="leaky_re_lu_4/LeakyRelu/weights1454419694" version="0"/>
			</rt_info>
			<output>
				<port id="0" precision="FP32">
					<dim>1</dim>
				</port>
			</output>
		</layer>
		<layer id="209" name="leaky_re_lu_4/LeakyRelu" type="PReLU" version="opset1">
			<rt_info>
				<attribute name="fused_names" value="leaky_re_lu_4/LeakyRelu" version="0"/>
			</rt_info>
			<input>
				<port id="0" precision="FP32">
					<dim>1</dim>
					<dim>256</dim>
					<dim>60</dim>
					<dim>60</dim>
				</port>
				<port id="1" precision="FP32">
					<dim>1</dim>
				</port>
			</input>
			<output>
				<port id="2" names="leaky_re_lu_4/LeakyRelu:0" precision="FP32">
					<dim>1</dim>
					<dim>256</dim>
					<dim>60</dim>
					<dim>60</dim>
				</port>
			</output>
		</layer>
		<layer id="210" name="conv_dw_pred_2_1_bn/batchnorm/mul_1/Fused_Mul__copy" type="Const" version="opset1">
			<data element_type="f32" offset="24638060" shape="256, 1, 1, 3, 3" size="9216"/>
			<rt_info>
				<attribute name="fused_names" value="conv_dw_pred_2_1_bn/batchnorm/mul_1/Fused_Mul__copy" version="0"/>
			</rt_info>
			<output>
				<port id="0" names="conv_dw_pred_2_1/depthwise/ReadVariableOp:0" precision="FP32">
					<dim>256</dim>
					<dim>1</dim>
					<dim>1</dim>
					<dim>3</dim>
					<dim>3</dim>
				</port>
			</output>
		</layer>
		<layer id="211" name="conv_dw_pred_2_1/depthwise" type="GroupConvolution" version="opset1">
			<data auto_pad="same_upper" dilations="1, 1" pads_begin="0, 0" pads_end="0, 0" strides="1, 1"/>
			<rt_info>
				<attribute name="fused_names" value="conv_dw_pred_2_1/depthwise" version="0"/>
			</rt_info>
			<input>
				<port id="0" precision="FP32">
					<dim>1</dim>
					<dim>256</dim>
					<dim>60</dim>
					<dim>60</dim>
				</port>
				<port id="1" precision="FP32">
					<dim>256</dim>
					<dim>1</dim>
					<dim>1</dim>
					<dim>3</dim>
					<dim>3</dim>
				</port>
			</input>
			<output>
				<port id="2" precision="FP32">
					<dim>1</dim>
					<dim>256</dim>
					<dim>60</dim>
					<dim>60</dim>
				</port>
			</output>
		</layer>
		<layer id="212" name="data_add_1002510030" type="Const" version="opset1">
			<data element_type="f32" offset="24647276" shape="1, 256, 1, 1" size="1024"/>
			<rt_info>
				<attribute name="fused_names" value="data_add_1002510030" version="0"/>
			</rt_info>
			<output>
				<port id="0" precision="FP32">
					<dim>1</dim>
					<dim>256</dim>
					<dim>1</dim>
					<dim>1</dim>
				</port>
			</output>
		</layer>
		<layer id="213" name="conv_dw_pred_2_1/BiasAdd/Add/Fused_Add_" type="Add" version="opset1">
			<data auto_broadcast="numpy"/>
			<rt_info>
				<attribute name="fused_names" value="conv_dw_pred_2_1/BiasAdd/Add/Fused_Add_" version="0"/>
			</rt_info>
			<input>
				<port id="0" precision="FP32">
					<dim>1</dim>
					<dim>256</dim>
					<dim>60</dim>
					<dim>60</dim>
				</port>
				<port id="1" precision="FP32">
					<dim>1</dim>
					<dim>256</dim>
					<dim>1</dim>
					<dim>1</dim>
				</port>
			</input>
			<output>
				<port id="2" names="conv_dw_pred_2_1_bn/batchnorm/add_1:0" precision="FP32">
					<dim>1</dim>
					<dim>256</dim>
					<dim>60</dim>
					<dim>60</dim>
				</port>
			</output>
		</layer>
		<layer id="214" name="conv_dw_pred_2_1_leaky_relu/LeakyRelu/weights1452419961" type="Const" version="opset1">
			<data element_type="f32" offset="14883360" shape="1" size="4"/>
			<rt_info>
				<attribute name="fused_names" value="conv_dw_pred_2_1_leaky_relu/LeakyRelu/weights1452419961" version="0"/>
			</rt_info>
			<output>
				<port id="0" precision="FP32">
					<dim>1</dim>
				</port>
			</output>
		</layer>
		<layer id="215" name="conv_dw_pred_2_1_leaky_relu/LeakyRelu" type="PReLU" version="opset1">
			<rt_info>
				<attribute name="fused_names" value="conv_dw_pred_2_1_leaky_relu/LeakyRelu" version="0"/>
			</rt_info>
			<input>
				<port id="0" precision="FP32">
					<dim>1</dim>
					<dim>256</dim>
					<dim>60</dim>
					<dim>60</dim>
				</port>
				<port id="1" precision="FP32">
					<dim>1</dim>
				</port>
			</input>
			<output>
				<port id="2" names="conv_dw_pred_2_1_leaky_relu/LeakyRelu:0" precision="FP32">
					<dim>1</dim>
					<dim>256</dim>
					<dim>60</dim>
					<dim>60</dim>
				</port>
			</output>
		</layer>
		<layer id="216" name="conv_pw_pred_2_1_bn/batchnorm/mul_1_copy" type="Const" version="opset1">
			<data element_type="f32" offset="24648300" shape="512, 256, 1, 1" size="524288"/>
			<rt_info>
				<attribute name="fused_names" value="conv_pw_pred_2_1_bn/batchnorm/mul_1_copy" version="0"/>
			</rt_info>
			<output>
				<port id="0" names="conv_pw_pred_2_1/Conv2D/ReadVariableOp:0" precision="FP32">
					<dim>512</dim>
					<dim>256</dim>
					<dim>1</dim>
					<dim>1</dim>
				</port>
			</output>
		</layer>
		<layer id="217" name="conv_pw_pred_2_1/Conv2D" type="Convolution" version="opset1">
			<data auto_pad="same_upper" dilations="1, 1" pads_begin="0, 0" pads_end="0, 0" strides="1, 1"/>
			<rt_info>
				<attribute name="fused_names" value="conv_pw_pred_2_1/Conv2D" version="0"/>
			</rt_info>
			<input>
				<port id="0" precision="FP32">
					<dim>1</dim>
					<dim>256</dim>
					<dim>60</dim>
					<dim>60</dim>
				</port>
				<port id="1" precision="FP32">
					<dim>512</dim>
					<dim>256</dim>
					<dim>1</dim>
					<dim>1</dim>
				</port>
			</input>
			<output>
				<port id="2" names="conv_pw_pred_2_1_bn/batchnorm/mul_1:0" precision="FP32">
					<dim>1</dim>
					<dim>512</dim>
					<dim>60</dim>
					<dim>60</dim>
				</port>
			</output>
		</layer>
		<layer id="218" name="conv_pw_pred_2_1_bn/batchnorm/sub" type="Const" version="opset1">
			<data element_type="f32" offset="25172588" shape="1, 512, 1, 1" size="2048"/>
			<rt_info>
				<attribute name="fused_names" value="conv_pw_pred_2_1_bn/batchnorm/sub" version="0"/>
			</rt_info>
			<output>
				<port id="0" names="conv_pw_pred_2_1_bn/batchnorm/sub:0" precision="FP32">
					<dim>1</dim>
					<dim>512</dim>
					<dim>1</dim>
					<dim>1</dim>
				</port>
			</output>
		</layer>
		<layer id="219" name="conv_pw_pred_2_1_bn/batchnorm/add_1" type="Add" version="opset1">
			<data auto_broadcast="numpy"/>
			<rt_info>
				<attribute name="fused_names" value="conv_pw_pred_2_1_bn/batchnorm/add_1" version="0"/>
			</rt_info>
			<input>
				<port id="0" precision="FP32">
					<dim>1</dim>
					<dim>512</dim>
					<dim>60</dim>
					<dim>60</dim>
				</port>
				<port id="1" precision="FP32">
					<dim>1</dim>
					<dim>512</dim>
					<dim>1</dim>
					<dim>1</dim>
				</port>
			</input>
			<output>
				<port id="2" names="conv_pw_pred_2_1_bn/batchnorm/add_1:0" precision="FP32">
					<dim>1</dim>
					<dim>512</dim>
					<dim>60</dim>
					<dim>60</dim>
				</port>
			</output>
		</layer>
		<layer id="220" name="conv_pw_pred_2_1_leaky_relu/LeakyRelu/weights1450419955" type="Const" version="opset1">
			<data element_type="f32" offset="14883360" shape="1" size="4"/>
			<rt_info>
				<attribute name="fused_names" value="conv_pw_pred_2_1_leaky_relu/LeakyRelu/weights1450419955" version="0"/>
			</rt_info>
			<output>
				<port id="0" precision="FP32">
					<dim>1</dim>
				</port>
			</output>
		</layer>
		<layer id="221" name="conv_pw_pred_2_1_leaky_relu/LeakyRelu" type="PReLU" version="opset1">
			<rt_info>
				<attribute name="fused_names" value="conv_pw_pred_2_1_leaky_relu/LeakyRelu" version="0"/>
			</rt_info>
			<input>
				<port id="0" precision="FP32">
					<dim>1</dim>
					<dim>512</dim>
					<dim>60</dim>
					<dim>60</dim>
				</port>
				<port id="1" precision="FP32">
					<dim>1</dim>
				</port>
			</input>
			<output>
				<port id="2" names="conv_pw_pred_2_1_leaky_relu/LeakyRelu:0" precision="FP32">
					<dim>1</dim>
					<dim>512</dim>
					<dim>60</dim>
					<dim>60</dim>
				</port>
			</output>
		</layer>
		<layer id="222" name="sync_batch_normalization_5/batchnorm/mul_1_copy" type="Const" version="opset1">
			<data element_type="f32" offset="25174636" shape="256, 512, 1, 1" size="524288"/>
			<rt_info>
				<attribute name="fused_names" value="sync_batch_normalization_5/batchnorm/mul_1_copy" version="0"/>
			</rt_info>
			<output>
				<port id="0" names="conv2d_5/Conv2D/ReadVariableOp:0" precision="FP32">
					<dim>256</dim>
					<dim>512</dim>
					<dim>1</dim>
					<dim>1</dim>
				</port>
			</output>
		</layer>
		<layer id="223" name="conv2d_5/Conv2D" type="Convolution" version="opset1">
			<data auto_pad="same_upper" dilations="1, 1" pads_begin="0, 0" pads_end="0, 0" strides="1, 1"/>
			<rt_info>
				<attribute name="fused_names" value="conv2d_5/Conv2D" version="0"/>
			</rt_info>
			<input>
				<port id="0" precision="FP32">
					<dim>1</dim>
					<dim>512</dim>
					<dim>60</dim>
					<dim>60</dim>
				</port>
				<port id="1" precision="FP32">
					<dim>256</dim>
					<dim>512</dim>
					<dim>1</dim>
					<dim>1</dim>
				</port>
			</input>
			<output>
				<port id="2" names="sync_batch_normalization_5/batchnorm/mul_1:0" precision="FP32">
					<dim>1</dim>
					<dim>256</dim>
					<dim>60</dim>
					<dim>60</dim>
				</port>
			</output>
		</layer>
		<layer id="224" name="sync_batch_normalization_5/batchnorm/sub" type="Const" version="opset1">
			<data element_type="f32" offset="25698924" shape="1, 256, 1, 1" size="1024"/>
			<rt_info>
				<attribute name="fused_names" value="sync_batch_normalization_5/batchnorm/sub" version="0"/>
			</rt_info>
			<output>
				<port id="0" names="sync_batch_normalization_5/batchnorm/sub:0" precision="FP32">
					<dim>1</dim>
					<dim>256</dim>
					<dim>1</dim>
					<dim>1</dim>
				</port>
			</output>
		</layer>
		<layer id="225" name="sync_batch_normalization_5/batchnorm/add_1" type="Add" version="opset1">
			<data auto_broadcast="numpy"/>
			<rt_info>
				<attribute name="fused_names" value="sync_batch_normalization_5/batchnorm/add_1" version="0"/>
			</rt_info>
			<input>
				<port id="0" precision="FP32">
					<dim>1</dim>
					<dim>256</dim>
					<dim>60</dim>
					<dim>60</dim>
				</port>
				<port id="1" precision="FP32">
					<dim>1</dim>
					<dim>256</dim>
					<dim>1</dim>
					<dim>1</dim>
				</port>
			</input>
			<output>
				<port id="2" names="sync_batch_normalization_5/batchnorm/add_1:0" precision="FP32">
					<dim>1</dim>
					<dim>256</dim>
					<dim>60</dim>
					<dim>60</dim>
				</port>
			</output>
		</layer>
		<layer id="226" name="leaky_re_lu_5/LeakyRelu/weights1457619520" type="Const" version="opset1">
			<data element_type="f32" offset="14883360" shape="1" size="4"/>
			<rt_info>
				<attribute name="fused_names" value="leaky_re_lu_5/LeakyRelu/weights1457619520" version="0"/>
			</rt_info>
			<output>
				<port id="0" precision="FP32">
					<dim>1</dim>
				</port>
			</output>
		</layer>
		<layer id="227" name="leaky_re_lu_5/LeakyRelu" type="PReLU" version="opset1">
			<rt_info>
				<attribute name="fused_names" value="leaky_re_lu_5/LeakyRelu" version="0"/>
			</rt_info>
			<input>
				<port id="0" precision="FP32">
					<dim>1</dim>
					<dim>256</dim>
					<dim>60</dim>
					<dim>60</dim>
				</port>
				<port id="1" precision="FP32">
					<dim>1</dim>
				</port>
			</input>
			<output>
				<port id="2" names="leaky_re_lu_5/LeakyRelu:0" precision="FP32">
					<dim>1</dim>
					<dim>256</dim>
					<dim>60</dim>
					<dim>60</dim>
				</port>
			</output>
		</layer>
		<layer id="228" name="conv_dw_pred_2_2_bn/batchnorm/mul_1/Fused_Mul__copy" type="Const" version="opset1">
			<data element_type="f32" offset="25699948" shape="256, 1, 1, 3, 3" size="9216"/>
			<rt_info>
				<attribute name="fused_names" value="conv_dw_pred_2_2_bn/batchnorm/mul_1/Fused_Mul__copy" version="0"/>
			</rt_info>
			<output>
				<port id="0" names="conv_dw_pred_2_2/depthwise/ReadVariableOp:0" precision="FP32">
					<dim>256</dim>
					<dim>1</dim>
					<dim>1</dim>
					<dim>3</dim>
					<dim>3</dim>
				</port>
			</output>
		</layer>
		<layer id="229" name="conv_dw_pred_2_2/depthwise" type="GroupConvolution" version="opset1">
			<data auto_pad="same_upper" dilations="1, 1" pads_begin="0, 0" pads_end="0, 0" strides="1, 1"/>
			<rt_info>
				<attribute name="fused_names" value="conv_dw_pred_2_2/depthwise" version="0"/>
			</rt_info>
			<input>
				<port id="0" precision="FP32">
					<dim>1</dim>
					<dim>256</dim>
					<dim>60</dim>
					<dim>60</dim>
				</port>
				<port id="1" precision="FP32">
					<dim>256</dim>
					<dim>1</dim>
					<dim>1</dim>
					<dim>3</dim>
					<dim>3</dim>
				</port>
			</input>
			<output>
				<port id="2" precision="FP32">
					<dim>1</dim>
					<dim>256</dim>
					<dim>60</dim>
					<dim>60</dim>
				</port>
			</output>
		</layer>
		<layer id="230" name="data_add_1003310038" type="Const" version="opset1">
			<data element_type="f32" offset="25709164" shape="1, 256, 1, 1" size="1024"/>
			<rt_info>
				<attribute name="fused_names" value="data_add_1003310038" version="0"/>
			</rt_info>
			<output>
				<port id="0" precision="FP32">
					<dim>1</dim>
					<dim>256</dim>
					<dim>1</dim>
					<dim>1</dim>
				</port>
			</output>
		</layer>
		<layer id="231" name="conv_dw_pred_2_2/BiasAdd/Add/Fused_Add_" type="Add" version="opset1">
			<data auto_broadcast="numpy"/>
			<rt_info>
				<attribute name="fused_names" value="conv_dw_pred_2_2/BiasAdd/Add/Fused_Add_" version="0"/>
			</rt_info>
			<input>
				<port id="0" precision="FP32">
					<dim>1</dim>
					<dim>256</dim>
					<dim>60</dim>
					<dim>60</dim>
				</port>
				<port id="1" precision="FP32">
					<dim>1</dim>
					<dim>256</dim>
					<dim>1</dim>
					<dim>1</dim>
				</port>
			</input>
			<output>
				<port id="2" names="conv_dw_pred_2_2_bn/batchnorm/add_1:0" precision="FP32">
					<dim>1</dim>
					<dim>256</dim>
					<dim>60</dim>
					<dim>60</dim>
				</port>
			</output>
		</layer>
		<layer id="232" name="conv_dw_pred_2_2_leaky_relu/LeakyRelu/weights1456819625" type="Const" version="opset1">
			<data element_type="f32" offset="14883360" shape="1" size="4"/>
			<rt_info>
				<attribute name="fused_names" value="conv_dw_pred_2_2_leaky_relu/LeakyRelu/weights1456819625" version="0"/>
			</rt_info>
			<output>
				<port id="0" precision="FP32">
					<dim>1</dim>
				</port>
			</output>
		</layer>
		<layer id="233" name="conv_dw_pred_2_2_leaky_relu/LeakyRelu" type="PReLU" version="opset1">
			<rt_info>
				<attribute name="fused_names" value="conv_dw_pred_2_2_leaky_relu/LeakyRelu" version="0"/>
			</rt_info>
			<input>
				<port id="0" precision="FP32">
					<dim>1</dim>
					<dim>256</dim>
					<dim>60</dim>
					<dim>60</dim>
				</port>
				<port id="1" precision="FP32">
					<dim>1</dim>
				</port>
			</input>
			<output>
				<port id="2" names="conv_dw_pred_2_2_leaky_relu/LeakyRelu:0" precision="FP32">
					<dim>1</dim>
					<dim>256</dim>
					<dim>60</dim>
					<dim>60</dim>
				</port>
			</output>
		</layer>
		<layer id="234" name="conv_pw_pred_2_2_bn/batchnorm/mul_1_copy" type="Const" version="opset1">
			<data element_type="f32" offset="25710188" shape="512, 256, 1, 1" size="524288"/>
			<rt_info>
				<attribute name="fused_names" value="conv_pw_pred_2_2_bn/batchnorm/mul_1_copy" version="0"/>
			</rt_info>
			<output>
				<port id="0" names="conv_pw_pred_2_2/Conv2D/ReadVariableOp:0" precision="FP32">
					<dim>512</dim>
					<dim>256</dim>
					<dim>1</dim>
					<dim>1</dim>
				</port>
			</output>
		</layer>
		<layer id="235" name="conv_pw_pred_2_2/Conv2D" type="Convolution" version="opset1">
			<data auto_pad="same_upper" dilations="1, 1" pads_begin="0, 0" pads_end="0, 0" strides="1, 1"/>
			<rt_info>
				<attribute name="fused_names" value="conv_pw_pred_2_2/Conv2D" version="0"/>
			</rt_info>
			<input>
				<port id="0" precision="FP32">
					<dim>1</dim>
					<dim>256</dim>
					<dim>60</dim>
					<dim>60</dim>
				</port>
				<port id="1" precision="FP32">
					<dim>512</dim>
					<dim>256</dim>
					<dim>1</dim>
					<dim>1</dim>
				</port>
			</input>
			<output>
				<port id="2" names="conv_pw_pred_2_2_bn/batchnorm/mul_1:0" precision="FP32">
					<dim>1</dim>
					<dim>512</dim>
					<dim>60</dim>
					<dim>60</dim>
				</port>
			</output>
		</layer>
		<layer id="236" name="conv_pw_pred_2_2_bn/batchnorm/sub" type="Const" version="opset1">
			<data element_type="f32" offset="26234476" shape="1, 512, 1, 1" size="2048"/>
			<rt_info>
				<attribute name="fused_names" value="conv_pw_pred_2_2_bn/batchnorm/sub" version="0"/>
			</rt_info>
			<output>
				<port id="0" names="conv_pw_pred_2_2_bn/batchnorm/sub:0" precision="FP32">
					<dim>1</dim>
					<dim>512</dim>
					<dim>1</dim>
					<dim>1</dim>
				</port>
			</output>
		</layer>
		<layer id="237" name="conv_pw_pred_2_2_bn/batchnorm/add_1" type="Add" version="opset1">
			<data auto_broadcast="numpy"/>
			<rt_info>
				<attribute name="fused_names" value="conv_pw_pred_2_2_bn/batchnorm/add_1" version="0"/>
			</rt_info>
			<input>
				<port id="0" precision="FP32">
					<dim>1</dim>
					<dim>512</dim>
					<dim>60</dim>
					<dim>60</dim>
				</port>
				<port id="1" precision="FP32">
					<dim>1</dim>
					<dim>512</dim>
					<dim>1</dim>
					<dim>1</dim>
				</port>
			</input>
			<output>
				<port id="2" names="conv_pw_pred_2_2_bn/batchnorm/add_1:0" precision="FP32">
					<dim>1</dim>
					<dim>512</dim>
					<dim>60</dim>
					<dim>60</dim>
				</port>
			</output>
		</layer>
		<layer id="238" name="conv_pw_pred_2_2_leaky_relu/LeakyRelu/weights1461619511" type="Const" version="opset1">
			<data element_type="f32" offset="14883360" shape="1" size="4"/>
			<rt_info>
				<attribute name="fused_names" value="conv_pw_pred_2_2_leaky_relu/LeakyRelu/weights1461619511" version="0"/>
			</rt_info>
			<output>
				<port id="0" precision="FP32">
					<dim>1</dim>
				</port>
			</output>
		</layer>
		<layer id="239" name="conv_pw_pred_2_2_leaky_relu/LeakyRelu" type="PReLU" version="opset1">
			<rt_info>
				<attribute name="fused_names" value="conv_pw_pred_2_2_leaky_relu/LeakyRelu" version="0"/>
			</rt_info>
			<input>
				<port id="0" precision="FP32">
					<dim>1</dim>
					<dim>512</dim>
					<dim>60</dim>
					<dim>60</dim>
				</port>
				<port id="1" precision="FP32">
					<dim>1</dim>
				</port>
			</input>
			<output>
				<port id="2" names="conv_pw_pred_2_2_leaky_relu/LeakyRelu:0" precision="FP32">
					<dim>1</dim>
					<dim>512</dim>
					<dim>60</dim>
					<dim>60</dim>
				</port>
			</output>
		</layer>
		<layer id="240" name="sync_batch_normalization_6/batchnorm/mul_1_copy" type="Const" version="opset1">
			<data element_type="f32" offset="26236524" shape="256, 512, 1, 1" size="524288"/>
			<rt_info>
				<attribute name="fused_names" value="sync_batch_normalization_6/batchnorm/mul_1_copy" version="0"/>
			</rt_info>
			<output>
				<port id="0" names="conv2d_6/Conv2D/ReadVariableOp:0" precision="FP32">
					<dim>256</dim>
					<dim>512</dim>
					<dim>1</dim>
					<dim>1</dim>
				</port>
			</output>
		</layer>
		<layer id="241" name="conv2d_6/Conv2D" type="Convolution" version="opset1">
			<data auto_pad="same_upper" dilations="1, 1" pads_begin="0, 0" pads_end="0, 0" strides="1, 1"/>
			<rt_info>
				<attribute name="fused_names" value="conv2d_6/Conv2D" version="0"/>
			</rt_info>
			<input>
				<port id="0" precision="FP32">
					<dim>1</dim>
					<dim>512</dim>
					<dim>60</dim>
					<dim>60</dim>
				</port>
				<port id="1" precision="FP32">
					<dim>256</dim>
					<dim>512</dim>
					<dim>1</dim>
					<dim>1</dim>
				</port>
			</input>
			<output>
				<port id="2" names="sync_batch_normalization_6/batchnorm/mul_1:0" precision="FP32">
					<dim>1</dim>
					<dim>256</dim>
					<dim>60</dim>
					<dim>60</dim>
				</port>
			</output>
		</layer>
		<layer id="242" name="sync_batch_normalization_6/batchnorm/sub" type="Const" version="opset1">
			<data element_type="f32" offset="26760812" shape="1, 256, 1, 1" size="1024"/>
			<rt_info>
				<attribute name="fused_names" value="sync_batch_normalization_6/batchnorm/sub" version="0"/>
			</rt_info>
			<output>
				<port id="0" names="sync_batch_normalization_6/batchnorm/sub:0" precision="FP32">
					<dim>1</dim>
					<dim>256</dim>
					<dim>1</dim>
					<dim>1</dim>
				</port>
			</output>
		</layer>
		<layer id="243" name="sync_batch_normalization_6/batchnorm/add_1" type="Add" version="opset1">
			<data auto_broadcast="numpy"/>
			<rt_info>
				<attribute name="fused_names" value="sync_batch_normalization_6/batchnorm/add_1" version="0"/>
			</rt_info>
			<input>
				<port id="0" precision="FP32">
					<dim>1</dim>
					<dim>256</dim>
					<dim>60</dim>
					<dim>60</dim>
				</port>
				<port id="1" precision="FP32">
					<dim>1</dim>
					<dim>256</dim>
					<dim>1</dim>
					<dim>1</dim>
				</port>
			</input>
			<output>
				<port id="2" names="sync_batch_normalization_6/batchnorm/add_1:0" precision="FP32">
					<dim>1</dim>
					<dim>256</dim>
					<dim>60</dim>
					<dim>60</dim>
				</port>
			</output>
		</layer>
		<layer id="244" name="leaky_re_lu_6/LeakyRelu/weights1455219562" type="Const" version="opset1">
			<data element_type="f32" offset="14883360" shape="1" size="4"/>
			<rt_info>
				<attribute name="fused_names" value="leaky_re_lu_6/LeakyRelu/weights1455219562" version="0"/>
			</rt_info>
			<output>
				<port id="0" precision="FP32">
					<dim>1</dim>
				</port>
			</output>
		</layer>
		<layer id="245" name="leaky_re_lu_6/LeakyRelu" type="PReLU" version="opset1">
			<rt_info>
				<attribute name="fused_names" value="leaky_re_lu_6/LeakyRelu" version="0"/>
			</rt_info>
			<input>
				<port id="0" precision="FP32">
					<dim>1</dim>
					<dim>256</dim>
					<dim>60</dim>
					<dim>60</dim>
				</port>
				<port id="1" precision="FP32">
					<dim>1</dim>
				</port>
			</input>
			<output>
				<port id="2" names="leaky_re_lu_6/LeakyRelu:0" precision="FP32">
					<dim>1</dim>
					<dim>256</dim>
					<dim>60</dim>
					<dim>60</dim>
				</port>
			</output>
		</layer>
		<layer id="246" name="sync_batch_normalization_7/batchnorm/mul_1_copy" type="Const" version="opset1">
			<data element_type="f32" offset="26761836" shape="128, 256, 1, 1" size="131072"/>
			<rt_info>
				<attribute name="fused_names" value="sync_batch_normalization_7/batchnorm/mul_1_copy" version="0"/>
			</rt_info>
			<output>
				<port id="0" names="conv2d_7/Conv2D/ReadVariableOp:0" precision="FP32">
					<dim>128</dim>
					<dim>256</dim>
					<dim>1</dim>
					<dim>1</dim>
				</port>
			</output>
		</layer>
		<layer id="247" name="conv2d_7/Conv2D" type="Convolution" version="opset1">
			<data auto_pad="same_upper" dilations="1, 1" pads_begin="0, 0" pads_end="0, 0" strides="1, 1"/>
			<rt_info>
				<attribute name="fused_names" value="conv2d_7/Conv2D" version="0"/>
			</rt_info>
			<input>
				<port id="0" precision="FP32">
					<dim>1</dim>
					<dim>256</dim>
					<dim>60</dim>
					<dim>60</dim>
				</port>
				<port id="1" precision="FP32">
					<dim>128</dim>
					<dim>256</dim>
					<dim>1</dim>
					<dim>1</dim>
				</port>
			</input>
			<output>
				<port id="2" names="sync_batch_normalization_7/batchnorm/mul_1:0" precision="FP32">
					<dim>1</dim>
					<dim>128</dim>
					<dim>60</dim>
					<dim>60</dim>
				</port>
			</output>
		</layer>
		<layer id="248" name="sync_batch_normalization_7/batchnorm/sub" type="Const" version="opset1">
			<data element_type="f32" offset="26892908" shape="1, 128, 1, 1" size="512"/>
			<rt_info>
				<attribute name="fused_names" value="sync_batch_normalization_7/batchnorm/sub" version="0"/>
			</rt_info>
			<output>
				<port id="0" names="sync_batch_normalization_7/batchnorm/sub:0" precision="FP32">
					<dim>1</dim>
					<dim>128</dim>
					<dim>1</dim>
					<dim>1</dim>
				</port>
			</output>
		</layer>
		<layer id="249" name="sync_batch_normalization_7/batchnorm/add_1" type="Add" version="opset1">
			<data auto_broadcast="numpy"/>
			<rt_info>
				<attribute name="fused_names" value="sync_batch_normalization_7/batchnorm/add_1" version="0"/>
			</rt_info>
			<input>
				<port id="0" precision="FP32">
					<dim>1</dim>
					<dim>128</dim>
					<dim>60</dim>
					<dim>60</dim>
				</port>
				<port id="1" precision="FP32">
					<dim>1</dim>
					<dim>128</dim>
					<dim>1</dim>
					<dim>1</dim>
				</port>
			</input>
			<output>
				<port id="2" names="sync_batch_normalization_7/batchnorm/add_1:0" precision="FP32">
					<dim>1</dim>
					<dim>128</dim>
					<dim>60</dim>
					<dim>60</dim>
				</port>
			</output>
		</layer>
		<layer id="250" name="leaky_re_lu_7/LeakyRelu/weights1458419580" type="Const" version="opset1">
			<data element_type="f32" offset="14883360" shape="1" size="4"/>
			<rt_info>
				<attribute name="fused_names" value="leaky_re_lu_7/LeakyRelu/weights1458419580" version="0"/>
			</rt_info>
			<output>
				<port id="0" precision="FP32">
					<dim>1</dim>
				</port>
			</output>
		</layer>
		<layer id="251" name="leaky_re_lu_7/LeakyRelu" type="PReLU" version="opset1">
			<rt_info>
				<attribute name="fused_names" value="leaky_re_lu_7/LeakyRelu" version="0"/>
			</rt_info>
			<input>
				<port id="0" precision="FP32">
					<dim>1</dim>
					<dim>128</dim>
					<dim>60</dim>
					<dim>60</dim>
				</port>
				<port id="1" precision="FP32">
					<dim>1</dim>
				</port>
			</input>
			<output>
				<port id="2" names="leaky_re_lu_7/LeakyRelu:0" precision="FP32">
					<dim>1</dim>
					<dim>128</dim>
					<dim>60</dim>
					<dim>60</dim>
				</port>
			</output>
		</layer>
		<layer id="252" name="conv_pw_5_relu/Relu6/Shape" type="ShapeOf" version="opset3">
			<data output_type="i64"/>
			<rt_info>
				<attribute name="fused_names" value="conv_pw_5_relu/Relu6/Shape" version="0"/>
			</rt_info>
			<input>
				<port id="0" precision="FP32">
					<dim>1</dim>
					<dim>256</dim>
					<dim>120</dim>
					<dim>120</dim>
				</port>
			</input>
			<output>
				<port id="1" precision="I64">
					<dim>4</dim>
				</port>
			</output>
		</layer>
		<layer id="253" name="conv_pw_5_relu/Relu6/Shape/Gathered_input_port_1/value1485519841" type="Const" version="opset1">
			<data element_type="i32" offset="23850532" shape="2" size="8"/>
			<rt_info>
				<attribute name="fused_names" value="conv_pw_5_relu/Relu6/Shape/Gathered_input_port_1/value1485519841" version="0"/>
			</rt_info>
			<output>
				<port id="0" precision="I32">
					<dim>2</dim>
				</port>
			</output>
		</layer>
		<layer id="254" name="conv_pw_5_relu/Relu6/Shape/Gathered_input_port_2/value1485719817" type="Const" version="opset1">
			<data element_type="i64" offset="23850540" shape="" size="8"/>
			<rt_info>
				<attribute name="fused_names" value="conv_pw_5_relu/Relu6/Shape/Gathered_input_port_2/value1485719817" version="0"/>
			</rt_info>
			<output>
				<port id="0" precision="I64"/>
			</output>
		</layer>
		<layer id="255" name="conv_pw_5_relu/Relu6/Shape/Gathered" type="Gather" version="opset8">
			<data batch_dims="0"/>
			<rt_info>
				<attribute name="fused_names" value="conv_pw_5_relu/Relu6/Shape/Gathered, conv_pw_5_relu/Relu6/Shape/Gathered_input_port_1/value1485519841, conv_pw_5_relu/Relu6/Shape/Gathered_input_port_2/value1485719817" version="0"/>
			</rt_info>
			<input>
				<port id="0" precision="I64">
					<dim>4</dim>
				</port>
				<port id="1" precision="I32">
					<dim>2</dim>
				</port>
				<port id="2" precision="I64"/>
			</input>
			<output>
				<port id="3" names="up_sampling2d_1/mul:0" precision="I64">
					<dim>2</dim>
				</port>
			</output>
		</layer>
		<layer id="256" name="1330" type="Const" version="opset1">
			<data element_type="f32" offset="26893420" shape="2" size="8"/>
			<rt_info>
				<attribute name="fused_names" value="1330" version="0"/>
			</rt_info>
			<output>
				<port id="0" precision="FP32">
					<dim>2</dim>
				</port>
			</output>
		</layer>
		<layer id="257" name="up_sampling2d_1/resize/ResizeNearestNeighbor/shapeof" type="ShapeOf" version="opset3">
			<data output_type="i64"/>
			<rt_info>
				<attribute name="fused_names" value="up_sampling2d_1/resize/ResizeNearestNeighbor/shapeof" version="0"/>
			</rt_info>
			<input>
				<port id="0" precision="FP32">
					<dim>1</dim>
					<dim>128</dim>
					<dim>60</dim>
					<dim>60</dim>
				</port>
			</input>
			<output>
				<port id="1" precision="I64">
…
		<layer id="321" name="conv_pw_pred_3_3_bn/batchnorm/add_1" type="Add" version="opset1">
			<data auto_broadcast="numpy"/>
			<rt_info>
				<attribute name="fused_names" value="conv_pw_pred_3_3_bn/batchnorm/add_1" version="0"/>
			</rt_info>
			<input>
				<port id="0" precision="FP32">
					<dim>1</dim>
					<dim>256</dim>
					<dim>120</dim>
					<dim>120</dim>
				</port>
				<port id="1" precision="FP32">
					<dim>1</dim>
					<dim>256</dim>
					<dim>1</dim>
					<dim>1</dim>
				</port>
			</input>
			<output>
				<port id="2" names="conv_pw_pred_3_3_bn/batchnorm/add_1:0" precision="FP32">
					<dim>1</dim>
					<dim>256</dim>
					<dim>120</dim>
					<dim>120</dim>
				</port>
			</output>
		</layer>
		<layer id="322" name="conv_pw_pred_3_3_leaky_relu/LeakyRelu/weights1453619715" type="Const" version="opset1">
			<data element_type="f32" offset="14883360" shape="1" size="4"/>
			<rt_info>
				<attribute name="fused_names" value="conv_pw_pred_3_3_leaky_relu/LeakyRelu/weights1453619715" version="0"/>
			</rt_info>
			<output>
				<port id="0" precision="FP32">
					<dim>1</dim>
				</port>
			</output>
		</layer>
		<layer id="323" name="conv_pw_pred_3_3_leaky_relu/LeakyRelu" type="PReLU" version="opset1">
			<rt_info>
				<attribute name="fused_names" value="conv_pw_pred_3_3_leaky_relu/LeakyRelu" version="0"/>
			</rt_info>
			<input>
				<port id="0" precision="FP32">
					<dim>1</dim>
					<dim>256</dim>
					<dim>120</dim>
					<dim>120</dim>
				</port>
				<port id="1" precision="FP32">
					<dim>1</dim>
				</port>
			</input>
			<output>
				<port id="2" names="conv_pw_pred_3_3_leaky_relu/LeakyRelu:0" precision="FP32">
					<dim>1</dim>
					<dim>256</dim>
					<dim>120</dim>
					<dim>120</dim>
				</port>
			</output>
		</layer>
		<layer id="324" name="predict_conv_3/Conv2D/ReadVariableOp" type="Const" version="opset1">
			<data element_type="f32" offset="27765364" shape="27, 256, 1, 1" size="27648"/>
			<rt_info>
				<attribute name="fused_names" value="predict_conv_3/Conv2D/ReadVariableOp" version="0"/>
			</rt_info>
			<output>
				<port id="0" names="predict_conv_3/Conv2D/ReadVariableOp:0" precision="FP32">
					<dim>27</dim>
					<dim>256</dim>
					<dim>1</dim>
					<dim>1</dim>
				</port>
			</output>
		</layer>
		<layer id="325" name="predict_conv_3/Conv2D" type="Convolution" version="opset1">
			<data auto_pad="same_upper" dilations="1, 1" pads_begin="0, 0" pads_end="0, 0" strides="1, 1"/>
			<rt_info>
				<attribute name="fused_names" value="predict_conv_3/Conv2D" version="0"/>
			</rt_info>
			<input>
				<port id="0" precision="FP32">
					<dim>1</dim>
					<dim>256</dim>
					<dim>120</dim>
					<dim>120</dim>
				</port>
				<port id="1" precision="FP32">
					<dim>27</dim>
					<dim>256</dim>
					<dim>1</dim>
					<dim>1</dim>
				</port>
			</input>
			<output>
				<port id="2" names="predict_conv_3/Conv2D:0" precision="FP32">
					<dim>1</dim>
					<dim>27</dim>
					<dim>120</dim>
					<dim>120</dim>
				</port>
			</output>
		</layer>
		<layer id="326" name="predict_conv_3/Conv2D/YoloRegion" type="RegionYolo" version="opset1">
			<data anchors="10, 13, 16, 30, 33, 23, 30, 61, 62, 45, 59, 119, 116, 90, 156, 198, 373, 326" axis="1" classes="4" coords="4" do_softmax="false" end_axis="3" mask="0, 1, 2" num="9"/>
			<rt_info>
				<attribute name="fused_names" value="predict_conv_3/Conv2D/YoloRegion" version="0"/>
			</rt_info>
			<input>
				<port id="0" precision="FP32">
					<dim>1</dim>
					<dim>27</dim>
					<dim>120</dim>
					<dim>120</dim>
				</port>
			</input>
			<output>
				<port id="1" names="predict_conv_3/Conv2D/YoloRegion,predict_conv_3/Conv2D/YoloRegion:0" precision="FP32">
					<dim>1</dim>
					<dim>27</dim>
					<dim>120</dim>
					<dim>120</dim>
				</port>
			</output>
		</layer>
		<layer id="328" name="conv_dw_pred_2_3_bn/batchnorm/mul_1/Fused_Mul__copy" type="Const" version="opset1">
			<data element_type="f32" offset="27793012" shape="256, 1, 1, 3, 3" size="9216"/>
			<rt_info>
				<attribute name="fused_names" value="conv_dw_pred_2_3_bn/batchnorm/mul_1/Fused_Mul__copy" version="0"/>
			</rt_info>
			<output>
				<port id="0" names="conv_dw_pred_2_3/depthwise/ReadVariableOp:0" precision="FP32">
					<dim>256</dim>
					<dim>1</dim>
					<dim>1</dim>
					<dim>3</dim>
					<dim>3</dim>
				</port>
			</output>
		</layer>
		<layer id="329" name="conv_dw_pred_2_3/depthwise" type="GroupConvolution" version="opset1">
			<data auto_pad="same_upper" dilations="1, 1" pads_begin="0, 0" pads_end="0, 0" strides="1, 1"/>
			<rt_info>
				<attribute name="fused_names" value="conv_dw_pred_2_3/depthwise" version="0"/>
			</rt_info>
			<input>
				<port id="0" precision="FP32">
					<dim>1</dim>
					<dim>256</dim>
					<dim>60</dim>
					<dim>60</dim>
				</port>
				<port id="1" precision="FP32">
					<dim>256</dim>
					<dim>1</dim>
					<dim>1</dim>
					<dim>3</dim>
					<dim>3</dim>
				</port>
			</input>
			<output>
				<port id="2" precision="FP32">
					<dim>1</dim>
					<dim>256</dim>
					<dim>60</dim>
					<dim>60</dim>
				</port>
			</output>
		</layer>
		<layer id="330" name="data_add_1004110046" type="Const" version="opset1">
			<data element_type="f32" offset="27802228" shape="1, 256, 1, 1" size="1024"/>
			<rt_info>
				<attribute name="fused_names" value="data_add_1004110046" version="0"/>
			</rt_info>
			<output>
				<port id="0" precision="FP32">
					<dim>1</dim>
					<dim>256</dim>
					<dim>1</dim>
					<dim>1</dim>
				</port>
			</output>
		</layer>
		<layer id="331" name="conv_dw_pred_2_3/BiasAdd/Add/Fused_Add_" type="Add" version="opset1">
			<data auto_broadcast="numpy"/>
			<rt_info>
				<attribute name="fused_names" value="conv_dw_pred_2_3/BiasAdd/Add/Fused_Add_" version="0"/>
			</rt_info>
			<input>
				<port id="0" precision="FP32">
					<dim>1</dim>
					<dim>256</dim>
					<dim>60</dim>
					<dim>60</dim>
				</port>
				<port id="1" precision="FP32">
					<dim>1</dim>
					<dim>256</dim>
					<dim>1</dim>
					<dim>1</dim>
				</port>
			</input>
			<output>
				<port id="2" names="conv_dw_pred_2_3_bn/batchnorm/add_1:0" precision="FP32">
					<dim>1</dim>
					<dim>256</dim>
					<dim>60</dim>
					<dim>60</dim>
				</port>
			</output>
		</layer>
		<layer id="332" name="conv_dw_pred_2_3_leaky_relu/LeakyRelu/weights1451619658" type="Const" version="opset1">
			<data element_type="f32" offset="14883360" shape="1" size="4"/>
			<rt_info>
				<attribute name="fused_names" value="conv_dw_pred_2_3_leaky_relu/LeakyRelu/weights1451619658" version="0"/>
			</rt_info>
			<output>
				<port id="0" precision="FP32">
					<dim>1</dim>
				</port>
			</output>
		</layer>
		<layer id="333" name="conv_dw_pred_2_3_leaky_relu/LeakyRelu" type="PReLU" version="opset1">
			<rt_info>
				<attribute name="fused_names" value="conv_dw_pred_2_3_leaky_relu/LeakyRelu" version="0"/>
			</rt_info>
			<input>
				<port id="0" precision="FP32">
					<dim>1</dim>
					<dim>256</dim>
					<dim>60</dim>
					<dim>60</dim>
				</port>
				<port id="1" precision="FP32">
					<dim>1</dim>
				</port>
			</input>
			<output>
				<port id="2" names="conv_dw_pred_2_3_leaky_relu/LeakyRelu:0" precision="FP32">
					<dim>1</dim>
					<dim>256</dim>
					<dim>60</dim>
					<dim>60</dim>
				</port>
			</output>
		</layer>
		<layer id="334" name="conv_pw_pred_2_3_bn/batchnorm/mul_1_copy" type="Const" version="opset1">
			<data element_type="f32" offset="27803252" shape="512, 256, 1, 1" size="524288"/>
			<rt_info>
				<attribute name="fused_names" value="conv_pw_pred_2_3_bn/batchnorm/mul_1_copy" version="0"/>
			</rt_info>
			<output>
				<port id="0" names="conv_pw_pred_2_3/Conv2D/ReadVariableOp:0" precision="FP32">
					<dim>512</dim>
					<dim>256</dim>
					<dim>1</dim>
					<dim>1</dim>
				</port>
			</output>
		</layer>
		<layer id="335" name="conv_pw_pred_2_3/Conv2D" type="Convolution" version="opset1">
			<data auto_pad="same_upper" dilations="1, 1" pads_begin="0, 0" pads_end="0, 0" strides="1, 1"/>
			<rt_info>
				<attribute name="fused_names" value="conv_pw_pred_2_3/Conv2D" version="0"/>
			</rt_info>
			<input>
				<port id="0" precision="FP32">
					<dim>1</dim>
					<dim>256</dim>
					<dim>60</dim>
					<dim>60</dim>
				</port>
				<port id="1" precision="FP32">
					<dim>512</dim>
					<dim>256</dim>
					<dim>1</dim>
					<dim>1</dim>
				</port>
			</input>
			<output>
				<port id="2" names="conv_pw_pred_2_3_bn/batchnorm/mul_1:0" precision="FP32">
					<dim>1</dim>
					<dim>512</dim>
					<dim>60</dim>
					<dim>60</dim>
				</port>
			</output>
		</layer>
		<layer id="336" name="conv_pw_pred_2_3_bn/batchnorm/sub" type="Const" version="opset1">
			<data element_type="f32" offset="28327540" shape="1, 512, 1, 1" size="2048"/>
			<rt_info>
				<attribute name="fused_names" value="conv_pw_pred_2_3_bn/batchnorm/sub" version="0"/>
			</rt_info>
			<output>
				<port id="0" names="conv_pw_pred_2_3_bn/batchnorm/sub:0" precision="FP32">
					<dim>1</dim>
					<dim>512</dim>
					<dim>1</dim>
					<dim>1</dim>
				</port>
			</output>
		</layer>
		<layer id="337" name="conv_pw_pred_2_3_bn/batchnorm/add_1" type="Add" version="opset1">
			<data auto_broadcast="numpy"/>
			<rt_info>
				<attribute name="fused_names" value="conv_pw_pred_2_3_bn/batchnorm/add_1" version="0"/>
			</rt_info>
			<input>
				<port id="0" precision="FP32">
					<dim>1</dim>
					<dim>512</dim>
					<dim>60</dim>
					<dim>60</dim>
				</port>
				<port id="1" precision="FP32">
					<dim>1</dim>
					<dim>512</dim>
					<dim>1</dim>
					<dim>1</dim>
				</port>
			</input>
			<output>
				<port id="2" names="conv_pw_pred_2_3_bn/batchnorm/add_1:0" precision="FP32">
					<dim>1</dim>
					<dim>512</dim>
					<dim>60</dim>
					<dim>60</dim>
				</port>
			</output>
		</layer>
		<layer id="338" name="conv_pw_pred_2_3_leaky_relu/LeakyRelu/weights1450819517" type="Const" version="opset1">
			<data element_type="f32" offset="14883360" shape="1" size="4"/>
			<rt_info>
				<attribute name="fused_names" value="conv_pw_pred_2_3_leaky_relu/LeakyRelu/weights1450819517" version="0"/>
			</rt_info>
			<output>
				<port id="0" precision="FP32">
					<dim>1</dim>
				</port>
			</output>
		</layer>
		<layer id="339" name="conv_pw_pred_2_3_leaky_relu/LeakyRelu" type="PReLU" version="opset1">
			<rt_info>
				<attribute name="fused_names" value="conv_pw_pred_2_3_leaky_relu/LeakyRelu" version="0"/>
			</rt_info>
			<input>
				<port id="0" precision="FP32">
					<dim>1</dim>
					<dim>512</dim>
					<dim>60</dim>
					<dim>60</dim>
				</port>
				<port id="1" precision="FP32">
					<dim>1</dim>
				</port>
			</input>
			<output>
				<port id="2" names="conv_pw_pred_2_3_leaky_relu/LeakyRelu:0" precision="FP32">
					<dim>1</dim>
					<dim>512</dim>
					<dim>60</dim>
					<dim>60</dim>
				</port>
			</output>
		</layer>
		<layer id="340" name="predict_conv_2/Conv2D/ReadVariableOp" type="Const" version="opset1">
			<data element_type="f32" offset="28329588" shape="27, 512, 1, 1" size="55296"/>
			<rt_info>
				<attribute name="fused_names" value="predict_conv_2/Conv2D/ReadVariableOp" version="0"/>
			</rt_info>
			<output>
				<port id="0" names="predict_conv_2/Conv2D/ReadVariableOp:0" precision="FP32">
					<dim>27</dim>
					<dim>512</dim>
					<dim>1</dim>
					<dim>1</dim>
				</port>
			</output>
		</layer>
		<layer id="341" name="predict_conv_2/Conv2D" type="Convolution" version="opset1">
			<data auto_pad="same_upper" dilations="1, 1" pads_begin="0, 0" pads_end="0, 0" strides="1, 1"/>
			<rt_info>
				<attribute name="fused_names" value="predict_conv_2/Conv2D" version="0"/>
			</rt_info>
			<input>
				<port id="0" precision="FP32">
					<dim>1</dim>
					<dim>512</dim>
					<dim>60</dim>
					<dim>60</dim>
				</port>
				<port id="1" precision="FP32">
					<dim>27</dim>
					<dim>512</dim>
					<dim>1</dim>
					<dim>1</dim>
				</port>
			</input>
			<output>
				<port id="2" names="predict_conv_2/Conv2D:0" precision="FP32">
					<dim>1</dim>
					<dim>27</dim>
					<dim>60</dim>
					<dim>60</dim>
				</port>
			</output>
		</layer>
		<layer id="342" name="predict_conv_2/Conv2D/YoloRegion" type="RegionYolo" version="opset1">
			<data anchors="10, 13, 16, 30, 33, 23, 30, 61, 62, 45, 59, 119, 116, 90, 156, 198, 373, 326" axis="1" classes="4" coords="4" do_softmax="false" end_axis="3" mask="3, 4, 5" num="9"/>
			<rt_info>
				<attribute name="fused_names" value="predict_conv_2/Conv2D/YoloRegion" version="0"/>
			</rt_info>
			<input>
				<port id="0" precision="FP32">
					<dim>1</dim>
					<dim>27</dim>
					<dim>60</dim>
					<dim>60</dim>
				</port>
			</input>
			<output>
				<port id="1" names="predict_conv_2/Conv2D/YoloRegion,predict_conv_2/Conv2D/YoloRegion:0" precision="FP32">
					<dim>1</dim>
					<dim>27</dim>
					<dim>60</dim>
					<dim>60</dim>
				</port>
			</output>
		</layer>
		<layer id="344" name="conv_dw_pred_1_3_bn/batchnorm/mul_1/Fused_Mul__copy" type="Const" version="opset1">
			<data element_type="f32" offset="28384884" shape="512, 1, 1, 3, 3" size="18432"/>
			<rt_info>
				<attribute name="fused_names" value="conv_dw_pred_1_3_bn/batchnorm/mul_1/Fused_Mul__copy" version="0"/>
			</rt_info>
			<output>
				<port id="0" names="conv_dw_pred_1_3/depthwise/ReadVariableOp:0" precision="FP32">
					<dim>512</dim>
					<dim>1</dim>
					<dim>1</dim>
					<dim>3</dim>
					<dim>3</dim>
				</port>
			</output>
		</layer>
		<layer id="345" name="conv_dw_pred_1_3/depthwise" type="GroupConvolution" version="opset1">
			<data auto_pad="same_upper" dilations="1, 1" pads_begin="0, 0" pads_end="0, 0" strides="1, 1"/>
			<rt_info>
				<attribute name="fused_names" value="conv_dw_pred_1_3/depthwise" version="0"/>
			</rt_info>
			<input>
				<port id="0" precision="FP32">
					<dim>1</dim>
					<dim>512</dim>
					<dim>30</dim>
					<dim>30</dim>
				</port>
				<port id="1" precision="FP32">
					<dim>512</dim>
					<dim>1</dim>
					<dim>1</dim>
					<dim>3</dim>
					<dim>3</dim>
				</port>
			</input>
			<output>
				<port id="2" precision="FP32">
					<dim>1</dim>
					<dim>512</dim>
					<dim>30</dim>
					<dim>30</dim>
				</port>
			</output>
		</layer>
		<layer id="346" name="data_add_1001710022" type="Const" version="opset1">
			<data element_type="f32" offset="28403316" shape="1, 512, 1, 1" size="2048"/>
			<rt_info>
				<attribute name="fused_names" value="data_add_1001710022" version="0"/>
			</rt_info>
			<output>
				<port id="0" precision="FP32">
					<dim>1</dim>
					<dim>512</dim>
					<dim>1</dim>
					<dim>1</dim>
				</port>
			</output>
		</layer>
		<layer id="347" name="conv_dw_pred_1_3/BiasAdd/Add/Fused_Add_" type="Add" version="opset1">
			<data auto_broadcast="numpy"/>
			<rt_info>
				<attribute name="fused_names" value="conv_dw_pred_1_3/BiasAdd/Add/Fused_Add_" version="0"/>
			</rt_info>
			<input>
				<port id="0" precision="FP32">
					<dim>1</dim>
					<dim>512</dim>
					<dim>30</dim>
					<dim>30</dim>
				</port>
				<port id="1" precision="FP32">
					<dim>1</dim>
					<dim>512</dim>
					<dim>1</dim>
					<dim>1</dim>
				</port>
			</input>
			<output>
				<port id="2" names="conv_dw_pred_1_3_bn/batchnorm/add_1:0" precision="FP32">
					<dim>1</dim>
					<dim>512</dim>
					<dim>30</dim>
					<dim>30</dim>
				</port>
			</output>
		</layer>
		<layer id="348" name="conv_dw_pred_1_3_leaky_relu/LeakyRelu/weights1454819571" type="Const" version="opset1">
			<data element_type="f32" offset="14883360" shape="1" size="4"/>
			<rt_info>
				<attribute name="fused_names" value="conv_dw_pred_1_3_leaky_relu/LeakyRelu/weights1454819571" version="0"/>
			</rt_info>
			<output>
				<port id="0" precision="FP32">
					<dim>1</dim>
				</port>
			</output>
		</layer>
		<layer id="349" name="conv_dw_pred_1_3_leaky_relu/LeakyRelu" type="PReLU" version="opset1">
			<rt_info>
				<attribute name="fused_names" value="conv_dw_pred_1_3_leaky_relu/LeakyRelu" version="0"/>
			</rt_info>
			<input>
				<port id="0" precision="FP32">
					<dim>1</dim>
					<dim>512</dim>
					<dim>30</dim>
					<dim>30</dim>
				</port>
				<port id="1" precision="FP32">
					<dim>1</dim>
				</port>
			</input>
			<output>
				<port id="2" names="conv_dw_pred_1_3_leaky_relu/LeakyRelu:0" precision="FP32">
					<dim>1</dim>
					<dim>512</dim>
					<dim>30</dim>
					<dim>30</dim>
				</port>
			</output>
		</layer>
		<layer id="350" name="conv_pw_pred_1_3_bn/batchnorm/mul_1_copy" type="Const" version="opset1">
			<data element_type="f32" offset="28405364" shape="1024, 512, 1, 1" size="2097152"/>
			<rt_info>
				<attribute name="fused_names" value="conv_pw_pred_1_3_bn/batchnorm/mul_1_copy" version="0"/>
			</rt_info>
			<output>
				<port id="0" names="conv_pw_pred_1_3/Conv2D/ReadVariableOp:0" precision="FP32">
					<dim>1024</dim>
					<dim>512</dim>
					<dim>1</dim>
					<dim>1</dim>
				</port>
			</output>
		</layer>
		<layer id="351" name="conv_pw_pred_1_3/Conv2D" type="Convolution" version="opset1">
			<data auto_pad="same_upper" dilations="1, 1" pads_begin="0, 0" pads_end="0, 0" strides="1, 1"/>
			<rt_info>
				<attribute name="fused_names" value="conv_pw_pred_1_3/Conv2D" version="0"/>
			</rt_info>
			<input>
				<port id="0" precision="FP32">
					<dim>1</dim>
					<dim>512</dim>
					<dim>30</dim>
					<dim>30</dim>
				</port>
				<port id="1" precision="FP32">
					<dim>1024</dim>
					<dim>512</dim>
					<dim>1</dim>
					<dim>1</dim>
				</port>
			</input>
			<output>
				<port id="2" names="conv_pw_pred_1_3_bn/batchnorm/mul_1:0" precision="FP32">
					<dim>1</dim>
					<dim>1024</dim>
					<dim>30</dim>
					<dim>30</dim>
				</port>
			</output>
		</layer>
		<layer id="352" name="conv_pw_pred_1_3_bn/batchnorm/sub" type="Const" version="opset1">
			<data element_type="f32" offset="30502516" shape="1, 1024, 1, 1" size="4096"/>
			<rt_info>
				<attribute name="fused_names" value="conv_pw_pred_1_3_bn/batchnorm/sub" version="0"/>
			</rt_info>
			<output>
				<port id="0" names="conv_pw_pred_1_3_bn/batchnorm/sub:0" precision="FP32">
					<dim>1</dim>
					<dim>1024</dim>
					<dim>1</dim>
					<dim>1</dim>
				</port>
			</output>
		</layer>
		<layer id="353" name="conv_pw_pred_1_3_bn/batchnorm/add_1" type="Add" version="opset1">
			<data auto_broadcast="numpy"/>
			<rt_info>
				<attribute name="fused_names" value="conv_pw_pred_1_3_bn/batchnorm/add_1" version="0"/>
			</rt_info>
			<input>
				<port id="0" precision="FP32">
					<dim>1</dim>
					<dim>1024</dim>
					<dim>30</dim>
					<dim>30</dim>
				</port>
				<port id="1" precision="FP32">
					<dim>1</dim>
					<dim>1024</dim>
					<dim>1</dim>
					<dim>1</dim>
				</port>
			</input>
			<output>
				<port id="2" names="conv_pw_pred_1_3_bn/batchnorm/add_1:0" precision="FP32">
					<dim>1</dim>
					<dim>1024</dim>
					<dim>30</dim>
					<dim>30</dim>
				</port>
			</output>
		</layer>
		<layer id="354" name="conv_pw_pred_1_3_leaky_relu/LeakyRelu/weights1460019754" type="Const" version="opset1">
			<data element_type="f32" offset="14883360" shape="1" size="4"/>
			<rt_info>
				<attribute name="fused_names" value="conv_pw_pred_1_3_leaky_relu/LeakyRelu/weights1460019754" version="0"/>
			</rt_info>
			<output>
				<port id="0" precision="FP32">
					<dim>1</dim>
				</port>
			</output>
		</layer>
		<layer id="355" name="conv_pw_pred_1_3_leaky_relu/LeakyRelu" type="PReLU" version="opset1">
			<rt_info>
				<attribute name="fused_names" value="conv_pw_pred_1_3_leaky_relu/LeakyRelu" version="0"/>
			</rt_info>
			<input>
				<port id="0" precision="FP32">
					<dim>1</dim>
					<dim>1024</dim>
					<dim>30</dim>
					<dim>30</dim>
				</port>
				<port id="1" precision="FP32">
					<dim>1</dim>
				</port>
			</input>
			<output>
				<port id="2" names="conv_pw_pred_1_3_leaky_relu/LeakyRelu:0" precision="FP32">
					<dim>1</dim>
					<dim>1024</dim>
					<dim>30</dim>
					<dim>30</dim>
				</port>
			</output>
		</layer>
		<layer id="356" name="predict_conv_1/Conv2D/ReadVariableOp" type="Const" version="opset1">
			<data element_type="f32" offset="30506612" shape="27, 1024, 1, 1" size="110592"/>
			<rt_info>
				<attribute name="fused_names" value="predict_conv_1/Conv2D/ReadVariableOp" version="0"/>
			</rt_info>
			<output>
				<port id="0" names="predict_conv_1/Conv2D/ReadVariableOp:0" precision="FP32">
					<dim>27</dim>
					<dim>1024</dim>
					<dim>1</dim>
					<dim>1</dim>
				</port>
			</output>
		</layer>
		<layer id="357" name="predict_conv_1/Conv2D" type="Convolution" version="opset1">
			<data auto_pad="same_upper" dilations="1, 1" pads_begin="0, 0" pads_end="0, 0" strides="1, 1"/>
			<rt_info>
				<attribute name="fused_names" value="predict_conv_1/Conv2D" version="0"/>
			</rt_info>
			<input>
				<port id="0" precision="FP32">
					<dim>1</dim>
					<dim>1024</dim>
					<dim>30</dim>
					<dim>30</dim>
				</port>
				<port id="1" precision="FP32">
					<dim>27</dim>
					<dim>1024</dim>
					<dim>1</dim>
					<dim>1</dim>
				</port>
			</input>
			<output>
				<port id="2" names="predict_conv_1/Conv2D:0" precision="FP32">
					<dim>1</dim>
					<dim>27</dim>
					<dim>30</dim>
					<dim>30</dim>
				</port>
			</output>
		</layer>
		<layer id="358" name="predict_conv_1/Conv2D/YoloRegion" type="RegionYolo" version="opset1">
			<data anchors="10, 13, 16, 30, 33, 23, 30, 61, 62, 45, 59, 119, 116, 90, 156, 198, 373, 326" axis="1" classes="4" coords="4" do_softmax="false" end_axis="3" mask="6, 7, 8" num="9"/>
			<rt_info>
				<attribute name="fused_names" value="predict_conv_1/Conv2D/YoloRegion" version="0"/>
			</rt_info>
			<input>
				<port id="0" precision="FP32">
					<dim>1</dim>
					<dim>27</dim>
					<dim>30</dim>
					<dim>30</dim>
				</port>
			</input>
			<output>
				<port id="1" names="predict_conv_1/Conv2D/YoloRegion,predict_conv_1/Conv2D/YoloRegion:0" precision="FP32">
					<dim>1</dim>
					<dim>27</dim>
					<dim>30</dim>
					<dim>30</dim>
				</port>
			</output>
		</layer>
		<layer id="359" name="predict_conv_1/Conv2D/YoloRegion/sink_port_0" type="Result" version="opset1">
			<rt_info>
				<attribute name="fused_names" value="predict_conv_1/Conv2D/YoloRegion/sink_port_0" version="0"/>
			</rt_info>
			<input>
				<port id="0" precision="FP32">
					<dim>1</dim>
					<dim>27</dim>
					<dim>30</dim>
					<dim>30</dim>
				</port>
			</input>
		</layer>
		<layer id="343" name="predict_conv_2/Conv2D/YoloRegion/sink_port_0" type="Result" version="opset1">
			<rt_info>
				<attribute name="fused_names" value="predict_conv_2/Conv2D/YoloRegion/sink_port_0" version="0"/>
			</rt_info>
			<input>
				<port id="0" precision="FP32">
					<dim>1</dim>
					<dim>27</dim>
					<dim>60</dim>
					<dim>60</dim>
				</port>
			</input>
		</layer>
		<layer id="327" name="predict_conv_3/Conv2D/YoloRegion/sink_port_0" type="Result" version="opset1">
			<rt_info>
				<attribute name="fused_names" value="predict_conv_3/Conv2D/YoloRegion/sink_port_0" version="0"/>
			</rt_info>
			<input>
				<port id="0" precision="FP32">
					<dim>1</dim>
					<dim>27</dim>
					<dim>120</dim>
					<dim>120</dim>
				</port>
			</input>
		</layer>
	</layers>
	<edges>
		<edge from-layer="0" from-port="0" to-layer="2" to-port="0"/>
		<edge from-layer="1" from-port="0" to-layer="2" to-port="1"/>
		<edge from-layer="2" from-port="2" to-layer="4" to-port="0"/>
		<edge from-layer="3" from-port="0" to-layer="4" to-port="1"/>
		<edge from-layer="4" from-port="2" to-layer="6" to-port="0"/>
		<edge from-layer="5" from-port="0" to-layer="6" to-port="1"/>
		<edge from-layer="6" from-port="2" to-layer="7" to-port="0"/>
		<edge from-layer="7" from-port="1" to-layer="9" to-port="0"/>
		<edge from-layer="8" from-port="0" to-layer="9" to-port="1"/>
		<edge from-layer="9" from-port="2" to-layer="11" to-port="0"/>
		<edge from-layer="10" from-port="0" to-layer="11" to-port="1"/>
		<edge from-layer="11" from-port="2" to-layer="12" to-port="0"/>
		<edge from-layer="12" from-port="1" to-layer="14" to-port="0"/>
		<edge from-layer="13" from-port="0" to-layer="14" to-port="1"/>
		<edge from-layer="14" from-port="2" to-layer="16" to-port="0"/>
		<edge from-layer="15" from-port="0" to-layer="16" to-port="1"/>
		<edge from-layer="16" from-port="2" to-layer="17" to-port="0"/>
		<edge from-layer="17" from-port="1" to-layer="19" to-port="0"/>
		<edge from-layer="18" from-port="0" to-layer="19" to-port="1"/>
		<edge from-layer="19" from-port="2" to-layer="21" to-port="0"/>
		<edge from-layer="20" from-port="0" to-layer="21" to-port="1"/>
		<edge from-layer="21" from-port="2" to-layer="22" to-port="0"/>
		<edge from-layer="22" from-port="1" to-layer="24" to-port="0"/>
		<edge from-layer="23" from-port="0" to-layer="24" to-port="1"/>
		<edge from-layer="24" from-port="2" to-layer="26" to-port="0"/>
		<edge from-layer="25" from-port="0" to-layer="26" to-port="1"/>
		<edge from-layer="26" from-port="2" to-layer="27" to-port="0"/>
		<edge from-layer="27" from-port="1" to-layer="29" to-port="0"/>
		<edge from-layer="28" from-port="0" to-layer="29" to-port="1"/>
		<edge from-layer="29" from-port="2" to-layer="31" to-port="0"/>
		<edge from-layer="30" from-port="0" to-layer="31" to-port="1"/>
		<edge from-layer="31" from-port="2" to-layer="32" to-port="0"/>
		<edge from-layer="32" from-port="1" to-layer="34" to-port="0"/>
		<edge from-layer="33" from-port="0" to-layer="34" to-port="1"/>
		<edge from-layer="34" from-port="2" to-layer="36" to-port="0"/>
		<edge from-layer="35" from-port="0" to-layer="36" to-port="1"/>
		<edge from-layer="36" from-port="2" to-layer="37" to-port="0"/>
		<edge from-layer="37" from-port="1" to-layer="39" to-port="0"/>
		<edge from-layer="38" from-port="0" to-layer="39" to-port="1"/>
		<edge from-layer="39" from-port="2" to-layer="41" to-port="0"/>
		<edge from-layer="40" from-port="0" to-layer="41" to-port="1"/>
		<edge from-layer="41" from-port="2" to-layer="42" to-port="0"/>
		<edge from-layer="42" from-port="1" to-layer="44" to-port="0"/>
		<edge from-layer="43" from-port="0" to-layer="44" to-port="1"/>
		<edge from-layer="44" from-port="2" to-layer="46" to-port="0"/>
		<edge from-layer="45" from-port="0" to-layer="46" to-port="1"/>
		<edge from-layer="46" from-port="2" to-layer="47" to-port="0"/>
		<edge from-layer="47" from-port="1" to-layer="49" to-port="0"/>
		<edge from-layer="48" from-port="0" to-layer="49" to-port="1"/>
		<edge from-layer="49" from-port="2" to-layer="51" to-port="0"/>
		<edge from-layer="50" from-port="0" to-layer="51" to-port="1"/>
		<edge from-layer="51" from-port="2" to-layer="52" to-port="0"/>
		<edge from-layer="52" from-port="1" to-layer="54" to-port="0"/>
		<edge from-layer="53" from-port="0" to-layer="54" to-port="1"/>
		<edge from-layer="54" from-port="2" to-layer="56" to-port="0"/>
		<edge from-layer="55" from-port="0" to-layer="56" to-port="1"/>
		<edge from-layer="56" from-port="2" to-layer="57" to-port="0"/>
		<edge from-layer="57" from-port="1" to-layer="252" to-port="0"/>
		<edge from-layer="57" from-port="1" to-layer="269" to-port="1"/>
		<edge from-layer="57" from-port="1" to-layer="59" to-port="0"/>
		<edge from-layer="58" from-port="0" to-layer="59" to-port="1"/>
		<edge from-layer="59" from-port="2" to-layer="61" to-port="0"/>
		<edge from-layer="60" from-port="0" to-layer="61" to-port="1"/>
		<edge from-layer="61" from-port="2" to-layer="62" to-port="0"/>
		<edge from-layer="62" from-port="1" to-layer="64" to-port="0"/>
		<edge from-layer="63" from-port="0" to-layer="64" to-port="1"/>
		<edge from-layer="64" from-port="2" to-layer="66" to-port="0"/>
		<edge from-layer="65" from-port="0" to-layer="66" to-port="1"/>
		<edge from-layer="66" from-port="2" to-layer="67" to-port="0"/>
		<edge from-layer="67" from-port="1" to-layer="69" to-port="0"/>
		<edge from-layer="68" from-port="0" to-layer="69" to-port="1"/>
		<edge from-layer="69" from-port="2" to-layer="71" to-port="0"/>
		<edge from-layer="70" from-port="0" to-layer="71" to-port="1"/>
		<edge from-layer="71" from-port="2" to-layer="72" to-port="0"/>
		<edge from-layer="72" from-port="1" to-layer="74" to-port="0"/>
		<edge from-layer="73" from-port="0" to-layer="74" to-port="1"/>
		<edge from-layer="74" from-port="2" to-layer="76" to-port="0"/>
		<edge from-layer="75" from-port="0" to-layer="76" to-port="1"/>
		<edge from-layer="76" from-port="2" to-layer="77" to-port="0"/>
		<edge from-layer="77" from-port="1" to-layer="79" to-port="0"/>
		<edge from-layer="78" from-port="0" to-layer="79" to-port="1"/>
		<edge from-layer="79" from-port="2" to-layer="81" to-port="0"/>
		<edge from-layer="80" from-port="0" to-layer="81" to-port="1"/>
		<edge from-layer="81" from-port="2" to-layer="82" to-port="0"/>
		<edge from-layer="82" from-port="1" to-layer="84" to-port="0"/>
		<edge from-layer="83" from-port="0" to-layer="84" to-port="1"/>
		<edge from-layer="84" from-port="2" to-layer="86" to-port="0"/>
		<edge from-layer="85" from-port="0" to-layer="86" to-port="1"/>
		<edge from-layer="86" from-port="2" to-layer="87" to-port="0"/>
		<edge from-layer="87" from-port="1" to-layer="89" to-port="0"/>
		<edge from-layer="88" from-port="0" to-layer="89" to-port="1"/>
		<edge from-layer="89" from-port="2" to-layer="91" to-port="0"/>
		<edge from-layer="90" from-port="0" to-layer="91" to-port="1"/>
		<edge from-layer="91" from-port="2" to-layer="92" to-port="0"/>
		<edge from-layer="92" from-port="1" to-layer="94" to-port="0"/>
		<edge from-layer="93" from-port="0" to-layer="94" to-port="1"/>
		<edge from-layer="94" from-port="2" to-layer="96" to-port="0"/>
		<edge from-layer="95" from-port="0" to-layer="96" to-port="1"/>
		<edge from-layer="96" from-port="2" to-layer="97" to-port="0"/>
		<edge from-layer="97" from-port="1" to-layer="99" to-port="0"/>
		<edge from-layer="98" from-port="0" to-layer="99" to-port="1"/>
		<edge from-layer="99" from-port="2" to-layer="101" to-port="0"/>
		<edge from-layer="100" from-port="0" to-layer="101" to-port="1"/>
		<edge from-layer="101" from-port="2" to-layer="102" to-port="0"/>
		<edge from-layer="102" from-port="1" to-layer="104" to-port="0"/>
		<edge from-layer="103" from-port="0" to-layer="104" to-port="1"/>
		<edge from-layer="104" from-port="2" to-layer="106" to-port="0"/>
		<edge from-layer="105" from-port="0" to-layer="106" to-port="1"/>
		<edge from-layer="106" from-port="2" to-layer="107" to-port="0"/>
		<edge from-layer="107" from-port="1" to-layer="109" to-port="0"/>
		<edge from-layer="108" from-port="0" to-layer="109" to-port="1"/>
		<edge from-layer="109" from-port="2" to-layer="111" to-port="0"/>
		<edge from-layer="110" from-port="0" to-layer="111" to-port="1"/>
		<edge from-layer="111" from-port="2" to-layer="112" to-port="0"/>
		<edge from-layer="112" from-port="1" to-layer="114" to-port="0"/>
		<edge from-layer="113" from-port="0" to-layer="114" to-port="1"/>
		<edge from-layer="114" from-port="2" to-layer="116" to-port="0"/>
		<edge from-layer="115" from-port="0" to-layer="116" to-port="1"/>
		<edge from-layer="116" from-port="2" to-layer="117" to-port="0"/>
		<edge from-layer="117" from-port="1" to-layer="186" to-port="0"/>
		<edge from-layer="117" from-port="1" to-layer="203" to-port="1"/>
		<edge from-layer="117" from-port="1" to-layer="119" to-port="0"/>
		<edge from-layer="118" from-port="0" to-layer="119" to-port="1"/>
		<edge from-layer="119" from-port="2" to-layer="121" to-port="0"/>
		<edge from-layer="120" from-port="0" to-layer="121" to-port="1"/>
		<edge from-layer="121" from-port="2" to-layer="122" to-port="0"/>
		<edge from-layer="122" from-port="1" to-layer="124" to-port="0"/>
		<edge from-layer="123" from-port="0" to-layer="124" to-port="1"/>
		<edge from-layer="124" from-port="2" to-layer="126" to-port="0"/>
		<edge from-layer="125" from-port="0" to-layer="126" to-port="1"/>
		<edge from-layer="126" from-port="2" to-layer="127" to-port="0"/>
		<edge from-layer="127" from-port="1" to-layer="129" to-port="0"/>
		<edge from-layer="128" from-port="0" to-layer="129" to-port="1"/>
		<edge from-layer="129" from-port="2" to-layer="131" to-port="0"/>
		<edge from-layer="130" from-port="0" to-layer="131" to-port="1"/>
		<edge from-layer="131" from-port="2" to-layer="132" to-port="0"/>
		<edge from-layer="132" from-port="1" to-layer="134" to-port="0"/>
		<edge from-layer="133" from-port="0" to-layer="134" to-port="1"/>
		<edge from-layer="134" from-port="2" to-layer="136" to-port="0"/>
		<edge from-layer="135" from-port="0" to-layer="136" to-port="1"/>
		<edge from-layer="136" from-port="2" to-layer="137" to-port="0"/>
		<edge from-layer="137" from-port="1" to-layer="139" to-port="0"/>
		<edge from-layer="138" from-port="0" to-layer="139" to-port="1"/>
		<edge from-layer="139" from-port="2" to-layer="141" to-port="0"/>
		<edge from-layer="140" from-port="0" to-layer="141" to-port="1"/>
		<edge from-layer="141" from-port="2" to-layer="143" to-port="0"/>
		<edge from-layer="142" from-port="0" to-layer="143" to-port="1"/>
		<edge from-layer="143" from-port="2" to-layer="145" to-port="0"/>
		<edge from-layer="144" from-port="0" to-layer="145" to-port="1"/>
		<edge from-layer="145" from-port="2" to-layer="147" to-port="0"/>
		<edge from-layer="146" from-port="0" to-layer="147" to-port="1"/>
		<edge from-layer="147" from-port="2" to-layer="149" to-port="0"/>
		<edge from-layer="148" from-port="0" to-layer="149" to-port="1"/>
		<edge from-layer="149" from-port="2" to-layer="151" to-port="0"/>
		<edge from-layer="150" from-port="0" to-layer="151" to-port="1"/>
		<edge from-layer="151" from-port="2" to-layer="153" to-port="0"/>
		<edge from-layer="152" from-port="0" to-layer="153" to-port="1"/>
		<edge from-layer="153" from-port="2" to-layer="155" to-port="0"/>
		<edge from-layer="154" from-port="0" to-layer="155" to-port="1"/>
		<edge from-layer="155" from-port="2" to-layer="157" to-port="0"/>
		<edge from-layer="156" from-port="0" to-layer="157" to-port="1"/>
		<edge from-layer="157" from-port="2" to-layer="159" to-port="0"/>
		<edge from-layer="158" from-port="0" to-layer="159" to-port="1"/>
		<edge from-layer="159" from-port="2" to-layer="161" to-port="0"/>
		<edge from-layer="160" from-port="0" to-layer="161" to-port="1"/>
		<edge from-layer="161" from-port="2" to-layer="163" to-port="0"/>
		<edge from-layer="162" from-port="0" to-layer="163" to-port="1"/>
		<edge from-layer="163" from-port="2" to-layer="165" to-port="0"/>
		<edge from-layer="164" from-port="0" to-layer="165" to-port="1"/>
		<edge from-layer="165" from-port="2" to-layer="167" to-port="0"/>
		<edge from-layer="166" from-port="0" to-layer="167" to-port="1"/>
		<edge from-layer="167" from-port="2" to-layer="169" to-port="0"/>
		<edge from-layer="168" from-port="0" to-layer="169" to-port="1"/>
		<edge from-layer="169" from-port="2" to-layer="171" to-port="0"/>
		<edge from-layer="170" from-port="0" to-layer="171" to-port="1"/>
		<edge from-layer="171" from-port="2" to-layer="173" to-port="0"/>
		<edge from-layer="172" from-port="0" to-layer="173" to-port="1"/>
		<edge from-layer="173" from-port="2" to-layer="175" to-port="0"/>
		<edge from-layer="174" from-port="0" to-layer="175" to-port="1"/>
		<edge from-layer="175" from-port="2" to-layer="177" to-port="0"/>
		<edge from-layer="176" from-port="0" to-layer="177" to-port="1"/>
		<edge from-layer="177" from-port="2" to-layer="179" to-port="0"/>
		<edge from-layer="178" from-port="0" to-layer="179" to-port="1"/>
		<edge from-layer="179" from-port="2" to-layer="181" to-port="0"/>
		<edge from-layer="179" from-port="2" to-layer="345" to-port="0"/>
		<edge from-layer="180" from-port="0" to-layer="181" to-port="1"/>
		<edge from-layer="181" from-port="2" to-layer="183" to-port="0"/>
		<edge from-layer="182" from-port="0" to-layer="183" to-port="1"/>
		<edge from-layer="183" from-port="2" to-layer="185" to-port="0"/>
		<edge from-layer="184" from-port="0" to-layer="185" to-port="1"/>
		<edge from-layer="185" from-port="2" to-layer="191" to-port="0"/>
		<edge from-layer="185" from-port="2" to-layer="202" to-port="0"/>
		<edge from-layer="186" from-port="1" to-layer="189" to-port="0"/>
		<edge from-layer="187" from-port="0" to-layer="189" to-port="1"/>
		<edge from-layer="188" from-port="0" to-layer="189" to-port="2"/>
		<edge from-layer="189" from-port="3" to-layer="202" to-port="1"/>
		<edge from-layer="190" from-port="0" to-layer="200" to-port="0"/>
		<edge from-layer="191" from-port="1" to-layer="194" to-port="0"/>
		<edge from-layer="192" from-port="0" to-layer="194" to-port="1"/>
		<edge from-layer="193" from-port="0" to-layer="194" to-port="2"/>
		<edge from-layer="194" from-port="3" to-layer="198" to-port="0"/>
		<edge from-layer="195" from-port="0" to-layer="198" to-port="1"/>
		<edge from-layer="196" from-port="0" to-layer="198" to-port="2"/>
		<edge from-layer="197" from-port="0" to-layer="198" to-port="3"/>
		<edge from-layer="198" from-port="4" to-layer="199" to-port="0"/>
		<edge from-layer="199" from-port="1" to-layer="200" to-port="1"/>
		<edge from-layer="200" from-port="2" to-layer="202" to-port="2"/>
		<edge from-layer="201" from-port="0" to-layer="202" to-port="3"/>
		<edge from-layer="202" from-port="4" to-layer="203" to-port="0"/>
		<edge from-layer="203" from-port="2" to-layer="205" to-port="0"/>
		<edge from-layer="204" from-port="0" to-layer="205" to-port="1"/>
		<edge from-layer="205" from-port="2" to-layer="207" to-port="0"/>
		<edge from-layer="206" from-port="0" to-layer="207" to-port="1"/>
		<edge from-layer="207" from-port="2" to-layer="209" to-port="0"/>
		<edge from-layer="208" from-port="0" to-layer="209" to-port="1"/>
		<edge from-layer="209" from-port="2" to-layer="211" to-port="0"/>
		<edge from-layer="210" from-port="0" to-layer="211" to-port="1"/>
		<edge from-layer="211" from-port="2" to-layer="213" to-port="0"/>
		<edge from-layer="212" from-port="0" to-layer="213" to-port="1"/>
		<edge from-layer="213" from-port="2" to-layer="215" to-port="0"/>
		<edge from-layer="214" from-port="0" to-layer="215" to-port="1"/>
		<edge from-layer="215" from-port="2" to-layer="217" to-port="0"/>
		<edge from-layer="216" from-port="0" to-layer="217" to-port="1"/>
		<edge from-layer="217" from-port="2" to-layer="219" to-port="0"/>
		<edge from-layer="218" from-port="0" to-layer="219" to-port="1"/>
		<edge from-layer="219" from-port="2" to-layer="221" to-port="0"/>
		<edge from-layer="220" from-port="0" to-layer="221" to-port="1"/>
		<edge from-layer="221" from-port="2" to-layer="223" to-port="0"/>
		<edge from-layer="222" from-port="0" to-layer="223" to-port="1"/>
		<edge from-layer="223" from-port="2" to-layer="225" to-port="0"/>
		<edge from-layer="224" from-port="0" to-layer="225" to-port="1"/>
		<edge from-layer="225" from-port="2" to-layer="227" to-port="0"/>
		<edge from-layer="226" from-port="0" to-layer="227" to-port="1"/>
		<edge from-layer="227" from-port="2" to-layer="229" to-port="0"/>
		<edge from-layer="228" from-port="0" to-layer="229" to-port="1"/>
		<edge from-layer="229" from-port="2" to-layer="231" to-port="0"/>
		<edge from-layer="230" from-port="0" to-layer="231" to-port="1"/>
		<edge from-layer="231" from-port="2" to-layer="233" to-port="0"/>
		<edge from-layer="232" from-port="0" to-layer="233" to-port="1"/>
		<edge from-layer="233" from-port="2" to-layer="235" to-port="0"/>
		<edge from-layer="234" from-port="0" to-layer="235" to-port="1"/>
		<edge from-layer="235" from-port="2" to-layer="237" to-port="0"/>
		<edge from-layer="236" from-port="0" to-layer="237" to-port="1"/>
		<edge from-layer="237" from-port="2" to-layer="239" to-port="0"/>
		<edge from-layer="238" from-port="0" to-layer="239" to-port="1"/>
		<edge from-layer="239" from-port="2" to-layer="241" to-port="0"/>
		<edge from-layer="240" from-port="0" to-layer="241" to-port="1"/>
		<edge from-layer="241" from-port="2" to-layer="243" to-port="0"/>
		<edge from-layer="242" from-port="0" to-layer="243" to-port="1"/>
		<edge from-layer="243" from-port="2" to-layer="245" to-port="0"/>
		<edge from-layer="244" from-port="0" to-layer="245" to-port="1"/>
		<edge from-layer="245" from-port="2" to-layer="329" to-port="0"/>
		<edge from-layer="245" from-port="2" to-layer="247" to-port="0"/>
		<edge from-layer="246" from-port="0" to-layer="247" to-port="1"/>
		<edge from-layer="247" from-port="2" to-layer="249" to-port="0"/>
		<edge from-layer="248" from-port="0" to-layer="249" to-port="1"/>
		<edge from-layer="249" from-port="2" to-layer="251" to-port="0"/>
		<edge from-layer="250" from-port="0" to-layer="251" to-port="1"/>
		<edge from-layer="251" from-port="2" to-layer="257" to-port="0"/>
		<edge from-layer="251" from-port="2" to-layer="268" to-port="0"/>
		<edge from-layer="252" from-port="1" to-layer="255" to-port="0"/>
		<edge from-layer="253" from-port="0" to-layer="255" to-port="1"/>
		<edge from-layer="254" from-port="0" to-layer="255" to-port="2"/>
		<edge from-layer="255" from-port="3" to-layer="268" to-port="1"/>
		<edge from-layer="256" from-port="0" to-layer="266" to-port="0"/>
		<edge from-layer="257" from-port="1" to-layer="260" to-port="0"/>
		<edge from-layer="258" from-port="0" to-layer="260" to-port="1"/>
		<edge from-layer="259" from-port="0" to-layer="260" to-port="2"/>
		<edge from-layer="260" from-port="3" to-layer="264" to-port="0"/>
		<edge from-layer="261" from-port="0" to-layer="264" to-port="1"/>
		<edge from-layer="262" from-port="0" to-layer="264" to-port="2"/>
		<edge from-layer="263" from-port="0" to-layer="264" to-port="3"/>
		<edge from-layer="264" from-port="4" to-layer="265" to-port="0"/>
		<edge from-layer="265" from-port="1" to-layer="266" to-port="1"/>
		<edge from-layer="266" from-port="2" to-layer="268" to-port="2"/>
		<edge from-layer="267" from-port="0" to-layer="268" to-port="3"/>
		<edge from-layer="268" from-port="4" to-layer="269" to-port="0"/>
		<edge from-layer="269" from-port="2" to-layer="271" to-port="0"/>
		<edge from-layer="270" from-port="0" to-layer="271" to-port="1"/>
		<edge from-layer="271" from-port="2" to-layer="273" to-port="0"/>
		<edge from-layer="272" from-port="0" to-layer="273" to-port="1"/>
		<edge from-layer="273" from-port="2" to-layer="275" to-port="0"/>
		<edge from-layer="274" from-port="0" to-layer="275" to-port="1"/>
		<edge from-layer="275" from-port="2" to-layer="277" to-port="0"/>
		<edge from-layer="276" from-port="0" to-layer="277" to-port="1"/>
		<edge from-layer="277" from-port="2" to-layer="279" to-port="0"/>
		<edge from-layer="278" from-port="0" to-layer="279" to-port="1"/>
		<edge from-layer="279" from-port="2" to-layer="281" to-port="0"/>
		<edge from-layer="280" from-port="0" to-layer="281" to-port="1"/>
		<edge from-layer="281" from-port="2" to-layer="283" to-port="0"/>
		<edge from-layer="282" from-port="0" to-layer="283" to-port="1"/>
		<edge from-layer="283" from-port="2" to-layer="285" to-port="0"/>
		<edge from-layer="284" from-port="0" to-layer="285" to-port="1"/>
		<edge from-layer="285" from-port="2" to-layer="287" to-port="0"/>
		<edge from-layer="286" from-port="0" to-layer="287" to-port="1"/>
		<edge from-layer="287" from-port="2" to-layer="289" to-port="0"/>
		<edge from-layer="288" from-port="0" to-layer="289" to-port="1"/>
		<edge from-layer="289" from-port="2" to-layer="291" to-port="0"/>
		<edge from-layer="290" from-port="0" to-layer="291" to-port="1"/>
		<edge from-layer="291" from-port="2" to-layer="293" to-port="0"/>
		<edge from-layer="292" from-port="0" to-layer="293" to-port="1"/>
		<edge from-layer="293" from-port="2" to-layer="295" to-port="0"/>
		<edge from-layer="294" from-port="0" to-layer="295" to-port="1"/>
		<edge from-layer="295" from-port="2" to-layer="297" to-port="0"/>
		<edge from-layer="296" from-port="0" to-layer="297" to-port="1"/>
		<edge from-layer="297" from-port="2" to-layer="299" to-port="0"/>
		<edge from-layer="298" from-port="0" to-layer="299" to-port="1"/>
		<edge from-layer="299" from-port="2" to-layer="301" to-port="0"/>
		<edge from-layer="300" from-port="0" to-layer="301" to-port="1"/>
		<edge from-layer="301" from-port="2" to-layer="303" to-port="0"/>
		<edge from-layer="302" from-port="0" to-layer="303" to-port="1"/>
		<edge from-layer="303" from-port="2" to-layer="305" to-port="0"/>
		<edge from-layer="304" from-port="0" to-layer="305" to-port="1"/>
		<edge from-layer="305" from-port="2" to-layer="307" to-port="0"/>
		<edge from-layer="306" from-port="0" to-layer="307" to-port="1"/>
		<edge from-layer="307" from-port="2" to-layer="309" to-port="0"/>
		<edge from-layer="308" from-port="0" to-layer="309" to-port="1"/>
		<edge from-layer="309" from-port="2" to-layer="311" to-port="0"/>
		<edge from-layer="310" from-port="0" to-layer="311" to-port="1"/>
		<edge from-layer="311" from-port="2" to-layer="313" to-port="0"/>
		<edge from-layer="312" from-port="0" to-layer="313" to-port="1"/>
		<edge from-layer="313" from-port="2" to-layer="315" to-port="0"/>
		<edge from-layer="314" from-port="0" to-layer="315" to-port="1"/>
		<edge from-layer="315" from-port="2" to-layer="317" to-port="0"/>
		<edge from-layer="316" from-port="0" to-layer="317" to-port="1"/>
		<edge from-layer="317" from-port="2" to-layer="319" to-port="0"/>
		<edge from-layer="318" from-port="0" to-layer="319" to-port="1"/>
		<edge from-layer="319" from-port="2" to-layer="321" to-port="0"/>
		<edge from-layer="320" from-port="0" to-layer="321" to-port="1"/>
		<edge from-layer="321" from-port="2" to-layer="323" to-port="0"/>
		<edge from-layer="322" from-port="0" to-layer="323" to-port="1"/>
		<edge from-layer="323" from-port="2" to-layer="325" to-port="0"/>
		<edge from-layer="324" from-port="0" to-layer="325" to-port="1"/>
		<edge from-layer="325" from-port="2" to-layer="326" to-port="0"/>
		<edge from-layer="326" from-port="1" to-layer="327" to-port="0"/>
		<edge from-layer="328" from-port="0" to-layer="329" to-port="1"/>
		<edge from-layer="329" from-port="2" to-layer="331" to-port="0"/>
		<edge from-layer="330" from-port="0" to-layer="331" to-port="1"/>
		<edge from-layer="331" from-port="2" to-layer="333" to-port="0"/>
		<edge from-layer="332" from-port="0" to-layer="333" to-port="1"/>
		<edge from-layer="333" from-port="2" to-layer="335" to-port="0"/>
		<edge from-layer="334" from-port="0" to-layer="335" to-port="1"/>
		<edge from-layer="335" from-port="2" to-layer="337" to-port="0"/>
		<edge from-layer="336" from-port="0" to-layer="337" to-port="1"/>
		<edge from-layer="337" from-port="2" to-layer="339" to-port="0"/>
		<edge from-layer="338" from-port="0" to-layer="339" to-port="1"/>
		<edge from-layer="339" from-port="2" to-layer="341" to-port="0"/>
		<edge from-layer="340" from-port="0" to-layer="341" to-port="1"/>
		<edge from-layer="341" from-port="2" to-layer="342" to-port="0"/>
		<edge from-layer="342" from-port="1" to-layer="343" to-port="0"/>
		<edge from-layer="344" from-port="0" to-layer="345" to-port="1"/>
		<edge from-layer="345" from-port="2" to-layer="347" to-port="0"/>
		<edge from-layer="346" from-port="0" to-layer="347" to-port="1"/>
		<edge from-layer="347" from-port="2" to-layer="349" to-port="0"/>
		<edge from-layer="348" from-port="0" to-layer="349" to-port="1"/>
		<edge from-layer="349" from-port="2" to-layer="351" to-port="0"/>
		<edge from-layer="350" from-port="0" to-layer="351" to-port="1"/>
		<edge from-layer="351" from-port="2" to-layer="353" to-port="0"/>
		<edge from-layer="352" from-port="0" to-layer="353" to-port="1"/>
		<edge from-layer="353" from-port="2" to-layer="355" to-port="0"/>
		<edge from-layer="354" from-port="0" to-layer="355" to-port="1"/>
		<edge from-layer="355" from-port="2" to-layer="357" to-port="0"/>
		<edge from-layer="356" from-port="0" to-layer="357" to-port="1"/>
		<edge from-layer="357" from-port="2" to-layer="358" to-port="0"/>
		<edge from-layer="358" from-port="1" to-layer="359" to-port="0"/>
	</edges>
	<meta_data>
		<MO_version value="2022.2.0-7713-af16ea1d79a-releases/2022/2"/>
		<Runtime_version value="2022.2.0-7713-af16ea1d79a-releases/2022/2"/>
		<legacy_path value="True"/>
		<cli_parameters>
			<batch value="1"/>
			<caffe_parser_path value="DIR"/>
			<compress_fp16 value="False"/>
			<data_type value="float"/>
			<disable_nhwc_to_nchw value="False"/>
			<disable_omitting_optional value="False"/>
			<disable_resnet_optimization value="False"/>
			<disable_weights_compression value="False"/>
			<enable_concat_optimization value="False"/>
			<enable_flattening_nested_params value="False"/>
			<enable_ssd_gluoncv value="False"/>
			<extensions value="DIR"/>
			<framework value="tf"/>
			<freeze_placeholder_with_value value="{}"/>
			<input_model value="DIR/dacovadetection_20221129_13345_265666_infer.pb"/>
			<input_model_is_text value="False"/>
			<k value="DIR/CustomLayersMapping.xml"/>
			<layout value="()"/>
			<layout_values value="{}"/>
			<legacy_mxnet_model value="False"/>
			<log_level value="ERROR"/>
			<mean_scale_values value="{}"/>
			<mean_values value="()"/>
			<model_name value="dacovadetection_20221129_13345_265666_infer"/>
			<output_dir value="DIR"/>
			<placeholder_data_types value="{}"/>
			<progress value="False"/>
			<remove_memory value="False"/>
			<remove_output_softmax value="False"/>
			<reverse_input_channels value="False"/>
			<save_params_from_nd value="False"/>
			<scale_values value="()"/>
			<silent value="False"/>
			<source_layout value="()"/>
			<static_shape value="False"/>
			<stream_output value="False"/>
			<target_layout value="()"/>
			<transform value=""/>
			<transformations_config value="DIR/yolov3_openvino.json"/>
			<use_legacy_frontend value="False"/>
			<use_new_frontend value="False"/>
			<unset unset_cli_parameters="counts, disable_fusing, finegrain_fusing, input, input_checkpoint, input_meta_graph, input_proto, input_shape, input_symbol, mean_file, mean_file_offsets, nd_prefix_name, output, packed_user_shapes, placeholder_shapes, pretrained_model_name, saved_model_dir, saved_model_tags, scale, tensorboard_logdir, tensorflow_custom_layer_libraries, tensorflow_custom_operations_config_update, tensorflow_object_detection_api_pipeline_config, tensorflow_use_custom_operations_config"/>
		</cli_parameters>
	</meta_data>
</net>
